…
step = 980, loss = 0.11629471, r2_train = 0.017366227, r2_test = 0.01872469, train_time = 23.349, used_time = 24459.066
step = 985, loss = 0.11612926, r2_train = 0.017811743, r2_test = 0.019056717, train_time = 23.285, used_time = 24580.870
step = 990, loss = 0.11712389, r2_train = 0.023756112, r2_test = 0.025139544, train_time = 23.271, used_time = 24702.574
step = 995, loss = 0.1166127, r2_train = 0.018690568, r2_test = 0.0203257, train_time = 23.093, used_time = 24823.518
step = 1000, loss = 0.11842334, r2_train = 0.020265838, r2_test = 0.021518294, train_time = 23.263, used_time = 24945.298
MLP(
  (net): Sequential(
    (0): Linear(in_features=68, out_features=100, bias=True)
    (1): GELU()
    (2): Linear(in_features=100, out_features=200, bias=True)
    (3): GELU()
    (4): Linear(in_features=200, out_features=200, bias=True)
    (5): GELU()
    (6): Linear(in_features=200, out_features=100, bias=True)
    (7): GELU()
    (8): Linear(in_features=100, out_features=100, bias=True)
    (9): GELU()
    (10): Linear(in_features=100, out_features=50, bias=True)
    (11): GELU()
    (12): Linear(in_features=50, out_features=20, bias=True)
    (13): GELU()
    (14): Linear(in_features=20, out_features=1, bias=True)
  )
)

Total number of trainable parameters: 103591

Checkpoint found: 1000

batch_size = 300
bias = True
clear_checkpoint = False
clip_grad = 0
cuda = -1
device = cpu
dtype = float64
lr = 0.0005
max_step = 1000
n_in = 68
n_out = 1
net_depth = 9
net_width = (100, 200, 200, 100, 100, 50, 20)
no_stdout = False
optimizer = adam
out_dir = out
out_filename = out/MLP_nd9_nw-100-200-200-100-100-50-20_bias/out
out_infix = 
print_step = 5
save_step = 10
seed = 64047777
tolerance = 1e-05

init_time = 0.000
Training...
MLP(
  (net): Sequential(
    (0): Linear(in_features=68, out_features=100, bias=True)
    (1): GELU()
    (2): Linear(in_features=100, out_features=200, bias=True)
    (3): GELU()
    (4): Linear(in_features=200, out_features=200, bias=True)
    (5): GELU()
    (6): Linear(in_features=200, out_features=100, bias=True)
    (7): GELU()
    (8): Linear(in_features=100, out_features=100, bias=True)
    (9): GELU()
    (10): Linear(in_features=100, out_features=50, bias=True)
    (11): GELU()
    (12): Linear(in_features=50, out_features=20, bias=True)
    (13): GELU()
    (14): Linear(in_features=20, out_features=1, bias=True)
  )
)

Total number of trainable parameters: 103591

Checkpoint found: 1000

batch_size = 300
bias = True
clear_checkpoint = False
clip_grad = 0
cuda = -1
device = cpu
dtype = float64
lr = 0.0005
max_step = 1000
n_in = 68
n_out = 1
net_depth = 9
net_width = (100, 200, 200, 100, 100, 50, 20)
no_stdout = False
optimizer = adam
out_dir = out
out_filename = out/MLP_nd9_nw-100-200-200-100-100-50-20_bias/out
out_infix = 
print_step = 5
save_step = 10
seed = 42813077
tolerance = 1e-05

init_time = 0.000
Training...
MLP(
  (net): Sequential(
    (0): Linear(in_features=68, out_features=100, bias=True)
    (1): GELU()
    (2): Linear(in_features=100, out_features=200, bias=True)
    (3): GELU()
    (4): Linear(in_features=200, out_features=200, bias=True)
    (5): GELU()
    (6): Linear(in_features=200, out_features=100, bias=True)
    (7): GELU()
    (8): Linear(in_features=100, out_features=100, bias=True)
    (9): GELU()
    (10): Linear(in_features=100, out_features=50, bias=True)
    (11): GELU()
    (12): Linear(in_features=50, out_features=20, bias=True)
    (13): GELU()
    (14): Linear(in_features=20, out_features=1, bias=True)
  )
)

Total number of trainable parameters: 103591

Checkpoint found: 1000

batch_size = 300
bias = True
clear_checkpoint = False
clip_grad = 0
cuda = -1
device = cpu
dtype = float64
lr = 0.0005
max_step = 1000
n_in = 68
n_out = 1
net_depth = 9
net_width = (100, 200, 200, 100, 100, 50, 20)
no_stdout = False
optimizer = adam
out_dir = out
out_filename = out/MLP_nd9_nw-100-200-200-100-100-50-20_bias/out
out_infix = 
print_step = 5
save_step = 10
seed = 77180043
tolerance = 1e-05

init_time = 0.000
Training...
MLP(
  (net): Sequential(
    (0): Linear(in_features=68, out_features=100, bias=True)
    (1): GELU()
    (2): Linear(in_features=100, out_features=200, bias=True)
    (3): GELU()
    (4): Linear(in_features=200, out_features=200, bias=True)
    (5): GELU()
    (6): Linear(in_features=200, out_features=100, bias=True)
    (7): GELU()
    (8): Linear(in_features=100, out_features=100, bias=True)
    (9): GELU()
    (10): Linear(in_features=100, out_features=50, bias=True)
    (11): GELU()
    (12): Linear(in_features=50, out_features=20, bias=True)
    (13): GELU()
    (14): Linear(in_features=20, out_features=1, bias=True)
  )
)

Total number of trainable parameters: 103591

Checkpoint found: 1000

batch_size = 300
bias = True
clear_checkpoint = False
clip_grad = 0
cuda = -1
device = cpu
dtype = float64
lr = 0.0005
max_step = 1000
n_in = 68
n_out = 1
net_depth = 9
net_width = (100, 200, 200, 100, 100, 50, 20)
no_stdout = False
optimizer = adam
out_dir = out
out_filename = out/MLP_nd9_nw-100-200-200-100-100-50-20_bias/out
out_infix = 
print_step = 5
save_step = 10
seed = 4525790
tolerance = 1e-05

init_time = 0.000
Training...
MLP(
  (net): Sequential(
    (0): Linear(in_features=68, out_features=100, bias=True)
    (1): GELU()
    (2): Linear(in_features=100, out_features=200, bias=True)
    (3): GELU()
    (4): Linear(in_features=200, out_features=200, bias=True)
    (5): GELU()
    (6): Linear(in_features=200, out_features=100, bias=True)
    (7): GELU()
    (8): Linear(in_features=100, out_features=100, bias=True)
    (9): GELU()
    (10): Linear(in_features=100, out_features=50, bias=True)
    (11): GELU()
    (12): Linear(in_features=50, out_features=20, bias=True)
    (13): GELU()
    (14): Linear(in_features=20, out_features=1, bias=True)
  )
)

Total number of trainable parameters: 103591

Checkpoint found: 1000

batch_size = 300
bias = True
clear_checkpoint = False
clip_grad = 0
cuda = -1
device = cpu
dtype = float64
lr = 0.0005
max_step = 1000
n_in = 68
n_out = 1
net_depth = 9
net_width = (100, 200, 200, 100, 100, 50, 20)
no_stdout = False
optimizer = adam
out_dir = out
out_filename = out/MLP_nd9_nw-100-200-200-100-100-50-20_bias/out
out_infix = 
print_step = 5
save_step = 10
seed = 12181339
tolerance = 1e-05

init_time = 0.000
Training...
MLP(
  (net): Sequential(
    (0): Linear(in_features=68, out_features=100, bias=True)
    (1): GELU()
    (2): Linear(in_features=100, out_features=200, bias=True)
    (3): GELU()
    (4): Linear(in_features=200, out_features=200, bias=True)
    (5): GELU()
    (6): Linear(in_features=200, out_features=100, bias=True)
    (7): GELU()
    (8): Linear(in_features=100, out_features=100, bias=True)
    (9): GELU()
    (10): Linear(in_features=100, out_features=50, bias=True)
    (11): GELU()
    (12): Linear(in_features=50, out_features=20, bias=True)
    (13): GELU()
    (14): Linear(in_features=20, out_features=1, bias=True)
  )
)

Total number of trainable parameters: 103591

Checkpoint found: 1000

batch_size = 300
bias = True
clear_checkpoint = False
clip_grad = 0
cuda = -1
device = cpu
dtype = float64
lr = 0.0005
max_step = 1000
n_in = 68
n_out = 1
net_depth = 9
net_width = (100, 200, 200, 100, 100, 50, 20)
no_stdout = False
optimizer = adam
out_dir = out
out_filename = out/MLP_nd9_nw-100-200-200-100-100-50-20_bias/out
out_infix = 
print_step = 5
save_step = 10
seed = 85355225
tolerance = 1e-05

init_time = 0.000
Training...
MLP(
  (net): Sequential(
    (0): Linear(in_features=68, out_features=100, bias=True)
    (1): GELU()
    (2): Linear(in_features=100, out_features=200, bias=True)
    (3): GELU()
    (4): Linear(in_features=200, out_features=200, bias=True)
    (5): GELU()
    (6): Linear(in_features=200, out_features=100, bias=True)
    (7): GELU()
    (8): Linear(in_features=100, out_features=100, bias=True)
    (9): GELU()
    (10): Linear(in_features=100, out_features=50, bias=True)
    (11): GELU()
    (12): Linear(in_features=50, out_features=20, bias=True)
    (13): GELU()
    (14): Linear(in_features=20, out_features=1, bias=True)
  )
)

Total number of trainable parameters: 103591

Checkpoint found: 1000

batch_size = 300
bias = True
clear_checkpoint = False
clip_grad = 0
cuda = -1
device = cpu
dtype = float64
lr = 0.0005
max_step = 1000
n_in = 68
n_out = 1
net_depth = 9
net_width = (100, 200, 200, 100, 100, 50, 20)
no_stdout = False
optimizer = adam
out_dir = out
out_filename = out/MLP_nd9_nw-100-200-200-100-100-50-20_bias/out
out_infix = 
print_step = 5
save_step = 10
seed = 59927521
tolerance = 1e-05

init_time = 0.000
Training...
MLP(
  (net): Sequential(
    (0): Linear(in_features=68, out_features=100, bias=True)
    (1): GELU()
    (2): Linear(in_features=100, out_features=200, bias=True)
    (3): GELU()
    (4): Linear(in_features=200, out_features=200, bias=True)
    (5): GELU()
    (6): Linear(in_features=200, out_features=100, bias=True)
    (7): GELU()
    (8): Linear(in_features=100, out_features=100, bias=True)
    (9): GELU()
    (10): Linear(in_features=100, out_features=50, bias=True)
    (11): GELU()
    (12): Linear(in_features=50, out_features=20, bias=True)
    (13): GELU()
    (14): Linear(in_features=20, out_features=1, bias=True)
  )
)

Total number of trainable parameters: 103591

Checkpoint found: 1000

batch_size = 300
bias = True
clear_checkpoint = False
clip_grad = 0
cuda = -1
device = cpu
dtype = float64
lr = 0.0005
max_step = 1000
n_in = 68
n_out = 1
net_depth = 9
net_width = (100, 200, 200, 100, 100, 50, 20)
no_stdout = False
optimizer = adam
out_dir = out
out_filename = out/MLP_nd9_nw-100-200-200-100-100-50-20_bias/out
out_infix = 
print_step = 5
save_step = 10
seed = 45091806
tolerance = 1e-05

init_time = 0.000
Training...
MLP(
  (net): Sequential(
    (0): Linear(in_features=68, out_features=100, bias=True)
    (1): GELU()
    (2): Linear(in_features=100, out_features=200, bias=True)
    (3): GELU()
    (4): Linear(in_features=200, out_features=200, bias=True)
    (5): GELU()
    (6): Linear(in_features=200, out_features=100, bias=True)
    (7): GELU()
    (8): Linear(in_features=100, out_features=100, bias=True)
    (9): GELU()
    (10): Linear(in_features=100, out_features=50, bias=True)
    (11): GELU()
    (12): Linear(in_features=50, out_features=20, bias=True)
    (13): GELU()
    (14): Linear(in_features=20, out_features=1, bias=True)
  )
)

Total number of trainable parameters: 103591

Checkpoint found: 1000

batch_size = 300
bias = True
clear_checkpoint = False
clip_grad = 0
cuda = -1
device = cpu
dtype = float64
lr = 0.0005
max_step = 1000
n_in = 68
n_out = 1
net_depth = 9
net_width = (100, 200, 200, 100, 100, 50, 20)
no_stdout = False
optimizer = adam
out_dir = out
out_filename = out/MLP_nd9_nw-100-200-200-100-100-50-20_bias/out
out_infix = 
print_step = 5
save_step = 10
seed = 6182695
tolerance = 1e-05

init_time = 0.000
Training...
MLP(
  (net): Sequential(
    (0): Linear(in_features=68, out_features=100, bias=True)
    (1): GELU()
    (2): Linear(in_features=100, out_features=200, bias=True)
    (3): GELU()
    (4): Linear(in_features=200, out_features=200, bias=True)
    (5): GELU()
    (6): Linear(in_features=200, out_features=100, bias=True)
    (7): GELU()
    (8): Linear(in_features=100, out_features=100, bias=True)
    (9): GELU()
    (10): Linear(in_features=100, out_features=50, bias=True)
    (11): GELU()
    (12): Linear(in_features=50, out_features=20, bias=True)
    (13): GELU()
    (14): Linear(in_features=20, out_features=1, bias=True)
  )
)

Total number of trainable parameters: 103591

Checkpoint found: 1000

batch_size = 300
bias = True
clear_checkpoint = False
clip_grad = 0
cuda = -1
device = cpu
dtype = float64
lr = 0.0005
max_step = 1000
n_in = 68
n_out = 1
net_depth = 9
net_width = (100, 200, 200, 100, 100, 50, 20)
no_stdout = False
optimizer = adam
out_dir = out
out_filename = out/MLP_nd9_nw-100-200-200-100-100-50-20_bias/out
out_infix = 
print_step = 5
save_step = 10
seed = 46866107
tolerance = 1e-05

init_time = 0.000
Training...
MLP(
  (net): Sequential(
    (0): Linear(in_features=68, out_features=100, bias=True)
    (1): GELU()
    (2): Linear(in_features=100, out_features=200, bias=True)
    (3): GELU()
    (4): Linear(in_features=200, out_features=200, bias=True)
    (5): GELU()
    (6): Linear(in_features=200, out_features=100, bias=True)
    (7): GELU()
    (8): Linear(in_features=100, out_features=100, bias=True)
    (9): GELU()
    (10): Linear(in_features=100, out_features=50, bias=True)
    (11): GELU()
    (12): Linear(in_features=50, out_features=20, bias=True)
    (13): GELU()
    (14): Linear(in_features=20, out_features=1, bias=True)
  )
)

Total number of trainable parameters: 103591

Checkpoint found: 1000

batch_size = 300
bias = True
clear_checkpoint = False
clip_grad = 0
cuda = -1
device = cpu
dtype = float64
lr = 0.0005
max_step = 1000
n_in = 68
n_out = 1
net_depth = 9
net_width = (100, 200, 200, 100, 100, 50, 20)
no_stdout = False
optimizer = adam
out_dir = out
out_filename = out/MLP_nd9_nw-100-200-200-100-100-50-20_bias/out
out_infix = 
print_step = 5
save_step = 10
seed = 52916277
tolerance = 1e-05

init_time = 0.000
Training...
MLP(
  (net): Sequential(
    (0): Linear(in_features=68, out_features=100, bias=True)
    (1): GELU()
    (2): Linear(in_features=100, out_features=200, bias=True)
    (3): GELU()
    (4): Linear(in_features=200, out_features=200, bias=True)
    (5): GELU()
    (6): Linear(in_features=200, out_features=100, bias=True)
    (7): GELU()
    (8): Linear(in_features=100, out_features=100, bias=True)
    (9): GELU()
    (10): Linear(in_features=100, out_features=50, bias=True)
    (11): GELU()
    (12): Linear(in_features=50, out_features=20, bias=True)
    (13): GELU()
    (14): Linear(in_features=20, out_features=1, bias=True)
  )
)

Total number of trainable parameters: 103591

Checkpoint found: 1000

batch_size = 300
bias = True
clear_checkpoint = False
clip_grad = 0
cuda = -1
device = cpu
dtype = float64
lr = 0.0005
max_step = 1000
n_in = 68
n_out = 1
net_depth = 9
net_width = (100, 200, 200, 100, 100, 50, 20)
no_stdout = False
optimizer = adam
out_dir = out
out_filename = out/MLP_nd9_nw-100-200-200-100-100-50-20_bias/out
out_infix = 
print_step = 5
save_step = 10
seed = 50517603
tolerance = 1e-05

init_time = 0.000
Training...
MLP(
  (net): Sequential(
    (0): Linear(in_features=68, out_features=100, bias=True)
    (1): GELU()
    (2): Linear(in_features=100, out_features=200, bias=True)
    (3): GELU()
    (4): Linear(in_features=200, out_features=200, bias=True)
    (5): GELU()
    (6): Linear(in_features=200, out_features=100, bias=True)
    (7): GELU()
    (8): Linear(in_features=100, out_features=100, bias=True)
    (9): GELU()
    (10): Linear(in_features=100, out_features=50, bias=True)
    (11): GELU()
    (12): Linear(in_features=50, out_features=20, bias=True)
    (13): GELU()
    (14): Linear(in_features=20, out_features=1, bias=True)
  )
)

Total number of trainable parameters: 103591

Checkpoint found: 1000

batch_size = 300
bias = True
clear_checkpoint = False
clip_grad = 0
cuda = -1
device = cpu
dtype = float64
lr = 0.0005
max_step = 1000
n_in = 68
n_out = 1
net_depth = 9
net_width = (100, 200, 200, 100, 100, 50, 20)
no_stdout = False
optimizer = adam
out_dir = out
out_filename = out/MLP_nd9_nw-100-200-200-100-100-50-20_bias/out
out_infix = 
print_step = 5
save_step = 10
seed = 34453751
tolerance = 1e-05

init_time = 0.000
Training...
MLP(
  (net): Sequential(
    (0): Linear(in_features=68, out_features=100, bias=True)
    (1): GELU()
    (2): Linear(in_features=100, out_features=200, bias=True)
    (3): GELU()
    (4): Linear(in_features=200, out_features=200, bias=True)
    (5): GELU()
    (6): Linear(in_features=200, out_features=100, bias=True)
    (7): GELU()
    (8): Linear(in_features=100, out_features=100, bias=True)
    (9): GELU()
    (10): Linear(in_features=100, out_features=50, bias=True)
    (11): GELU()
    (12): Linear(in_features=50, out_features=20, bias=True)
    (13): GELU()
    (14): Linear(in_features=20, out_features=1, bias=True)
  )
)

Total number of trainable parameters: 103591

Checkpoint found: 1000

batch_size = 300
bias = True
clear_checkpoint = False
clip_grad = 0
cuda = -1
device = cpu
dtype = float64
lr = 0.0005
max_step = 1000
n_in = 68
n_out = 1
net_depth = 9
net_width = (100, 200, 200, 100, 100, 50, 20)
no_stdout = False
optimizer = adam
out_dir = out
out_filename = out/MLP_nd9_nw-100-200-200-100-100-50-20_bias/out
out_infix = 
print_step = 5
save_step = 10
seed = 43171140
tolerance = 1e-05

init_time = 0.000
Training...
MLP(
  (net): Sequential(
    (0): Linear(in_features=68, out_features=100, bias=True)
    (1): GELU()
    (2): Linear(in_features=100, out_features=200, bias=True)
    (3): GELU()
    (4): Linear(in_features=200, out_features=200, bias=True)
    (5): GELU()
    (6): Linear(in_features=200, out_features=100, bias=True)
    (7): GELU()
    (8): Linear(in_features=100, out_features=100, bias=True)
    (9): GELU()
    (10): Linear(in_features=100, out_features=50, bias=True)
    (11): GELU()
    (12): Linear(in_features=50, out_features=20, bias=True)
    (13): GELU()
    (14): Linear(in_features=20, out_features=1, bias=True)
  )
)

Total number of trainable parameters: 103591

Checkpoint found: 1000

batch_size = 300
bias = True
clear_checkpoint = False
clip_grad = 0
cuda = -1
device = cpu
dtype = float64
lr = 0.0005
max_step = 1000
n_in = 68
n_out = 1
net_depth = 9
net_width = (100, 200, 200, 100, 100, 50, 20)
no_stdout = False
optimizer = adam
out_dir = out
out_filename = out/MLP_nd9_nw-100-200-200-100-100-50-20_bias/out
out_infix = 
print_step = 5
save_step = 10
seed = 66299554
tolerance = 1e-05

init_time = 0.000
Training...
MLP(
  (net): Sequential(
    (0): Linear(in_features=68, out_features=100, bias=True)
    (1): GELU()
    (2): Linear(in_features=100, out_features=200, bias=True)
    (3): GELU()
    (4): Linear(in_features=200, out_features=200, bias=True)
    (5): GELU()
    (6): Linear(in_features=200, out_features=100, bias=True)
    (7): GELU()
    (8): Linear(in_features=100, out_features=100, bias=True)
    (9): GELU()
    (10): Linear(in_features=100, out_features=50, bias=True)
    (11): GELU()
    (12): Linear(in_features=50, out_features=20, bias=True)
    (13): GELU()
    (14): Linear(in_features=20, out_features=1, bias=True)
  )
)

Total number of trainable parameters: 103591

Checkpoint found: 1000

batch_size = 300
bias = True
clear_checkpoint = False
clip_grad = 0
cuda = -1
device = cpu
dtype = float64
lr = 0.0005
max_step = 1000
n_in = 68
n_out = 1
net_depth = 9
net_width = (100, 200, 200, 100, 100, 50, 20)
no_stdout = False
optimizer = adam
out_dir = out
out_filename = out/MLP_nd9_nw-100-200-200-100-100-50-20_bias/out
out_infix = 
print_step = 5
save_step = 10
seed = 96807050
tolerance = 1e-05

init_time = 0.000
Training...
MLP(
  (net): Sequential(
    (0): Linear(in_features=68, out_features=100, bias=True)
    (1): GELU()
    (2): Linear(in_features=100, out_features=200, bias=True)
    (3): GELU()
    (4): Linear(in_features=200, out_features=200, bias=True)
    (5): GELU()
    (6): Linear(in_features=200, out_features=100, bias=True)
    (7): GELU()
    (8): Linear(in_features=100, out_features=100, bias=True)
    (9): GELU()
    (10): Linear(in_features=100, out_features=50, bias=True)
    (11): GELU()
    (12): Linear(in_features=50, out_features=20, bias=True)
    (13): GELU()
    (14): Linear(in_features=20, out_features=1, bias=True)
  )
)

Total number of trainable parameters: 103591

Checkpoint found: 1000

batch_size = 300
bias = True
clear_checkpoint = False
clip_grad = 0
cuda = -1
device = cpu
dtype = float64
lr = 0.0005
max_step = 1000
n_in = 68
n_out = 1
net_depth = 9
net_width = (100, 200, 200, 100, 100, 50, 20)
no_stdout = False
optimizer = adam
out_dir = out
out_filename = out/MLP_nd9_nw-100-200-200-100-100-50-20_bias/out
out_infix = 
print_step = 5
save_step = 10
seed = 13529696
tolerance = 1e-05

init_time = 0.000
Training...
MLP(
  (net): Sequential(
    (0): Linear(in_features=68, out_features=100, bias=True)
    (1): GELU()
    (2): Linear(in_features=100, out_features=200, bias=True)
    (3): GELU()
    (4): Linear(in_features=200, out_features=200, bias=True)
    (5): GELU()
    (6): Linear(in_features=200, out_features=100, bias=True)
    (7): GELU()
    (8): Linear(in_features=100, out_features=100, bias=True)
    (9): GELU()
    (10): Linear(in_features=100, out_features=50, bias=True)
    (11): GELU()
    (12): Linear(in_features=50, out_features=20, bias=True)
    (13): GELU()
    (14): Linear(in_features=20, out_features=1, bias=True)
  )
)

Total number of trainable parameters: 103591

Checkpoint found: 1000

batch_size = 300
bias = True
clear_checkpoint = False
clip_grad = 0
cuda = -1
device = cpu
dtype = float64
lr = 0.0005
max_step = 1000
n_in = 68
n_out = 1
net_depth = 9
net_width = (100, 200, 200, 100, 100, 50, 20)
no_stdout = False
optimizer = adam
out_dir = out
out_filename = out/MLP_nd9_nw-100-200-200-100-100-50-20_bias/out
out_infix = 
print_step = 5
save_step = 10
seed = 44494173
tolerance = 1e-05

init_time = 0.000
Training...
MLP(
  (net): Sequential(
    (0): Linear(in_features=68, out_features=100, bias=True)
    (1): GELU()
    (2): Linear(in_features=100, out_features=200, bias=True)
    (3): GELU()
    (4): Linear(in_features=200, out_features=200, bias=True)
    (5): GELU()
    (6): Linear(in_features=200, out_features=100, bias=True)
    (7): GELU()
    (8): Linear(in_features=100, out_features=100, bias=True)
    (9): GELU()
    (10): Linear(in_features=100, out_features=50, bias=True)
    (11): GELU()
    (12): Linear(in_features=50, out_features=20, bias=True)
    (13): GELU()
    (14): Linear(in_features=20, out_features=1, bias=True)
  )
)

Total number of trainable parameters: 103591

Checkpoint found: 1000

batch_size = 300
bias = True
clear_checkpoint = False
clip_grad = 0
cuda = -1
device = cpu
dtype = float64
lr = 0.0005
max_step = 1000
n_in = 68
n_out = 1
net_depth = 9
net_width = (100, 200, 200, 100, 100, 50, 20)
no_stdout = False
optimizer = adam
out_dir = out
out_filename = out/MLP_nd9_nw-100-200-200-100-100-50-20_bias/out
out_infix = 
print_step = 5
save_step = 10
seed = 85203359
tolerance = 1e-05

init_time = 0.000
Training...
MLP(
  (net): Sequential(
    (0): Linear(in_features=68, out_features=100, bias=True)
    (1): GELU()
    (2): Linear(in_features=100, out_features=200, bias=True)
    (3): GELU()
    (4): Linear(in_features=200, out_features=200, bias=True)
    (5): GELU()
    (6): Linear(in_features=200, out_features=100, bias=True)
    (7): GELU()
    (8): Linear(in_features=100, out_features=100, bias=True)
    (9): GELU()
    (10): Linear(in_features=100, out_features=50, bias=True)
    (11): GELU()
    (12): Linear(in_features=50, out_features=20, bias=True)
    (13): GELU()
    (14): Linear(in_features=20, out_features=1, bias=True)
  )
)

Total number of trainable parameters: 103591

Checkpoint found: 1000

batch_size = 300
bias = True
clear_checkpoint = False
clip_grad = 0
cuda = -1
device = cpu
dtype = float64
lr = 0.0005
max_step = 1000
n_in = 68
n_out = 1
net_depth = 9
net_width = (100, 200, 200, 100, 100, 50, 20)
no_stdout = False
optimizer = adam
out_dir = out
out_filename = out/MLP_nd9_nw-100-200-200-100-100-50-20_bias/out
out_infix = 
print_step = 5
save_step = 10
seed = 58985829
tolerance = 1e-05

init_time = 0.000
Training...
MLP(
  (net): Sequential(
    (0): Linear(in_features=68, out_features=100, bias=True)
    (1): GELU()
    (2): Linear(in_features=100, out_features=200, bias=True)
    (3): GELU()
    (4): Linear(in_features=200, out_features=200, bias=True)
    (5): GELU()
    (6): Linear(in_features=200, out_features=100, bias=True)
    (7): GELU()
    (8): Linear(in_features=100, out_features=100, bias=True)
    (9): GELU()
    (10): Linear(in_features=100, out_features=50, bias=True)
    (11): GELU()
    (12): Linear(in_features=50, out_features=20, bias=True)
    (13): GELU()
    (14): Linear(in_features=20, out_features=1, bias=True)
  )
)

Total number of trainable parameters: 103591

Checkpoint found: 1000

batch_size = 300
bias = True
clear_checkpoint = False
clip_grad = 0
cuda = -1
device = cpu
dtype = float64
lr = 0.0005
max_step = 1000
n_in = 68
n_out = 1
net_depth = 9
net_width = (100, 200, 200, 100, 100, 50, 20)
no_stdout = False
optimizer = adam
out_dir = out
out_filename = out/MLP_nd9_nw-100-200-200-100-100-50-20_bias/out
out_infix = 
print_step = 5
save_step = 10
seed = 96265825
tolerance = 1e-05

init_time = 0.000
Training...
MLP(
  (net): Sequential(
    (0): Linear(in_features=68, out_features=100, bias=True)
    (1): GELU()
    (2): Linear(in_features=100, out_features=200, bias=True)
    (3): GELU()
    (4): Linear(in_features=200, out_features=200, bias=True)
    (5): GELU()
    (6): Linear(in_features=200, out_features=100, bias=True)
    (7): GELU()
    (8): Linear(in_features=100, out_features=100, bias=True)
    (9): GELU()
    (10): Linear(in_features=100, out_features=50, bias=True)
    (11): GELU()
    (12): Linear(in_features=50, out_features=20, bias=True)
    (13): GELU()
    (14): Linear(in_features=20, out_features=1, bias=True)
  )
)

Total number of trainable parameters: 103591

Checkpoint found: 1000

batch_size = 300
bias = True
clear_checkpoint = False
clip_grad = 0
cuda = -1
device = cpu
dtype = float64
lr = 0.0005
max_step = 1000
n_in = 68
n_out = 1
net_depth = 9
net_width = (100, 200, 200, 100, 100, 50, 20)
no_stdout = False
optimizer = adam
out_dir = out
out_filename = out/MLP_nd9_nw-100-200-200-100-100-50-20_bias/out
out_infix = 
print_step = 5
save_step = 10
seed = 79334702
tolerance = 1e-05

init_time = 0.000
Training...
MLP(
  (net): Sequential(
    (0): Linear(in_features=68, out_features=100, bias=True)
    (1): GELU()
    (2): Linear(in_features=100, out_features=200, bias=True)
    (3): GELU()
    (4): Linear(in_features=200, out_features=200, bias=True)
    (5): GELU()
    (6): Linear(in_features=200, out_features=100, bias=True)
    (7): GELU()
    (8): Linear(in_features=100, out_features=100, bias=True)
    (9): GELU()
    (10): Linear(in_features=100, out_features=50, bias=True)
    (11): GELU()
    (12): Linear(in_features=50, out_features=20, bias=True)
    (13): GELU()
    (14): Linear(in_features=20, out_features=1, bias=True)
  )
)

Total number of trainable parameters: 103591

Checkpoint found: 1000

batch_size = 300
bias = True
clear_checkpoint = False
clip_grad = 0
cuda = -1
device = cpu
dtype = float64
lr = 0.0005
max_step = 1000
n_in = 68
n_out = 1
net_depth = 9
net_width = (100, 200, 200, 100, 100, 50, 20)
no_stdout = False
optimizer = adam
out_dir = out
out_filename = out/MLP_nd9_nw-100-200-200-100-100-50-20_bias/out
out_infix = 
print_step = 5
save_step = 10
seed = 48216004
tolerance = 1e-05

init_time = 0.000
Training...
MLP(
  (net): Sequential(
    (0): Linear(in_features=68, out_features=100, bias=True)
    (1): GELU()
    (2): Linear(in_features=100, out_features=200, bias=True)
    (3): GELU()
    (4): Linear(in_features=200, out_features=200, bias=True)
    (5): GELU()
    (6): Linear(in_features=200, out_features=100, bias=True)
    (7): GELU()
    (8): Linear(in_features=100, out_features=100, bias=True)
    (9): GELU()
    (10): Linear(in_features=100, out_features=50, bias=True)
    (11): GELU()
    (12): Linear(in_features=50, out_features=20, bias=True)
    (13): GELU()
    (14): Linear(in_features=20, out_features=1, bias=True)
  )
)

Total number of trainable parameters: 103591

Checkpoint found: 1000

batch_size = 300
bias = True
clear_checkpoint = False
clip_grad = 0
cuda = -1
device = cpu
dtype = float64
lr = 0.0005
max_step = 1000
n_in = 68
n_out = 1
net_depth = 9
net_width = (100, 200, 200, 100, 100, 50, 20)
no_stdout = False
optimizer = adam
out_dir = out
out_filename = out/MLP_nd9_nw-100-200-200-100-100-50-20_bias/out
out_infix = 
print_step = 5
save_step = 10
seed = 15085394
tolerance = 1e-05

init_time = 0.000
Training...
MLP(
  (net): Sequential(
    (0): Linear(in_features=68, out_features=100, bias=True)
    (1): GELU()
    (2): Linear(in_features=100, out_features=200, bias=True)
    (3): GELU()
    (4): Linear(in_features=200, out_features=200, bias=True)
    (5): GELU()
    (6): Linear(in_features=200, out_features=100, bias=True)
    (7): GELU()
    (8): Linear(in_features=100, out_features=100, bias=True)
    (9): GELU()
    (10): Linear(in_features=100, out_features=50, bias=True)
    (11): GELU()
    (12): Linear(in_features=50, out_features=20, bias=True)
    (13): GELU()
    (14): Linear(in_features=20, out_features=1, bias=True)
  )
)

Total number of trainable parameters: 103591

Checkpoint found: 1000

batch_size = 300
bias = True
clear_checkpoint = False
clip_grad = 0
cuda = -1
device = cpu
dtype = float64
lr = 0.0005
max_step = 1000
n_in = 68
n_out = 1
net_depth = 9
net_width = (100, 200, 200, 100, 100, 50, 20)
no_stdout = False
optimizer = adam
out_dir = out
out_filename = out/MLP_nd9_nw-100-200-200-100-100-50-20_bias/out
out_infix = 
print_step = 5
save_step = 10
seed = 48950446
tolerance = 1e-05

init_time = 0.000
Training...
MLP(
  (net): Sequential(
    (0): Linear(in_features=68, out_features=100, bias=True)
    (1): GELU()
    (2): Linear(in_features=100, out_features=200, bias=True)
    (3): GELU()
    (4): Linear(in_features=200, out_features=200, bias=True)
    (5): GELU()
    (6): Linear(in_features=200, out_features=100, bias=True)
    (7): GELU()
    (8): Linear(in_features=100, out_features=100, bias=True)
    (9): GELU()
    (10): Linear(in_features=100, out_features=50, bias=True)
    (11): GELU()
    (12): Linear(in_features=50, out_features=20, bias=True)
    (13): GELU()
    (14): Linear(in_features=20, out_features=1, bias=True)
  )
)

Total number of trainable parameters: 103591

Checkpoint found: 1000

batch_size = 300
bias = True
clear_checkpoint = False
clip_grad = 0
cuda = -1
device = cpu
dtype = float64
lr = 0.0005
max_step = 1000
n_in = 68
n_out = 1
net_depth = 9
net_width = (100, 200, 200, 100, 100, 50, 20)
no_stdout = False
optimizer = adam
out_dir = out
out_filename = out/MLP_nd9_nw-100-200-200-100-100-50-20_bias/out
out_infix = 
print_step = 5
save_step = 10
seed = 93372430
tolerance = 1e-05

init_time = 0.000
Training...
MLP(
  (net): Sequential(
    (0): Linear(in_features=68, out_features=100, bias=True)
    (1): GELU()
    (2): Linear(in_features=100, out_features=200, bias=True)
    (3): GELU()
    (4): Linear(in_features=200, out_features=200, bias=True)
    (5): GELU()
    (6): Linear(in_features=200, out_features=100, bias=True)
    (7): GELU()
    (8): Linear(in_features=100, out_features=100, bias=True)
    (9): GELU()
    (10): Linear(in_features=100, out_features=50, bias=True)
    (11): GELU()
    (12): Linear(in_features=50, out_features=20, bias=True)
    (13): GELU()
    (14): Linear(in_features=20, out_features=1, bias=True)
  )
)

Total number of trainable parameters: 103591

Checkpoint found: 1000

batch_size = 300
bias = True
clear_checkpoint = False
clip_grad = 0
cuda = -1
device = cpu
dtype = float64
lr = 0.0005
max_step = 1000
n_in = 68
n_out = 1
net_depth = 9
net_width = (100, 200, 200, 100, 100, 50, 20)
no_stdout = False
optimizer = adam
out_dir = out
out_filename = out/MLP_nd9_nw-100-200-200-100-100-50-20_bias/out
out_infix = 
print_step = 5
save_step = 10
seed = 173748
tolerance = 1e-05

init_time = 0.000
Training...
MLP(
  (net): Sequential(
    (0): Linear(in_features=68, out_features=100, bias=True)
    (1): GELU()
    (2): Linear(in_features=100, out_features=200, bias=True)
    (3): GELU()
    (4): Linear(in_features=200, out_features=200, bias=True)
    (5): GELU()
    (6): Linear(in_features=200, out_features=100, bias=True)
    (7): GELU()
    (8): Linear(in_features=100, out_features=100, bias=True)
    (9): GELU()
    (10): Linear(in_features=100, out_features=50, bias=True)
    (11): GELU()
    (12): Linear(in_features=50, out_features=20, bias=True)
    (13): GELU()
    (14): Linear(in_features=20, out_features=1, bias=True)
  )
)

Total number of trainable parameters: 103591

Checkpoint found: 1000

batch_size = 300
bias = True
clear_checkpoint = False
clip_grad = 0
cuda = -1
device = cpu
dtype = float64
lr = 0.0005
max_step = 1000
n_in = 68
n_out = 1
net_depth = 9
net_width = (100, 200, 200, 100, 100, 50, 20)
no_stdout = False
optimizer = adam
out_dir = out
out_filename = out/MLP_nd9_nw-100-200-200-100-100-50-20_bias/out
out_infix = 
print_step = 5
save_step = 10
seed = 92867137
tolerance = 1e-05

init_time = 0.000
Training...
MLP(
  (net): Sequential(
    (0): Linear(in_features=68, out_features=100, bias=True)
    (1): GELU()
    (2): Linear(in_features=100, out_features=200, bias=True)
    (3): GELU()
    (4): Linear(in_features=200, out_features=200, bias=True)
    (5): GELU()
    (6): Linear(in_features=200, out_features=100, bias=True)
    (7): GELU()
    (8): Linear(in_features=100, out_features=100, bias=True)
    (9): GELU()
    (10): Linear(in_features=100, out_features=50, bias=True)
    (11): GELU()
    (12): Linear(in_features=50, out_features=20, bias=True)
    (13): GELU()
    (14): Linear(in_features=20, out_features=1, bias=True)
  )
)

Total number of trainable parameters: 103591

Checkpoint found: 1000

batch_size = 300
bias = True
clear_checkpoint = False
clip_grad = 0
cuda = -1
device = cpu
dtype = float64
lr = 0.0005
max_step = 1000
n_in = 68
n_out = 1
net_depth = 9
net_width = (100, 200, 200, 100, 100, 50, 20)
no_stdout = False
optimizer = adam
out_dir = out
out_filename = out/MLP_nd9_nw-100-200-200-100-100-50-20_bias/out
out_infix = 
print_step = 5
save_step = 10
seed = 32201090
tolerance = 1e-05

init_time = 0.000
Training...
MLP(
  (net): Sequential(
    (0): Linear(in_features=68, out_features=100, bias=True)
    (1): GELU()
    (2): Linear(in_features=100, out_features=200, bias=True)
    (3): GELU()
    (4): Linear(in_features=200, out_features=200, bias=True)
    (5): GELU()
    (6): Linear(in_features=200, out_features=100, bias=True)
    (7): GELU()
    (8): Linear(in_features=100, out_features=100, bias=True)
    (9): GELU()
    (10): Linear(in_features=100, out_features=50, bias=True)
    (11): GELU()
    (12): Linear(in_features=50, out_features=20, bias=True)
    (13): GELU()
    (14): Linear(in_features=20, out_features=1, bias=True)
  )
)

Total number of trainable parameters: 103591

Checkpoint found: 1000

batch_size = 300
bias = True
clear_checkpoint = False
clip_grad = 0
cuda = -1
device = cpu
dtype = float64
lr = 0.0005
max_step = 1000
n_in = 68
n_out = 1
net_depth = 9
net_width = (100, 200, 200, 100, 100, 50, 20)
no_stdout = False
optimizer = adam
out_dir = out
out_filename = out/MLP_nd9_nw-100-200-200-100-100-50-20_bias/out
out_infix = 
print_step = 5
save_step = 10
seed = 2915865
tolerance = 1e-05

init_time = 0.000
Training...
MLP(
  (net): Sequential(
    (0): Linear(in_features=68, out_features=100, bias=True)
    (1): GELU()
    (2): Linear(in_features=100, out_features=200, bias=True)
    (3): GELU()
    (4): Linear(in_features=200, out_features=200, bias=True)
    (5): GELU()
    (6): Linear(in_features=200, out_features=100, bias=True)
    (7): GELU()
    (8): Linear(in_features=100, out_features=100, bias=True)
    (9): GELU()
    (10): Linear(in_features=100, out_features=50, bias=True)
    (11): GELU()
    (12): Linear(in_features=50, out_features=20, bias=True)
    (13): GELU()
    (14): Linear(in_features=20, out_features=1, bias=True)
  )
)

Total number of trainable parameters: 103591

Checkpoint found: 1000

batch_size = 300
bias = True
clear_checkpoint = False
clip_grad = 0
cuda = -1
device = cpu
dtype = float64
lr = 0.0005
max_step = 1000
n_in = 68
n_out = 1
net_depth = 9
net_width = (100, 200, 200, 100, 100, 50, 20)
no_stdout = False
optimizer = adam
out_dir = out
out_filename = out/MLP_nd9_nw-100-200-200-100-100-50-20_bias/out
out_infix = 
print_step = 5
save_step = 10
seed = 73953424
tolerance = 1e-05

init_time = 0.000
Training...
MLP(
  (net): Sequential(
    (0): Linear(in_features=68, out_features=100, bias=True)
    (1): GELU()
    (2): Linear(in_features=100, out_features=200, bias=True)
    (3): GELU()
    (4): Linear(in_features=200, out_features=200, bias=True)
    (5): GELU()
    (6): Linear(in_features=200, out_features=100, bias=True)
    (7): GELU()
    (8): Linear(in_features=100, out_features=100, bias=True)
    (9): GELU()
    (10): Linear(in_features=100, out_features=50, bias=True)
    (11): GELU()
    (12): Linear(in_features=50, out_features=20, bias=True)
    (13): GELU()
    (14): Linear(in_features=20, out_features=1, bias=True)
  )
)

Total number of trainable parameters: 103591

Checkpoint found: 1000

batch_size = 300
bias = True
clear_checkpoint = False
clip_grad = 0
cuda = -1
device = cpu
dtype = float64
lr = 0.0005
max_step = 1000
n_in = 68
n_out = 1
net_depth = 9
net_width = (100, 200, 200, 100, 100, 50, 20)
no_stdout = False
optimizer = adam
out_dir = out
out_filename = out/MLP_nd9_nw-100-200-200-100-100-50-20_bias/out
out_infix = 
print_step = 5
save_step = 10
seed = 57149232
tolerance = 1e-05

init_time = 0.000
Training...
MLP(
  (net): Sequential(
    (0): Linear(in_features=68, out_features=100, bias=True)
    (1): GELU()
    (2): Linear(in_features=100, out_features=200, bias=True)
    (3): GELU()
    (4): Linear(in_features=200, out_features=200, bias=True)
    (5): GELU()
    (6): Linear(in_features=200, out_features=100, bias=True)
    (7): GELU()
    (8): Linear(in_features=100, out_features=100, bias=True)
    (9): GELU()
    (10): Linear(in_features=100, out_features=50, bias=True)
    (11): GELU()
    (12): Linear(in_features=50, out_features=20, bias=True)
    (13): GELU()
    (14): Linear(in_features=20, out_features=1, bias=True)
  )
)

Total number of trainable parameters: 103591

Checkpoint found: 1000

batch_size = 300
bias = True
clear_checkpoint = False
clip_grad = 0
cuda = -1
device = cpu
dtype = float64
lr = 0.0005
max_step = 1000
n_in = 68
n_out = 1
net_depth = 9
net_width = (100, 200, 200, 100, 100, 50, 20)
no_stdout = False
optimizer = adam
out_dir = out
out_filename = out/MLP_nd9_nw-100-200-200-100-100-50-20_bias/out
out_infix = 
print_step = 5
save_step = 10
seed = 512346
tolerance = 1e-05

init_time = 0.000
Training...
MLP(
  (net): Sequential(
    (0): Linear(in_features=68, out_features=100, bias=True)
    (1): GELU()
    (2): Linear(in_features=100, out_features=200, bias=True)
    (3): GELU()
    (4): Linear(in_features=200, out_features=200, bias=True)
    (5): GELU()
    (6): Linear(in_features=200, out_features=100, bias=True)
    (7): GELU()
    (8): Linear(in_features=100, out_features=100, bias=True)
    (9): GELU()
    (10): Linear(in_features=100, out_features=50, bias=True)
    (11): GELU()
    (12): Linear(in_features=50, out_features=20, bias=True)
    (13): GELU()
    (14): Linear(in_features=20, out_features=1, bias=True)
  )
)

Total number of trainable parameters: 103591

Checkpoint found: 1000

batch_size = 300
bias = True
clear_checkpoint = False
clip_grad = 0
cuda = -1
device = cpu
dtype = float64
lr = 0.0005
max_step = 1000
n_in = 68
n_out = 1
net_depth = 9
net_width = (100, 200, 200, 100, 100, 50, 20)
no_stdout = False
optimizer = adam
out_dir = out
out_filename = out/MLP_nd9_nw-100-200-200-100-100-50-20_bias/out
out_infix = 
print_step = 5
save_step = 10
seed = 20088182
tolerance = 1e-05

init_time = 0.000
Training...
MLP(
  (net): Sequential(
    (0): Linear(in_features=68, out_features=100, bias=True)
    (1): GELU()
    (2): Linear(in_features=100, out_features=200, bias=True)
    (3): GELU()
    (4): Linear(in_features=200, out_features=200, bias=True)
    (5): GELU()
    (6): Linear(in_features=200, out_features=100, bias=True)
    (7): GELU()
    (8): Linear(in_features=100, out_features=100, bias=True)
    (9): GELU()
    (10): Linear(in_features=100, out_features=50, bias=True)
    (11): GELU()
    (12): Linear(in_features=50, out_features=20, bias=True)
    (13): GELU()
    (14): Linear(in_features=20, out_features=1, bias=True)
  )
)

Total number of trainable parameters: 103591

Checkpoint found: 1000

batch_size = 300
bias = True
clear_checkpoint = False
clip_grad = 0
cuda = -1
device = cpu
dtype = float64
lr = 0.0005
max_step = 1000
n_in = 68
n_out = 1
net_depth = 9
net_width = (100, 200, 200, 100, 100, 50, 20)
no_stdout = False
optimizer = adam
out_dir = out
out_filename = out/MLP_nd9_nw-100-200-200-100-100-50-20_bias/out
out_infix = 
print_step = 5
save_step = 10
seed = 20529680
tolerance = 1e-05

init_time = 0.000
Training...
MLP(
  (net): Sequential(
    (0): Linear(in_features=68, out_features=100, bias=True)
    (1): GELU()
    (2): Linear(in_features=100, out_features=200, bias=True)
    (3): GELU()
    (4): Linear(in_features=200, out_features=200, bias=True)
    (5): GELU()
    (6): Linear(in_features=200, out_features=100, bias=True)
    (7): GELU()
    (8): Linear(in_features=100, out_features=100, bias=True)
    (9): GELU()
    (10): Linear(in_features=100, out_features=50, bias=True)
    (11): GELU()
    (12): Linear(in_features=50, out_features=20, bias=True)
    (13): GELU()
    (14): Linear(in_features=20, out_features=1, bias=True)
  )
)

Total number of trainable parameters: 103591

Checkpoint found: 1000

batch_size = 300
bias = True
clear_checkpoint = False
clip_grad = 0
cuda = -1
device = cpu
dtype = float64
lr = 0.0005
max_step = 1000
n_in = 68
n_out = 1
net_depth = 9
net_width = (100, 200, 200, 100, 100, 50, 20)
no_stdout = False
optimizer = adam
out_dir = out
out_filename = out/MLP_nd9_nw-100-200-200-100-100-50-20_bias/out
out_infix = 
print_step = 5
save_step = 10
seed = 49041702
tolerance = 1e-05

init_time = 0.000
Training...
MLP(
  (net): Sequential(
    (0): Linear(in_features=68, out_features=100, bias=True)
    (1): GELU()
    (2): Linear(in_features=100, out_features=200, bias=True)
    (3): GELU()
    (4): Linear(in_features=200, out_features=200, bias=True)
    (5): GELU()
    (6): Linear(in_features=200, out_features=100, bias=True)
    (7): GELU()
    (8): Linear(in_features=100, out_features=100, bias=True)
    (9): GELU()
    (10): Linear(in_features=100, out_features=50, bias=True)
    (11): GELU()
    (12): Linear(in_features=50, out_features=20, bias=True)
    (13): GELU()
    (14): Linear(in_features=20, out_features=1, bias=True)
  )
)

Total number of trainable parameters: 103591

Checkpoint found: 1000

batch_size = 300
bias = True
clear_checkpoint = False
clip_grad = 0
cuda = -1
device = cpu
dtype = float64
lr = 0.0005
max_step = 1000
n_in = 68
n_out = 1
net_depth = 9
net_width = (100, 200, 200, 100, 100, 50, 20)
no_stdout = False
optimizer = adam
out_dir = out
out_filename = out/MLP_nd9_nw-100-200-200-100-100-50-20_bias/out
out_infix = 
print_step = 5
save_step = 10
seed = 87902090
tolerance = 1e-05

init_time = 0.000
Training...
MLP(
  (net): Sequential(
    (0): Linear(in_features=68, out_features=100, bias=True)
    (1): GELU()
    (2): Linear(in_features=100, out_features=200, bias=True)
    (3): GELU()
    (4): Linear(in_features=200, out_features=200, bias=True)
    (5): GELU()
    (6): Linear(in_features=200, out_features=100, bias=True)
    (7): GELU()
    (8): Linear(in_features=100, out_features=100, bias=True)
    (9): GELU()
    (10): Linear(in_features=100, out_features=50, bias=True)
    (11): GELU()
    (12): Linear(in_features=50, out_features=20, bias=True)
    (13): GELU()
    (14): Linear(in_features=20, out_features=1, bias=True)
  )
)

Total number of trainable parameters: 103591

Checkpoint found: 1000

batch_size = 300
bias = True
clear_checkpoint = False
clip_grad = 0
cuda = -1
device = cpu
dtype = float64
lr = 0.0005
max_step = 1000
n_in = 68
n_out = 1
net_depth = 9
net_width = (100, 200, 200, 100, 100, 50, 20)
no_stdout = False
optimizer = adam
out_dir = out
out_filename = out/MLP_nd9_nw-100-200-200-100-100-50-20_bias/out
out_infix = 
print_step = 5
save_step = 10
seed = 73853237
tolerance = 1e-05

init_time = 0.000
Training...
MLP(
  (net): Sequential(
    (0): Linear(in_features=68, out_features=100, bias=True)
    (1): GELU()
    (2): Linear(in_features=100, out_features=200, bias=True)
    (3): GELU()
    (4): Linear(in_features=200, out_features=200, bias=True)
    (5): GELU()
    (6): Linear(in_features=200, out_features=100, bias=True)
    (7): GELU()
    (8): Linear(in_features=100, out_features=100, bias=True)
    (9): GELU()
    (10): Linear(in_features=100, out_features=50, bias=True)
    (11): GELU()
    (12): Linear(in_features=50, out_features=20, bias=True)
    (13): GELU()
    (14): Linear(in_features=20, out_features=1, bias=True)
  )
)

Total number of trainable parameters: 103591

Checkpoint found: 1000

batch_size = 300
bias = True
clear_checkpoint = False
clip_grad = 0
cuda = -1
device = cpu
dtype = float64
lr = 0.0005
max_step = 1000
n_in = 68
n_out = 1
net_depth = 9
net_width = (100, 200, 200, 100, 100, 50, 20)
no_stdout = False
optimizer = adam
out_dir = out
out_filename = out/MLP_nd9_nw-100-200-200-100-100-50-20_bias/out
out_infix = 
print_step = 5
save_step = 10
seed = 73058174
tolerance = 1e-05

init_time = 0.000
Training...
MLP(
  (net): Sequential(
    (0): Linear(in_features=68, out_features=100, bias=True)
    (1): GELU()
    (2): Linear(in_features=100, out_features=200, bias=True)
    (3): GELU()
    (4): Linear(in_features=200, out_features=200, bias=True)
    (5): GELU()
    (6): Linear(in_features=200, out_features=100, bias=True)
    (7): GELU()
    (8): Linear(in_features=100, out_features=100, bias=True)
    (9): GELU()
    (10): Linear(in_features=100, out_features=50, bias=True)
    (11): GELU()
    (12): Linear(in_features=50, out_features=20, bias=True)
    (13): GELU()
    (14): Linear(in_features=20, out_features=1, bias=True)
  )
)

Total number of trainable parameters: 103591

Checkpoint found: 1000

batch_size = 300
bias = True
clear_checkpoint = False
clip_grad = 0
cuda = -1
device = cpu
dtype = float64
lr = 0.0005
max_step = 1000
n_in = 68
n_out = 1
net_depth = 9
net_width = (100, 200, 200, 100, 100, 50, 20)
no_stdout = False
optimizer = adam
out_dir = out
out_filename = out/MLP_nd9_nw-100-200-200-100-100-50-20_bias/out
out_infix = 
print_step = 5
save_step = 10
seed = 81594717
tolerance = 1e-05

init_time = 0.000
Training...
MLP(
  (net): Sequential(
    (0): Linear(in_features=68, out_features=100, bias=True)
    (1): GELU()
    (2): Linear(in_features=100, out_features=200, bias=True)
    (3): GELU()
    (4): Linear(in_features=200, out_features=200, bias=True)
    (5): GELU()
    (6): Linear(in_features=200, out_features=100, bias=True)
    (7): GELU()
    (8): Linear(in_features=100, out_features=100, bias=True)
    (9): GELU()
    (10): Linear(in_features=100, out_features=50, bias=True)
    (11): GELU()
    (12): Linear(in_features=50, out_features=20, bias=True)
    (13): GELU()
    (14): Linear(in_features=20, out_features=1, bias=True)
  )
)

Total number of trainable parameters: 103591

Checkpoint found: 1000

batch_size = 300
bias = True
clear_checkpoint = False
clip_grad = 0
cuda = -1
device = cpu
dtype = float64
lr = 0.0005
max_step = 1000
n_in = 68
n_out = 1
net_depth = 9
net_width = (100, 200, 200, 100, 100, 50, 20)
no_stdout = False
optimizer = adam
out_dir = out
out_filename = out/MLP_nd9_nw-100-200-200-100-100-50-20_bias/out
out_infix = 
print_step = 5
save_step = 10
seed = 20737323
tolerance = 1e-05

init_time = 0.000
Training...
MLP(
  (net): Sequential(
    (0): Linear(in_features=68, out_features=100, bias=True)
    (1): GELU()
    (2): Linear(in_features=100, out_features=200, bias=True)
    (3): GELU()
    (4): Linear(in_features=200, out_features=200, bias=True)
    (5): GELU()
    (6): Linear(in_features=200, out_features=100, bias=True)
    (7): GELU()
    (8): Linear(in_features=100, out_features=100, bias=True)
    (9): GELU()
    (10): Linear(in_features=100, out_features=50, bias=True)
    (11): GELU()
    (12): Linear(in_features=50, out_features=20, bias=True)
    (13): GELU()
    (14): Linear(in_features=20, out_features=1, bias=True)
  )
)

Total number of trainable parameters: 103591

Checkpoint found: 1000

batch_size = 300
bias = True
clear_checkpoint = False
clip_grad = 0
cuda = -1
device = cpu
dtype = float64
lr = 0.0005
max_step = 1000
n_in = 68
n_out = 1
net_depth = 9
net_width = (100, 200, 200, 100, 100, 50, 20)
no_stdout = False
optimizer = adam
out_dir = out
out_filename = out/MLP_nd9_nw-100-200-200-100-100-50-20_bias/out
out_infix = 
print_step = 5
save_step = 10
seed = 77788546
tolerance = 1e-05

init_time = 0.000
Training...
MLP(
  (net): Sequential(
    (0): Linear(in_features=68, out_features=100, bias=True)
    (1): GELU()
    (2): Linear(in_features=100, out_features=200, bias=True)
    (3): GELU()
    (4): Linear(in_features=200, out_features=200, bias=True)
    (5): GELU()
    (6): Linear(in_features=200, out_features=100, bias=True)
    (7): GELU()
    (8): Linear(in_features=100, out_features=100, bias=True)
    (9): GELU()
    (10): Linear(in_features=100, out_features=50, bias=True)
    (11): GELU()
    (12): Linear(in_features=50, out_features=20, bias=True)
    (13): GELU()
    (14): Linear(in_features=20, out_features=1, bias=True)
  )
)

Total number of trainable parameters: 103591

Checkpoint found: 1000

batch_size = 300
bias = True
clear_checkpoint = False
clip_grad = 0
cuda = -1
device = cpu
dtype = float64
lr = 0.0005
max_step = 1000
n_in = 68
n_out = 1
net_depth = 9
net_width = (100, 200, 200, 100, 100, 50, 20)
no_stdout = False
optimizer = adam
out_dir = out
out_filename = out/MLP_nd9_nw-100-200-200-100-100-50-20_bias/out
out_infix = 
print_step = 5
save_step = 10
seed = 50678569
tolerance = 1e-05

init_time = 0.000
Training...
MLP(
  (net): Sequential(
    (0): Linear(in_features=68, out_features=100, bias=True)
    (1): GELU()
    (2): Linear(in_features=100, out_features=200, bias=True)
    (3): GELU()
    (4): Linear(in_features=200, out_features=200, bias=True)
    (5): GELU()
    (6): Linear(in_features=200, out_features=100, bias=True)
    (7): GELU()
    (8): Linear(in_features=100, out_features=100, bias=True)
    (9): GELU()
    (10): Linear(in_features=100, out_features=50, bias=True)
    (11): GELU()
    (12): Linear(in_features=50, out_features=20, bias=True)
    (13): GELU()
    (14): Linear(in_features=20, out_features=1, bias=True)
  )
)

Total number of trainable parameters: 103591

Checkpoint found: 1000

batch_size = 300
bias = True
clear_checkpoint = False
clip_grad = 0
cuda = -1
device = cpu
dtype = float64
lr = 0.0005
max_step = 1000
n_in = 68
n_out = 1
net_depth = 9
net_width = (100, 200, 200, 100, 100, 50, 20)
no_stdout = False
optimizer = adam
out_dir = out
out_filename = out/MLP_nd9_nw-100-200-200-100-100-50-20_bias/out
out_infix = 
print_step = 5
save_step = 10
seed = 24658066
tolerance = 1e-05

init_time = 0.000
Training...
MLP(
  (net): Sequential(
    (0): Linear(in_features=68, out_features=100, bias=True)
    (1): GELU()
    (2): Linear(in_features=100, out_features=200, bias=True)
    (3): GELU()
    (4): Linear(in_features=200, out_features=200, bias=True)
    (5): GELU()
    (6): Linear(in_features=200, out_features=100, bias=True)
    (7): GELU()
    (8): Linear(in_features=100, out_features=100, bias=True)
    (9): GELU()
    (10): Linear(in_features=100, out_features=50, bias=True)
    (11): GELU()
    (12): Linear(in_features=50, out_features=20, bias=True)
    (13): GELU()
    (14): Linear(in_features=20, out_features=1, bias=True)
  )
)

Total number of trainable parameters: 103591

Checkpoint found: 1000

batch_size = 300
bias = True
clear_checkpoint = False
clip_grad = 0
cuda = -1
device = cpu
dtype = float64
lr = 0.0005
max_step = 1000
n_in = 68
n_out = 1
net_depth = 9
net_width = (100, 200, 200, 100, 100, 50, 20)
no_stdout = False
optimizer = adam
out_dir = out
out_filename = out/MLP_nd9_nw-100-200-200-100-100-50-20_bias/out
out_infix = 
print_step = 5
save_step = 10
seed = 30892471
tolerance = 1e-05

init_time = 0.000
Training...
MLP(
  (net): Sequential(
    (0): Linear(in_features=68, out_features=100, bias=True)
    (1): GELU()
    (2): Linear(in_features=100, out_features=200, bias=True)
    (3): GELU()
    (4): Linear(in_features=200, out_features=200, bias=True)
    (5): GELU()
    (6): Linear(in_features=200, out_features=100, bias=True)
    (7): GELU()
    (8): Linear(in_features=100, out_features=100, bias=True)
    (9): GELU()
    (10): Linear(in_features=100, out_features=50, bias=True)
    (11): GELU()
    (12): Linear(in_features=50, out_features=20, bias=True)
    (13): GELU()
    (14): Linear(in_features=20, out_features=1, bias=True)
  )
)

Total number of trainable parameters: 103591

Checkpoint found: 1000

batch_size = 300
bias = True
clear_checkpoint = False
clip_grad = 0
cuda = -1
device = cpu
dtype = float64
lr = 0.0005
max_step = 1000
n_in = 68
n_out = 1
net_depth = 9
net_width = (100, 200, 200, 100, 100, 50, 20)
no_stdout = False
optimizer = adam
out_dir = out
out_filename = out/MLP_nd9_nw-100-200-200-100-100-50-20_bias/out
out_infix = 
print_step = 5
save_step = 10
seed = 25286654
tolerance = 1e-05

init_time = 0.000
Training...
MLP(
  (net): Sequential(
    (0): Linear(in_features=68, out_features=100, bias=True)
    (1): GELU()
    (2): Linear(in_features=100, out_features=200, bias=True)
    (3): GELU()
    (4): Linear(in_features=200, out_features=200, bias=True)
    (5): GELU()
    (6): Linear(in_features=200, out_features=100, bias=True)
    (7): GELU()
    (8): Linear(in_features=100, out_features=100, bias=True)
    (9): GELU()
    (10): Linear(in_features=100, out_features=50, bias=True)
    (11): GELU()
    (12): Linear(in_features=50, out_features=20, bias=True)
    (13): GELU()
    (14): Linear(in_features=20, out_features=1, bias=True)
  )
)

Total number of trainable parameters: 103591

Checkpoint found: 1000

batch_size = 300
bias = True
clear_checkpoint = False
clip_grad = 0
cuda = -1
device = cpu
dtype = float64
lr = 0.0005
max_step = 1000
n_in = 68
n_out = 1
net_depth = 9
net_width = (100, 200, 200, 100, 100, 50, 20)
no_stdout = False
optimizer = adam
out_dir = out
out_filename = out/MLP_nd9_nw-100-200-200-100-100-50-20_bias/out
out_infix = 
print_step = 5
save_step = 10
seed = 63190680
tolerance = 1e-05

init_time = 0.000
Training...
MLP(
  (net): Sequential(
    (0): Linear(in_features=68, out_features=100, bias=True)
    (1): GELU()
    (2): Linear(in_features=100, out_features=200, bias=True)
    (3): GELU()
    (4): Linear(in_features=200, out_features=200, bias=True)
    (5): GELU()
    (6): Linear(in_features=200, out_features=100, bias=True)
    (7): GELU()
    (8): Linear(in_features=100, out_features=100, bias=True)
    (9): GELU()
    (10): Linear(in_features=100, out_features=50, bias=True)
    (11): GELU()
    (12): Linear(in_features=50, out_features=20, bias=True)
    (13): GELU()
    (14): Linear(in_features=20, out_features=1, bias=True)
  )
)

Total number of trainable parameters: 103591

Checkpoint found: 1000

batch_size = 300
bias = True
clear_checkpoint = False
clip_grad = 0
cuda = -1
device = cpu
dtype = float64
lr = 0.0005
max_step = 1000
n_in = 68
n_out = 1
net_depth = 9
net_width = (100, 200, 200, 100, 100, 50, 20)
no_stdout = False
optimizer = adam
out_dir = out
out_filename = out/MLP_nd9_nw-100-200-200-100-100-50-20_bias/out
out_infix = 
print_step = 5
save_step = 10
seed = 77358228
tolerance = 1e-05

init_time = 0.000
Training...
MLP(
  (net): Sequential(
    (0): Linear(in_features=68, out_features=100, bias=True)
    (1): GELU()
    (2): Linear(in_features=100, out_features=200, bias=True)
    (3): GELU()
    (4): Linear(in_features=200, out_features=200, bias=True)
    (5): GELU()
    (6): Linear(in_features=200, out_features=100, bias=True)
    (7): GELU()
    (8): Linear(in_features=100, out_features=100, bias=True)
    (9): GELU()
    (10): Linear(in_features=100, out_features=50, bias=True)
    (11): GELU()
    (12): Linear(in_features=50, out_features=20, bias=True)
    (13): GELU()
    (14): Linear(in_features=20, out_features=1, bias=True)
  )
)

Total number of trainable parameters: 103591

Checkpoint found: 1000

batch_size = 300
bias = True
clear_checkpoint = False
clip_grad = 0
cuda = -1
device = cpu
dtype = float64
lr = 0.0005
max_step = 1000
n_in = 68
n_out = 1
net_depth = 9
net_width = (100, 200, 200, 100, 100, 50, 20)
no_stdout = False
optimizer = adam
out_dir = out
out_filename = out/MLP_nd9_nw-100-200-200-100-100-50-20_bias/out
out_infix = 
print_step = 5
save_step = 10
seed = 17291253
tolerance = 1e-05

init_time = 0.000
Training...
MLP(
  (net): Sequential(
    (0): Linear(in_features=68, out_features=100, bias=True)
    (1): GELU()
    (2): Linear(in_features=100, out_features=200, bias=True)
    (3): GELU()
    (4): Linear(in_features=200, out_features=200, bias=True)
    (5): GELU()
    (6): Linear(in_features=200, out_features=100, bias=True)
    (7): GELU()
    (8): Linear(in_features=100, out_features=100, bias=True)
    (9): GELU()
    (10): Linear(in_features=100, out_features=50, bias=True)
    (11): GELU()
    (12): Linear(in_features=50, out_features=20, bias=True)
    (13): GELU()
    (14): Linear(in_features=20, out_features=1, bias=True)
  )
)

Total number of trainable parameters: 103591

Checkpoint found: 1000

batch_size = 300
bias = True
clear_checkpoint = False
clip_grad = 0
cuda = -1
device = cpu
dtype = float64
lr = 0.0005
max_step = 1000
n_in = 68
n_out = 1
net_depth = 9
net_width = (100, 200, 200, 100, 100, 50, 20)
no_stdout = False
optimizer = adam
out_dir = out
out_filename = out/MLP_nd9_nw-100-200-200-100-100-50-20_bias/out
out_infix = 
print_step = 5
save_step = 10
seed = 56318840
tolerance = 1e-05

init_time = 0.000
Training...
MLP(
  (net): Sequential(
    (0): Linear(in_features=68, out_features=100, bias=True)
    (1): GELU()
    (2): Linear(in_features=100, out_features=200, bias=True)
    (3): GELU()
    (4): Linear(in_features=200, out_features=200, bias=True)
    (5): GELU()
    (6): Linear(in_features=200, out_features=100, bias=True)
    (7): GELU()
    (8): Linear(in_features=100, out_features=100, bias=True)
    (9): GELU()
    (10): Linear(in_features=100, out_features=50, bias=True)
    (11): GELU()
    (12): Linear(in_features=50, out_features=20, bias=True)
    (13): GELU()
    (14): Linear(in_features=20, out_features=1, bias=True)
  )
)

Total number of trainable parameters: 103591

Checkpoint found: 1000

batch_size = 300
bias = True
clear_checkpoint = False
clip_grad = 0
cuda = -1
device = cpu
dtype = float64
lr = 0.0005
max_step = 1000
n_in = 68
n_out = 1
net_depth = 9
net_width = (100, 200, 200, 100, 100, 50, 20)
no_stdout = False
optimizer = adam
out_dir = out
out_filename = out/MLP_nd9_nw-100-200-200-100-100-50-20_bias/out
out_infix = 
print_step = 5
save_step = 10
seed = 42804705
tolerance = 1e-05

init_time = 0.000
Training...
MLP(
  (net): Sequential(
    (0): Linear(in_features=68, out_features=100, bias=True)
    (1): GELU()
    (2): Linear(in_features=100, out_features=200, bias=True)
    (3): GELU()
    (4): Linear(in_features=200, out_features=200, bias=True)
    (5): GELU()
    (6): Linear(in_features=200, out_features=100, bias=True)
    (7): GELU()
    (8): Linear(in_features=100, out_features=100, bias=True)
    (9): GELU()
    (10): Linear(in_features=100, out_features=50, bias=True)
    (11): GELU()
    (12): Linear(in_features=50, out_features=20, bias=True)
    (13): GELU()
    (14): Linear(in_features=20, out_features=1, bias=True)
  )
)

Total number of trainable parameters: 103591

Checkpoint found: 1000

batch_size = 300
bias = True
clear_checkpoint = False
clip_grad = 0
cuda = -1
device = cpu
dtype = float64
lr = 0.0005
max_step = 1000
n_in = 68
n_out = 1
net_depth = 9
net_width = (100, 200, 200, 100, 100, 50, 20)
no_stdout = False
optimizer = adam
out_dir = out
out_filename = out/MLP_nd9_nw-100-200-200-100-100-50-20_bias/out
out_infix = 
print_step = 5
save_step = 10
seed = 4044831
tolerance = 1e-05

init_time = 0.000
Training...
MLP(
  (net): Sequential(
    (0): Linear(in_features=68, out_features=100, bias=True)
    (1): GELU()
    (2): Linear(in_features=100, out_features=200, bias=True)
    (3): GELU()
    (4): Linear(in_features=200, out_features=200, bias=True)
    (5): GELU()
    (6): Linear(in_features=200, out_features=100, bias=True)
    (7): GELU()
    (8): Linear(in_features=100, out_features=100, bias=True)
    (9): GELU()
    (10): Linear(in_features=100, out_features=50, bias=True)
    (11): GELU()
    (12): Linear(in_features=50, out_features=20, bias=True)
    (13): GELU()
    (14): Linear(in_features=20, out_features=1, bias=True)
  )
)

Total number of trainable parameters: 103591

Checkpoint found: 1000

batch_size = 300
bias = True
clear_checkpoint = False
clip_grad = 0
cuda = -1
device = cpu
dtype = float64
lr = 0.0005
max_step = 1000
n_in = 68
n_out = 1
net_depth = 9
net_width = (100, 200, 200, 100, 100, 50, 20)
no_stdout = False
optimizer = adam
out_dir = out
out_filename = out/MLP_nd9_nw-100-200-200-100-100-50-20_bias/out
out_infix = 
print_step = 5
save_step = 10
seed = 34889025
tolerance = 1e-05

init_time = 0.000
Training...
MLP(
  (net): Sequential(
    (0): Linear(in_features=68, out_features=100, bias=True)
    (1): GELU()
    (2): Linear(in_features=100, out_features=200, bias=True)
    (3): GELU()
    (4): Linear(in_features=200, out_features=200, bias=True)
    (5): GELU()
    (6): Linear(in_features=200, out_features=100, bias=True)
    (7): GELU()
    (8): Linear(in_features=100, out_features=100, bias=True)
    (9): GELU()
    (10): Linear(in_features=100, out_features=50, bias=True)
    (11): GELU()
    (12): Linear(in_features=50, out_features=20, bias=True)
    (13): GELU()
    (14): Linear(in_features=20, out_features=1, bias=True)
  )
)

Total number of trainable parameters: 103591

Checkpoint found: 1000

batch_size = 300
bias = True
clear_checkpoint = False
clip_grad = 0
cuda = -1
device = cpu
dtype = float64
lr = 0.0005
max_step = 1000
n_in = 68
n_out = 1
net_depth = 9
net_width = (100, 200, 200, 100, 100, 50, 20)
no_stdout = False
optimizer = adam
out_dir = out
out_filename = out/MLP_nd9_nw-100-200-200-100-100-50-20_bias/out
out_infix = 
print_step = 5
save_step = 10
seed = 38708060
tolerance = 1e-05

init_time = 0.000
Training...
MLP(
  (net): Sequential(
    (0): Linear(in_features=68, out_features=100, bias=True)
    (1): GELU()
    (2): Linear(in_features=100, out_features=200, bias=True)
    (3): GELU()
    (4): Linear(in_features=200, out_features=200, bias=True)
    (5): GELU()
    (6): Linear(in_features=200, out_features=100, bias=True)
    (7): GELU()
    (8): Linear(in_features=100, out_features=100, bias=True)
    (9): GELU()
    (10): Linear(in_features=100, out_features=50, bias=True)
    (11): GELU()
    (12): Linear(in_features=50, out_features=20, bias=True)
    (13): GELU()
    (14): Linear(in_features=20, out_features=1, bias=True)
  )
)

Total number of trainable parameters: 103591

Checkpoint found: 1000

batch_size = 300
bias = True
clear_checkpoint = False
clip_grad = 0
cuda = -1
device = cpu
dtype = float64
lr = 0.0005
max_step = 1000
n_in = 68
n_out = 1
net_depth = 9
net_width = (100, 200, 200, 100, 100, 50, 20)
no_stdout = False
optimizer = adam
out_dir = out
out_filename = out/MLP_nd9_nw-100-200-200-100-100-50-20_bias/out
out_infix = 
print_step = 5
save_step = 10
seed = 40811079
tolerance = 1e-05

init_time = 0.000
Training...
MLP(
  (net): Sequential(
    (0): Linear(in_features=68, out_features=100, bias=True)
    (1): GELU()
    (2): Linear(in_features=100, out_features=200, bias=True)
    (3): GELU()
    (4): Linear(in_features=200, out_features=200, bias=True)
    (5): GELU()
    (6): Linear(in_features=200, out_features=100, bias=True)
    (7): GELU()
    (8): Linear(in_features=100, out_features=100, bias=True)
    (9): GELU()
    (10): Linear(in_features=100, out_features=50, bias=True)
    (11): GELU()
    (12): Linear(in_features=50, out_features=20, bias=True)
    (13): GELU()
    (14): Linear(in_features=20, out_features=1, bias=True)
  )
)

Total number of trainable parameters: 103591

Checkpoint found: 1000

batch_size = 300
bias = True
clear_checkpoint = False
clip_grad = 0
cuda = -1
device = cpu
dtype = float64
lr = 0.0005
max_step = 1000
n_in = 68
n_out = 1
net_depth = 9
net_width = (100, 200, 200, 100, 100, 50, 20)
no_stdout = False
optimizer = adam
out_dir = out
out_filename = out/MLP_nd9_nw-100-200-200-100-100-50-20_bias/out
out_infix = 
print_step = 5
save_step = 10
seed = 5215537
tolerance = 1e-05

init_time = 0.000
Training...
MLP(
  (net): Sequential(
    (0): Linear(in_features=68, out_features=100, bias=True)
    (1): GELU()
    (2): Linear(in_features=100, out_features=200, bias=True)
    (3): GELU()
    (4): Linear(in_features=200, out_features=200, bias=True)
    (5): GELU()
    (6): Linear(in_features=200, out_features=100, bias=True)
    (7): GELU()
    (8): Linear(in_features=100, out_features=100, bias=True)
    (9): GELU()
    (10): Linear(in_features=100, out_features=50, bias=True)
    (11): GELU()
    (12): Linear(in_features=50, out_features=20, bias=True)
    (13): GELU()
    (14): Linear(in_features=20, out_features=1, bias=True)
  )
)

Total number of trainable parameters: 103591

Checkpoint found: 1000

batch_size = 300
bias = True
clear_checkpoint = False
clip_grad = 0
cuda = -1
device = cpu
dtype = float64
lr = 0.0005
max_step = 1000
n_in = 68
n_out = 1
net_depth = 9
net_width = (100, 200, 200, 100, 100, 50, 20)
no_stdout = False
optimizer = adam
out_dir = out
out_filename = out/MLP_nd9_nw-100-200-200-100-100-50-20_bias/out
out_infix = 
print_step = 5
save_step = 10
seed = 63675983
tolerance = 1e-05

init_time = 0.000
Training...
MLP(
  (net): Sequential(
    (0): Linear(in_features=68, out_features=100, bias=True)
    (1): GELU()
    (2): Linear(in_features=100, out_features=200, bias=True)
    (3): GELU()
    (4): Linear(in_features=200, out_features=200, bias=True)
    (5): GELU()
    (6): Linear(in_features=200, out_features=100, bias=True)
    (7): GELU()
    (8): Linear(in_features=100, out_features=100, bias=True)
    (9): GELU()
    (10): Linear(in_features=100, out_features=50, bias=True)
    (11): GELU()
    (12): Linear(in_features=50, out_features=20, bias=True)
    (13): GELU()
    (14): Linear(in_features=20, out_features=1, bias=True)
  )
)

Total number of trainable parameters: 103591

Checkpoint found: 1000

batch_size = 300
bias = True
clear_checkpoint = False
clip_grad = 0
cuda = -1
device = cpu
dtype = float64
lr = 0.0005
max_step = 1000
n_in = 68
n_out = 1
net_depth = 9
net_width = (100, 200, 200, 100, 100, 50, 20)
no_stdout = False
optimizer = adam
out_dir = out
out_filename = out/MLP_nd9_nw-100-200-200-100-100-50-20_bias/out
out_infix = 
print_step = 5
save_step = 10
seed = 47427060
tolerance = 1e-05

init_time = 0.000
Training...
MLP(
  (net): Sequential(
    (0): Linear(in_features=68, out_features=100, bias=True)
    (1): GELU()
    (2): Linear(in_features=100, out_features=200, bias=True)
    (3): GELU()
    (4): Linear(in_features=200, out_features=200, bias=True)
    (5): GELU()
    (6): Linear(in_features=200, out_features=100, bias=True)
    (7): GELU()
    (8): Linear(in_features=100, out_features=100, bias=True)
    (9): GELU()
    (10): Linear(in_features=100, out_features=50, bias=True)
    (11): GELU()
    (12): Linear(in_features=50, out_features=20, bias=True)
    (13): GELU()
    (14): Linear(in_features=20, out_features=1, bias=True)
  )
)

Total number of trainable parameters: 103591

Checkpoint found: 1000

batch_size = 300
bias = True
clear_checkpoint = False
clip_grad = 0
cuda = -1
device = cpu
dtype = float64
lr = 0.0005
max_step = 1000
n_in = 68
n_out = 1
net_depth = 9
net_width = (100, 200, 200, 100, 100, 50, 20)
no_stdout = False
optimizer = adam
out_dir = out
out_filename = out/MLP_nd9_nw-100-200-200-100-100-50-20_bias/out
out_infix = 
print_step = 5
save_step = 10
seed = 40267859
tolerance = 1e-05

init_time = 0.000
Training...
MLP(
  (net): Sequential(
    (0): Linear(in_features=68, out_features=100, bias=True)
    (1): GELU()
    (2): Linear(in_features=100, out_features=200, bias=True)
    (3): GELU()
    (4): Linear(in_features=200, out_features=200, bias=True)
    (5): GELU()
    (6): Linear(in_features=200, out_features=100, bias=True)
    (7): GELU()
    (8): Linear(in_features=100, out_features=100, bias=True)
    (9): GELU()
    (10): Linear(in_features=100, out_features=50, bias=True)
    (11): GELU()
    (12): Linear(in_features=50, out_features=20, bias=True)
    (13): GELU()
    (14): Linear(in_features=20, out_features=1, bias=True)
  )
)

Total number of trainable parameters: 103591

Checkpoint found: 1000

batch_size = 300
bias = True
clear_checkpoint = False
clip_grad = 0
cuda = -1
device = cpu
dtype = float64
lr = 0.0005
max_step = 1000
n_in = 68
n_out = 1
net_depth = 9
net_width = (100, 200, 200, 100, 100, 50, 20)
no_stdout = False
optimizer = adam
out_dir = out
out_filename = out/MLP_nd9_nw-100-200-200-100-100-50-20_bias/out
out_infix = 
print_step = 5
save_step = 10
seed = 78336604
tolerance = 1e-05

init_time = 0.000
Training...
MLP(
  (net): Sequential(
    (0): Linear(in_features=68, out_features=100, bias=True)
    (1): GELU()
    (2): Linear(in_features=100, out_features=200, bias=True)
    (3): GELU()
    (4): Linear(in_features=200, out_features=200, bias=True)
    (5): GELU()
    (6): Linear(in_features=200, out_features=100, bias=True)
    (7): GELU()
    (8): Linear(in_features=100, out_features=100, bias=True)
    (9): GELU()
    (10): Linear(in_features=100, out_features=50, bias=True)
    (11): GELU()
    (12): Linear(in_features=50, out_features=20, bias=True)
    (13): GELU()
    (14): Linear(in_features=20, out_features=1, bias=True)
  )
)

Total number of trainable parameters: 103591

Checkpoint found: 1000

batch_size = 300
bias = True
clear_checkpoint = False
clip_grad = 0
cuda = -1
device = cpu
dtype = float64
lr = 0.0005
max_step = 1000
n_in = 68
n_out = 1
net_depth = 9
net_width = (100, 200, 200, 100, 100, 50, 20)
no_stdout = False
optimizer = adam
out_dir = out
out_filename = out/MLP_nd9_nw-100-200-200-100-100-50-20_bias/out
out_infix = 
print_step = 5
save_step = 10
seed = 93683098
tolerance = 1e-05

init_time = 0.000
Training...
MLP(
  (net): Sequential(
    (0): Linear(in_features=68, out_features=100, bias=True)
    (1): GELU()
    (2): Linear(in_features=100, out_features=200, bias=True)
    (3): GELU()
    (4): Linear(in_features=200, out_features=200, bias=True)
    (5): GELU()
    (6): Linear(in_features=200, out_features=100, bias=True)
    (7): GELU()
    (8): Linear(in_features=100, out_features=100, bias=True)
    (9): GELU()
    (10): Linear(in_features=100, out_features=50, bias=True)
    (11): GELU()
    (12): Linear(in_features=50, out_features=20, bias=True)
    (13): GELU()
    (14): Linear(in_features=20, out_features=1, bias=True)
  )
)

Total number of trainable parameters: 103591

Checkpoint found: 1000

batch_size = 300
bias = True
clear_checkpoint = False
clip_grad = 0
cuda = -1
device = cpu
dtype = float64
lr = 0.0005
max_step = 1000
n_in = 68
n_out = 1
net_depth = 9
net_width = (100, 200, 200, 100, 100, 50, 20)
no_stdout = False
optimizer = adam
out_dir = out
out_filename = out/MLP_nd9_nw-100-200-200-100-100-50-20_bias/out
out_infix = 
print_step = 5
save_step = 10
seed = 90598548
tolerance = 1e-05

init_time = 0.000
Training...
MLP(
  (net): Sequential(
    (0): Linear(in_features=68, out_features=100, bias=True)
    (1): GELU()
    (2): Linear(in_features=100, out_features=200, bias=True)
    (3): GELU()
    (4): Linear(in_features=200, out_features=200, bias=True)
    (5): GELU()
    (6): Linear(in_features=200, out_features=100, bias=True)
    (7): GELU()
    (8): Linear(in_features=100, out_features=100, bias=True)
    (9): GELU()
    (10): Linear(in_features=100, out_features=50, bias=True)
    (11): GELU()
    (12): Linear(in_features=50, out_features=20, bias=True)
    (13): GELU()
    (14): Linear(in_features=20, out_features=1, bias=True)
  )
)

Total number of trainable parameters: 103591

Checkpoint found: 1000

batch_size = 300
bias = True
clear_checkpoint = False
clip_grad = 0
cuda = -1
device = cpu
dtype = float64
lr = 0.0005
max_step = 1000
n_in = 68
n_out = 1
net_depth = 9
net_width = (100, 200, 200, 100, 100, 50, 20)
no_stdout = False
optimizer = adam
out_dir = out
out_filename = out/MLP_nd9_nw-100-200-200-100-100-50-20_bias/out
out_infix = 
print_step = 5
save_step = 10
seed = 64286921
tolerance = 1e-05

init_time = 0.000
Training...
MLP(
  (net): Sequential(
    (0): Linear(in_features=68, out_features=100, bias=True)
    (1): GELU()
    (2): Linear(in_features=100, out_features=200, bias=True)
    (3): GELU()
    (4): Linear(in_features=200, out_features=200, bias=True)
    (5): GELU()
    (6): Linear(in_features=200, out_features=100, bias=True)
    (7): GELU()
    (8): Linear(in_features=100, out_features=100, bias=True)
    (9): GELU()
    (10): Linear(in_features=100, out_features=50, bias=True)
    (11): GELU()
    (12): Linear(in_features=50, out_features=20, bias=True)
    (13): GELU()
    (14): Linear(in_features=20, out_features=1, bias=True)
  )
)

Total number of trainable parameters: 103591

Checkpoint found: 1000

batch_size = 300
bias = True
clear_checkpoint = False
clip_grad = 0
cuda = -1
device = cpu
dtype = float64
lr = 0.0005
max_step = 1000
n_in = 68
n_out = 1
net_depth = 9
net_width = (100, 200, 200, 100, 100, 50, 20)
no_stdout = False
optimizer = adam
out_dir = out
out_filename = out/MLP_nd9_nw-100-200-200-100-100-50-20_bias/out
out_infix = 
print_step = 5
save_step = 10
seed = 14508161
tolerance = 1e-05

init_time = 0.000
Training...
MLP(
  (net): Sequential(
    (0): Linear(in_features=68, out_features=100, bias=True)
    (1): GELU()
    (2): Linear(in_features=100, out_features=200, bias=True)
    (3): GELU()
    (4): Linear(in_features=200, out_features=200, bias=True)
    (5): GELU()
    (6): Linear(in_features=200, out_features=100, bias=True)
    (7): GELU()
    (8): Linear(in_features=100, out_features=100, bias=True)
    (9): GELU()
    (10): Linear(in_features=100, out_features=50, bias=True)
    (11): GELU()
    (12): Linear(in_features=50, out_features=20, bias=True)
    (13): GELU()
    (14): Linear(in_features=20, out_features=1, bias=True)
  )
)

Total number of trainable parameters: 103591

Checkpoint found: 1000

batch_size = 300
bias = True
clear_checkpoint = False
clip_grad = 0
cuda = -1
device = cpu
dtype = float64
lr = 0.0005
max_step = 1000
n_in = 68
n_out = 1
net_depth = 9
net_width = (100, 200, 200, 100, 100, 50, 20)
no_stdout = False
optimizer = adam
out_dir = out
out_filename = out/MLP_nd9_nw-100-200-200-100-100-50-20_bias/out
out_infix = 
print_step = 5
save_step = 10
seed = 19756463
tolerance = 1e-05

init_time = 0.000
Training...
MLP(
  (net): Sequential(
    (0): Linear(in_features=68, out_features=100, bias=True)
    (1): GELU()
    (2): Linear(in_features=100, out_features=200, bias=True)
    (3): GELU()
    (4): Linear(in_features=200, out_features=200, bias=True)
    (5): GELU()
    (6): Linear(in_features=200, out_features=100, bias=True)
    (7): GELU()
    (8): Linear(in_features=100, out_features=100, bias=True)
    (9): GELU()
    (10): Linear(in_features=100, out_features=50, bias=True)
    (11): GELU()
    (12): Linear(in_features=50, out_features=20, bias=True)
    (13): GELU()
    (14): Linear(in_features=20, out_features=1, bias=True)
  )
)

Total number of trainable parameters: 103591

Checkpoint found: 1000

batch_size = 300
bias = True
clear_checkpoint = False
clip_grad = 0
cuda = -1
device = cpu
dtype = float64
lr = 0.0005
max_step = 1000
n_in = 68
n_out = 1
net_depth = 9
net_width = (100, 200, 200, 100, 100, 50, 20)
no_stdout = False
optimizer = adam
out_dir = out
out_filename = out/MLP_nd9_nw-100-200-200-100-100-50-20_bias/out
out_infix = 
print_step = 5
save_step = 10
seed = 2156695
tolerance = 1e-05

init_time = 0.000
Training...
MLP(
  (net): Sequential(
    (0): Linear(in_features=68, out_features=100, bias=True)
    (1): GELU()
    (2): Linear(in_features=100, out_features=200, bias=True)
    (3): GELU()
    (4): Linear(in_features=200, out_features=200, bias=True)
    (5): GELU()
    (6): Linear(in_features=200, out_features=100, bias=True)
    (7): GELU()
    (8): Linear(in_features=100, out_features=100, bias=True)
    (9): GELU()
    (10): Linear(in_features=100, out_features=50, bias=True)
    (11): GELU()
    (12): Linear(in_features=50, out_features=20, bias=True)
    (13): GELU()
    (14): Linear(in_features=20, out_features=1, bias=True)
  )
)

Total number of trainable parameters: 103591

Checkpoint found: 1000

batch_size = 300
bias = True
clear_checkpoint = False
clip_grad = 0
cuda = -1
device = cpu
dtype = float64
lr = 0.0005
max_step = 1000
n_in = 68
n_out = 1
net_depth = 9
net_width = (100, 200, 200, 100, 100, 50, 20)
no_stdout = False
optimizer = adam
out_dir = out
out_filename = out/MLP_nd9_nw-100-200-200-100-100-50-20_bias/out
out_infix = 
print_step = 5
save_step = 10
seed = 74321488
tolerance = 1e-05

init_time = 0.000
Training...
MLP(
  (net): Sequential(
    (0): Linear(in_features=68, out_features=100, bias=True)
    (1): GELU()
    (2): Linear(in_features=100, out_features=200, bias=True)
    (3): GELU()
    (4): Linear(in_features=200, out_features=200, bias=True)
    (5): GELU()
    (6): Linear(in_features=200, out_features=100, bias=True)
    (7): GELU()
    (8): Linear(in_features=100, out_features=100, bias=True)
    (9): GELU()
    (10): Linear(in_features=100, out_features=50, bias=True)
    (11): GELU()
    (12): Linear(in_features=50, out_features=20, bias=True)
    (13): GELU()
    (14): Linear(in_features=20, out_features=1, bias=True)
  )
)

Total number of trainable parameters: 103591

Checkpoint found: 1000

batch_size = 300
bias = True
clear_checkpoint = False
clip_grad = 0
cuda = -1
device = cpu
dtype = float64
lr = 0.0005
max_step = 1000
n_in = 68
n_out = 1
net_depth = 9
net_width = (100, 200, 200, 100, 100, 50, 20)
no_stdout = False
optimizer = adam
out_dir = out
out_filename = out/MLP_nd9_nw-100-200-200-100-100-50-20_bias/out
out_infix = 
print_step = 5
save_step = 10
seed = 65870920
tolerance = 1e-05

init_time = 0.000
Training...
MLP(
  (net): Sequential(
    (0): Linear(in_features=68, out_features=100, bias=True)
    (1): GELU()
    (2): Linear(in_features=100, out_features=200, bias=True)
    (3): GELU()
    (4): Linear(in_features=200, out_features=200, bias=True)
    (5): GELU()
    (6): Linear(in_features=200, out_features=100, bias=True)
    (7): GELU()
    (8): Linear(in_features=100, out_features=100, bias=True)
    (9): GELU()
    (10): Linear(in_features=100, out_features=50, bias=True)
    (11): GELU()
    (12): Linear(in_features=50, out_features=20, bias=True)
    (13): GELU()
    (14): Linear(in_features=20, out_features=1, bias=True)
  )
)

Total number of trainable parameters: 103591

Checkpoint found: 1000

batch_size = 300
bias = True
clear_checkpoint = False
clip_grad = 0
cuda = -1
device = cpu
dtype = float64
lr = 0.0005
max_step = 1000
n_in = 68
n_out = 1
net_depth = 9
net_width = (100, 200, 200, 100, 100, 50, 20)
no_stdout = False
optimizer = adam
out_dir = out
out_filename = out/MLP_nd9_nw-100-200-200-100-100-50-20_bias/out
out_infix = 
print_step = 5
save_step = 10
seed = 46173420
tolerance = 1e-05

init_time = 0.000
Training...
MLP(
  (net): Sequential(
    (0): Linear(in_features=68, out_features=100, bias=True)
    (1): GELU()
    (2): Linear(in_features=100, out_features=200, bias=True)
    (3): GELU()
    (4): Linear(in_features=200, out_features=200, bias=True)
    (5): GELU()
    (6): Linear(in_features=200, out_features=100, bias=True)
    (7): GELU()
    (8): Linear(in_features=100, out_features=100, bias=True)
    (9): GELU()
    (10): Linear(in_features=100, out_features=50, bias=True)
    (11): GELU()
    (12): Linear(in_features=50, out_features=20, bias=True)
    (13): GELU()
    (14): Linear(in_features=20, out_features=1, bias=True)
  )
)

Total number of trainable parameters: 103591

Checkpoint found: 1000

batch_size = 300
bias = True
clear_checkpoint = False
clip_grad = 0
cuda = -1
device = cpu
dtype = float64
lr = 0.0005
max_step = 1000
n_in = 68
n_out = 1
net_depth = 9
net_width = (100, 200, 200, 100, 100, 50, 20)
no_stdout = False
optimizer = adam
out_dir = out
out_filename = out/MLP_nd9_nw-100-200-200-100-100-50-20_bias/out
out_infix = 
print_step = 5
save_step = 10
seed = 93933018
tolerance = 1e-05

init_time = 0.000
Training...
MLP(
  (net): Sequential(
    (0): Linear(in_features=68, out_features=100, bias=True)
    (1): GELU()
    (2): Linear(in_features=100, out_features=200, bias=True)
    (3): GELU()
    (4): Linear(in_features=200, out_features=200, bias=True)
    (5): GELU()
    (6): Linear(in_features=200, out_features=100, bias=True)
    (7): GELU()
    (8): Linear(in_features=100, out_features=100, bias=True)
    (9): GELU()
    (10): Linear(in_features=100, out_features=50, bias=True)
    (11): GELU()
    (12): Linear(in_features=50, out_features=20, bias=True)
    (13): GELU()
    (14): Linear(in_features=20, out_features=1, bias=True)
  )
)

Total number of trainable parameters: 103591

Checkpoint found: 1000

batch_size = 300
bias = True
clear_checkpoint = False
clip_grad = 0
cuda = -1
device = cpu
dtype = float64
lr = 0.0005
max_step = 1000
n_in = 68
n_out = 1
net_depth = 9
net_width = (100, 200, 200, 100, 100, 50, 20)
no_stdout = False
optimizer = adam
out_dir = out
out_filename = out/MLP_nd9_nw-100-200-200-100-100-50-20_bias/out
out_infix = 
print_step = 5
save_step = 10
seed = 42281791
tolerance = 1e-05

init_time = 0.000
Training...
MLP(
  (net): Sequential(
    (0): Linear(in_features=68, out_features=100, bias=True)
    (1): GELU()
    (2): Linear(in_features=100, out_features=200, bias=True)
    (3): GELU()
    (4): Linear(in_features=200, out_features=200, bias=True)
    (5): GELU()
    (6): Linear(in_features=200, out_features=100, bias=True)
    (7): GELU()
    (8): Linear(in_features=100, out_features=100, bias=True)
    (9): GELU()
    (10): Linear(in_features=100, out_features=50, bias=True)
    (11): GELU()
    (12): Linear(in_features=50, out_features=20, bias=True)
    (13): GELU()
    (14): Linear(in_features=20, out_features=1, bias=True)
  )
)

Total number of trainable parameters: 103591

Checkpoint found: 1000

batch_size = 300
bias = True
clear_checkpoint = False
clip_grad = 0
cuda = -1
device = cpu
dtype = float64
lr = 0.0005
max_step = 1000
n_in = 68
n_out = 1
net_depth = 9
net_width = (100, 200, 200, 100, 100, 50, 20)
no_stdout = False
optimizer = adam
out_dir = out
out_filename = out/MLP_nd9_nw-100-200-200-100-100-50-20_bias/out
out_infix = 
print_step = 5
save_step = 10
seed = 1833538
tolerance = 1e-05

init_time = 0.000
Training...
MLP(
  (net): Sequential(
    (0): Linear(in_features=68, out_features=100, bias=True)
    (1): GELU()
    (2): Linear(in_features=100, out_features=200, bias=True)
    (3): GELU()
    (4): Linear(in_features=200, out_features=200, bias=True)
    (5): GELU()
    (6): Linear(in_features=200, out_features=100, bias=True)
    (7): GELU()
    (8): Linear(in_features=100, out_features=100, bias=True)
    (9): GELU()
    (10): Linear(in_features=100, out_features=50, bias=True)
    (11): GELU()
    (12): Linear(in_features=50, out_features=20, bias=True)
    (13): GELU()
    (14): Linear(in_features=20, out_features=1, bias=True)
  )
)

Total number of trainable parameters: 103591

Checkpoint found: 1000

batch_size = 300
bias = True
clear_checkpoint = False
clip_grad = 0
cuda = -1
device = cpu
dtype = float64
lr = 0.0005
max_step = 1000
n_in = 68
n_out = 1
net_depth = 9
net_width = (100, 200, 200, 100, 100, 50, 20)
no_stdout = False
optimizer = adam
out_dir = out
out_filename = out/MLP_nd9_nw-100-200-200-100-100-50-20_bias/out
out_infix = 
print_step = 5
save_step = 10
seed = 22695929
tolerance = 1e-05

init_time = 0.000
Training...
MLP(
  (net): Sequential(
    (0): Linear(in_features=68, out_features=100, bias=True)
    (1): GELU()
    (2): Linear(in_features=100, out_features=200, bias=True)
    (3): GELU()
    (4): Linear(in_features=200, out_features=200, bias=True)
    (5): GELU()
    (6): Linear(in_features=200, out_features=100, bias=True)
    (7): GELU()
    (8): Linear(in_features=100, out_features=100, bias=True)
    (9): GELU()
    (10): Linear(in_features=100, out_features=50, bias=True)
    (11): GELU()
    (12): Linear(in_features=50, out_features=20, bias=True)
    (13): GELU()
    (14): Linear(in_features=20, out_features=1, bias=True)
  )
)

Total number of trainable parameters: 103591

Checkpoint found: 1000

batch_size = 300
bias = True
clear_checkpoint = False
clip_grad = 0
cuda = -1
device = cpu
dtype = float64
lr = 0.0005
max_step = 1000
n_in = 68
n_out = 1
net_depth = 9
net_width = (100, 200, 200, 100, 100, 50, 20)
no_stdout = False
optimizer = adam
out_dir = out
out_filename = out/MLP_nd9_nw-100-200-200-100-100-50-20_bias/out
out_infix = 
print_step = 5
save_step = 10
seed = 79501805
tolerance = 1e-05

init_time = 0.000
Training...
MLP(
  (net): Sequential(
    (0): Linear(in_features=68, out_features=100, bias=True)
    (1): GELU()
    (2): Linear(in_features=100, out_features=200, bias=True)
    (3): GELU()
    (4): Linear(in_features=200, out_features=200, bias=True)
    (5): GELU()
    (6): Linear(in_features=200, out_features=100, bias=True)
    (7): GELU()
    (8): Linear(in_features=100, out_features=100, bias=True)
    (9): GELU()
    (10): Linear(in_features=100, out_features=50, bias=True)
    (11): GELU()
    (12): Linear(in_features=50, out_features=20, bias=True)
    (13): GELU()
    (14): Linear(in_features=20, out_features=1, bias=True)
  )
)

Total number of trainable parameters: 103591

Checkpoint found: 1000

batch_size = 300
bias = True
clear_checkpoint = False
clip_grad = 0
cuda = -1
device = cpu
dtype = float64
lr = 0.0005
max_step = 1000
n_in = 68
n_out = 1
net_depth = 9
net_width = (100, 200, 200, 100, 100, 50, 20)
no_stdout = False
optimizer = adam
out_dir = out
out_filename = out/MLP_nd9_nw-100-200-200-100-100-50-20_bias/out
out_infix = 
print_step = 5
save_step = 10
seed = 47295482
tolerance = 1e-05

init_time = 0.000
Training...
MLP(
  (net): Sequential(
    (0): Linear(in_features=68, out_features=100, bias=True)
    (1): GELU()
    (2): Linear(in_features=100, out_features=200, bias=True)
    (3): GELU()
    (4): Linear(in_features=200, out_features=200, bias=True)
    (5): GELU()
    (6): Linear(in_features=200, out_features=100, bias=True)
    (7): GELU()
    (8): Linear(in_features=100, out_features=100, bias=True)
    (9): GELU()
    (10): Linear(in_features=100, out_features=50, bias=True)
    (11): GELU()
    (12): Linear(in_features=50, out_features=20, bias=True)
    (13): GELU()
    (14): Linear(in_features=20, out_features=1, bias=True)
  )
)

Total number of trainable parameters: 103591

Checkpoint found: 1000

batch_size = 300
bias = True
clear_checkpoint = False
clip_grad = 0
cuda = -1
device = cpu
dtype = float64
lr = 0.0005
max_step = 1000
n_in = 68
n_out = 1
net_depth = 9
net_width = (100, 200, 200, 100, 100, 50, 20)
no_stdout = False
optimizer = adam
out_dir = out
out_filename = out/MLP_nd9_nw-100-200-200-100-100-50-20_bias/out
out_infix = 
print_step = 5
save_step = 10
seed = 80829295
tolerance = 1e-05

init_time = 0.000
Training...
MLP(
  (net): Sequential(
    (0): Linear(in_features=68, out_features=100, bias=True)
    (1): GELU()
    (2): Linear(in_features=100, out_features=200, bias=True)
    (3): GELU()
    (4): Linear(in_features=200, out_features=200, bias=True)
    (5): GELU()
    (6): Linear(in_features=200, out_features=100, bias=True)
    (7): GELU()
    (8): Linear(in_features=100, out_features=100, bias=True)
    (9): GELU()
    (10): Linear(in_features=100, out_features=50, bias=True)
    (11): GELU()
    (12): Linear(in_features=50, out_features=20, bias=True)
    (13): GELU()
    (14): Linear(in_features=20, out_features=1, bias=True)
  )
)

Total number of trainable parameters: 103591

Checkpoint found: 1000

batch_size = 300
bias = True
clear_checkpoint = False
clip_grad = 0
cuda = -1
device = cpu
dtype = float64
lr = 0.0005
max_step = 1000
n_in = 68
n_out = 1
net_depth = 9
net_width = (100, 200, 200, 100, 100, 50, 20)
no_stdout = False
optimizer = adam
out_dir = out
out_filename = out/MLP_nd9_nw-100-200-200-100-100-50-20_bias/out
out_infix = 
print_step = 5
save_step = 10
seed = 33520739
tolerance = 1e-05

init_time = 0.000
Training...
MLP(
  (net): Sequential(
    (0): Linear(in_features=68, out_features=100, bias=True)
    (1): GELU()
    (2): Linear(in_features=100, out_features=200, bias=True)
    (3): GELU()
    (4): Linear(in_features=200, out_features=200, bias=True)
    (5): GELU()
    (6): Linear(in_features=200, out_features=100, bias=True)
    (7): GELU()
    (8): Linear(in_features=100, out_features=100, bias=True)
    (9): GELU()
    (10): Linear(in_features=100, out_features=50, bias=True)
    (11): GELU()
    (12): Linear(in_features=50, out_features=20, bias=True)
    (13): GELU()
    (14): Linear(in_features=20, out_features=1, bias=True)
  )
)

Total number of trainable parameters: 103591

Checkpoint found: 1000

batch_size = 300
bias = True
clear_checkpoint = False
clip_grad = 0
cuda = -1
device = cpu
dtype = float64
lr = 0.0005
max_step = 1000
n_in = 68
n_out = 1
net_depth = 9
net_width = (100, 200, 200, 100, 100, 50, 20)
no_stdout = False
optimizer = adam
out_dir = out
out_filename = out/MLP_nd9_nw-100-200-200-100-100-50-20_bias/out
out_infix = 
print_step = 5
save_step = 10
seed = 29392988
tolerance = 1e-05

init_time = 0.000
Training...
MLP(
  (net): Sequential(
    (0): Linear(in_features=68, out_features=100, bias=True)
    (1): GELU()
    (2): Linear(in_features=100, out_features=200, bias=True)
    (3): GELU()
    (4): Linear(in_features=200, out_features=200, bias=True)
    (5): GELU()
    (6): Linear(in_features=200, out_features=100, bias=True)
    (7): GELU()
    (8): Linear(in_features=100, out_features=100, bias=True)
    (9): GELU()
    (10): Linear(in_features=100, out_features=50, bias=True)
    (11): GELU()
    (12): Linear(in_features=50, out_features=20, bias=True)
    (13): GELU()
    (14): Linear(in_features=20, out_features=1, bias=True)
  )
)

Total number of trainable parameters: 103591

Checkpoint found: 1000

batch_size = 300
bias = True
clear_checkpoint = False
clip_grad = 0
cuda = -1
device = cpu
dtype = float64
lr = 0.0005
max_step = 1000
n_in = 68
n_out = 1
net_depth = 9
net_width = (100, 200, 200, 100, 100, 50, 20)
no_stdout = False
optimizer = adam
out_dir = out
out_filename = out/MLP_nd9_nw-100-200-200-100-100-50-20_bias/out
out_infix = 
print_step = 5
save_step = 10
seed = 42512670
tolerance = 1e-05

init_time = 0.000
Training...
MLP(
  (net): Sequential(
    (0): Linear(in_features=68, out_features=100, bias=True)
    (1): GELU()
    (2): Linear(in_features=100, out_features=200, bias=True)
    (3): GELU()
    (4): Linear(in_features=200, out_features=200, bias=True)
    (5): GELU()
    (6): Linear(in_features=200, out_features=100, bias=True)
    (7): GELU()
    (8): Linear(in_features=100, out_features=100, bias=True)
    (9): GELU()
    (10): Linear(in_features=100, out_features=50, bias=True)
    (11): GELU()
    (12): Linear(in_features=50, out_features=20, bias=True)
    (13): GELU()
    (14): Linear(in_features=20, out_features=1, bias=True)
  )
)

Total number of trainable parameters: 103591

Checkpoint found: 1000

batch_size = 300
bias = True
clear_checkpoint = False
clip_grad = 0
cuda = -1
device = cpu
dtype = float64
lr = 0.0005
max_step = 1000
n_in = 68
n_out = 1
net_depth = 9
net_width = (100, 200, 200, 100, 100, 50, 20)
no_stdout = False
optimizer = adam
out_dir = out
out_filename = out/MLP_nd9_nw-100-200-200-100-100-50-20_bias/out
out_infix = 
print_step = 5
save_step = 10
seed = 83187543
tolerance = 1e-05

init_time = 0.000
Training...
MLP(
  (net): Sequential(
    (0): Linear(in_features=68, out_features=100, bias=True)
    (1): GELU()
    (2): Linear(in_features=100, out_features=200, bias=True)
    (3): GELU()
    (4): Linear(in_features=200, out_features=200, bias=True)
    (5): GELU()
    (6): Linear(in_features=200, out_features=100, bias=True)
    (7): GELU()
    (8): Linear(in_features=100, out_features=100, bias=True)
    (9): GELU()
    (10): Linear(in_features=100, out_features=50, bias=True)
    (11): GELU()
    (12): Linear(in_features=50, out_features=20, bias=True)
    (13): GELU()
    (14): Linear(in_features=20, out_features=1, bias=True)
  )
)

Total number of trainable parameters: 103591

Checkpoint found: 1000

batch_size = 300
bias = True
clear_checkpoint = False
clip_grad = 0
cuda = -1
device = cpu
dtype = float64
lr = 0.0005
max_step = 1000
n_in = 68
n_out = 1
net_depth = 9
net_width = (100, 200, 200, 100, 100, 50, 20)
no_stdout = False
optimizer = adam
out_dir = out
out_filename = out/MLP_nd9_nw-100-200-200-100-100-50-20_bias/out
out_infix = 
print_step = 5
save_step = 10
seed = 6732098
tolerance = 1e-05

init_time = 0.000
Training...
MLP(
  (net): Sequential(
    (0): Linear(in_features=68, out_features=100, bias=True)
    (1): GELU()
    (2): Linear(in_features=100, out_features=200, bias=True)
    (3): GELU()
    (4): Linear(in_features=200, out_features=200, bias=True)
    (5): GELU()
    (6): Linear(in_features=200, out_features=100, bias=True)
    (7): GELU()
    (8): Linear(in_features=100, out_features=100, bias=True)
    (9): GELU()
    (10): Linear(in_features=100, out_features=50, bias=True)
    (11): GELU()
    (12): Linear(in_features=50, out_features=20, bias=True)
    (13): GELU()
    (14): Linear(in_features=20, out_features=1, bias=True)
  )
)

Total number of trainable parameters: 103591

Checkpoint found: 1000

batch_size = 300
bias = True
clear_checkpoint = False
clip_grad = 0
cuda = -1
device = cpu
dtype = float64
lr = 0.0005
max_step = 1000
n_in = 68
n_out = 1
net_depth = 9
net_width = (100, 200, 200, 100, 100, 50, 20)
no_stdout = False
optimizer = adam
out_dir = out
out_filename = out/MLP_nd9_nw-100-200-200-100-100-50-20_bias/out
out_infix = 
print_step = 5
save_step = 10
seed = 33802241
tolerance = 1e-05

init_time = 0.000
Training...
MLP(
  (net): Sequential(
    (0): Linear(in_features=68, out_features=100, bias=True)
    (1): GELU()
    (2): Linear(in_features=100, out_features=200, bias=True)
    (3): GELU()
    (4): Linear(in_features=200, out_features=200, bias=True)
    (5): GELU()
    (6): Linear(in_features=200, out_features=100, bias=True)
    (7): GELU()
    (8): Linear(in_features=100, out_features=100, bias=True)
    (9): GELU()
    (10): Linear(in_features=100, out_features=50, bias=True)
    (11): GELU()
    (12): Linear(in_features=50, out_features=20, bias=True)
    (13): GELU()
    (14): Linear(in_features=20, out_features=1, bias=True)
  )
)

Total number of trainable parameters: 103591

Checkpoint found: 1000

batch_size = 300
bias = True
clear_checkpoint = False
clip_grad = 0
cuda = -1
device = cpu
dtype = float64
lr = 0.0005
max_step = 1000
n_in = 68
n_out = 1
net_depth = 9
net_width = (100, 200, 200, 100, 100, 50, 20)
no_stdout = False
optimizer = adam
out_dir = out
out_filename = out/MLP_nd9_nw-100-200-200-100-100-50-20_bias/out
out_infix = 
print_step = 5
save_step = 10
seed = 82005202
tolerance = 1e-05

init_time = 0.000
Training...
MLP(
  (net): Sequential(
    (0): Linear(in_features=68, out_features=100, bias=True)
    (1): GELU()
    (2): Linear(in_features=100, out_features=200, bias=True)
    (3): GELU()
    (4): Linear(in_features=200, out_features=200, bias=True)
    (5): GELU()
    (6): Linear(in_features=200, out_features=100, bias=True)
    (7): GELU()
    (8): Linear(in_features=100, out_features=100, bias=True)
    (9): GELU()
    (10): Linear(in_features=100, out_features=50, bias=True)
    (11): GELU()
    (12): Linear(in_features=50, out_features=20, bias=True)
    (13): GELU()
    (14): Linear(in_features=20, out_features=1, bias=True)
  )
)

Total number of trainable parameters: 103591

Checkpoint found: 1000

batch_size = 300
bias = True
clear_checkpoint = False
clip_grad = 0
cuda = -1
device = cpu
dtype = float64
lr = 0.0005
max_step = 1000
n_in = 68
n_out = 1
net_depth = 9
net_width = (100, 200, 200, 100, 100, 50, 20)
no_stdout = False
optimizer = adam
out_dir = out
out_filename = out/MLP_nd9_nw-100-200-200-100-100-50-20_bias/out
out_infix = 
print_step = 5
save_step = 10
seed = 48699821
tolerance = 1e-05

init_time = 0.000
Training...
MLP(
  (net): Sequential(
    (0): Linear(in_features=68, out_features=100, bias=True)
    (1): GELU()
    (2): Linear(in_features=100, out_features=200, bias=True)
    (3): GELU()
    (4): Linear(in_features=200, out_features=200, bias=True)
    (5): GELU()
    (6): Linear(in_features=200, out_features=100, bias=True)
    (7): GELU()
    (8): Linear(in_features=100, out_features=100, bias=True)
    (9): GELU()
    (10): Linear(in_features=100, out_features=50, bias=True)
    (11): GELU()
    (12): Linear(in_features=50, out_features=20, bias=True)
    (13): GELU()
    (14): Linear(in_features=20, out_features=1, bias=True)
  )
)

Total number of trainable parameters: 103591

Checkpoint found: 1000

batch_size = 300
bias = True
clear_checkpoint = False
clip_grad = 0
cuda = -1
device = cpu
dtype = float64
lr = 0.0005
max_step = 1000
n_in = 68
n_out = 1
net_depth = 9
net_width = (100, 200, 200, 100, 100, 50, 20)
no_stdout = False
optimizer = adam
out_dir = out
out_filename = out/MLP_nd9_nw-100-200-200-100-100-50-20_bias/out
out_infix = 
print_step = 5
save_step = 10
seed = 95976427
tolerance = 1e-05

init_time = 0.000
Training...
MLP(
  (net): Sequential(
    (0): Linear(in_features=68, out_features=100, bias=True)
    (1): GELU()
    (2): Linear(in_features=100, out_features=200, bias=True)
    (3): GELU()
    (4): Linear(in_features=200, out_features=200, bias=True)
    (5): GELU()
    (6): Linear(in_features=200, out_features=100, bias=True)
    (7): GELU()
    (8): Linear(in_features=100, out_features=100, bias=True)
    (9): GELU()
    (10): Linear(in_features=100, out_features=50, bias=True)
    (11): GELU()
    (12): Linear(in_features=50, out_features=20, bias=True)
    (13): GELU()
    (14): Linear(in_features=20, out_features=1, bias=True)
  )
)

Total number of trainable parameters: 103591

Checkpoint found: 1000

batch_size = 300
bias = True
clear_checkpoint = False
clip_grad = 0
cuda = -1
device = cpu
dtype = float64
lr = 0.0005
max_step = 1000
n_in = 68
n_out = 1
net_depth = 9
net_width = (100, 200, 200, 100, 100, 50, 20)
no_stdout = False
optimizer = adam
out_dir = out
out_filename = out/MLP_nd9_nw-100-200-200-100-100-50-20_bias/out
out_infix = 
print_step = 5
save_step = 10
seed = 95768181
tolerance = 1e-05

init_time = 0.000
Training...
MLP(
  (net): Sequential(
    (0): Linear(in_features=68, out_features=100, bias=True)
    (1): GELU()
    (2): Linear(in_features=100, out_features=200, bias=True)
    (3): GELU()
    (4): Linear(in_features=200, out_features=200, bias=True)
    (5): GELU()
    (6): Linear(in_features=200, out_features=100, bias=True)
    (7): GELU()
    (8): Linear(in_features=100, out_features=100, bias=True)
    (9): GELU()
    (10): Linear(in_features=100, out_features=50, bias=True)
    (11): GELU()
    (12): Linear(in_features=50, out_features=20, bias=True)
    (13): GELU()
    (14): Linear(in_features=20, out_features=1, bias=True)
  )
)

Total number of trainable parameters: 103591

Checkpoint found: 1000

batch_size = 300
bias = True
clear_checkpoint = False
clip_grad = 0
cuda = -1
device = cpu
dtype = float64
lr = 0.0005
max_step = 1000
n_in = 68
n_out = 1
net_depth = 9
net_width = (100, 200, 200, 100, 100, 50, 20)
no_stdout = False
optimizer = adam
out_dir = out
out_filename = out/MLP_nd9_nw-100-200-200-100-100-50-20_bias/out
out_infix = 
print_step = 5
save_step = 10
seed = 50717986
tolerance = 1e-05

init_time = 0.000
Training...
MLP(
  (net): Sequential(
    (0): Linear(in_features=68, out_features=100, bias=True)
    (1): GELU()
    (2): Linear(in_features=100, out_features=200, bias=True)
    (3): GELU()
    (4): Linear(in_features=200, out_features=200, bias=True)
    (5): GELU()
    (6): Linear(in_features=200, out_features=100, bias=True)
    (7): GELU()
    (8): Linear(in_features=100, out_features=100, bias=True)
    (9): GELU()
    (10): Linear(in_features=100, out_features=50, bias=True)
    (11): GELU()
    (12): Linear(in_features=50, out_features=20, bias=True)
    (13): GELU()
    (14): Linear(in_features=20, out_features=1, bias=True)
  )
)

Total number of trainable parameters: 103591

Checkpoint found: 1000

batch_size = 300
bias = True
clear_checkpoint = False
clip_grad = 0
cuda = -1
device = cpu
dtype = float64
lr = 0.0005
max_step = 1000
n_in = 68
n_out = 1
net_depth = 9
net_width = (100, 200, 200, 100, 100, 50, 20)
no_stdout = False
optimizer = adam
out_dir = out
out_filename = out/MLP_nd9_nw-100-200-200-100-100-50-20_bias/out
out_infix = 
print_step = 5
save_step = 10
seed = 43109735
tolerance = 1e-05

init_time = 0.000
Training...
MLP(
  (net): Sequential(
    (0): Linear(in_features=68, out_features=100, bias=True)
    (1): GELU()
    (2): Linear(in_features=100, out_features=200, bias=True)
    (3): GELU()
    (4): Linear(in_features=200, out_features=200, bias=True)
    (5): GELU()
    (6): Linear(in_features=200, out_features=100, bias=True)
    (7): GELU()
    (8): Linear(in_features=100, out_features=100, bias=True)
    (9): GELU()
    (10): Linear(in_features=100, out_features=50, bias=True)
    (11): GELU()
    (12): Linear(in_features=50, out_features=20, bias=True)
    (13): GELU()
    (14): Linear(in_features=20, out_features=1, bias=True)
  )
)

Total number of trainable parameters: 103591

Checkpoint found: 1000

batch_size = 300
bias = True
clear_checkpoint = False
clip_grad = 0
cuda = -1
device = cpu
dtype = float64
lr = 0.0005
max_step = 1000
n_in = 68
n_out = 1
net_depth = 9
net_width = (100, 200, 200, 100, 100, 50, 20)
no_stdout = False
optimizer = adam
out_dir = out
out_filename = out/MLP_nd9_nw-100-200-200-100-100-50-20_bias/out
out_infix = 
print_step = 5
save_step = 10
seed = 46177623
tolerance = 1e-05

init_time = 0.000
Training...
MLP(
  (net): Sequential(
    (0): Linear(in_features=68, out_features=100, bias=True)
    (1): GELU()
    (2): Linear(in_features=100, out_features=200, bias=True)
    (3): GELU()
    (4): Linear(in_features=200, out_features=200, bias=True)
    (5): GELU()
    (6): Linear(in_features=200, out_features=100, bias=True)
    (7): GELU()
    (8): Linear(in_features=100, out_features=100, bias=True)
    (9): GELU()
    (10): Linear(in_features=100, out_features=50, bias=True)
    (11): GELU()
    (12): Linear(in_features=50, out_features=20, bias=True)
    (13): GELU()
    (14): Linear(in_features=20, out_features=1, bias=True)
  )
)

Total number of trainable parameters: 103591

Checkpoint found: 1000

batch_size = 300
bias = True
clear_checkpoint = False
clip_grad = 0
cuda = -1
device = cpu
dtype = float64
lr = 0.0005
max_step = 1000
n_in = 68
n_out = 1
net_depth = 9
net_width = (100, 200, 200, 100, 100, 50, 20)
no_stdout = False
optimizer = adam
out_dir = out
out_filename = out/MLP_nd9_nw-100-200-200-100-100-50-20_bias/out
out_infix = 
print_step = 5
save_step = 10
seed = 42113880
tolerance = 1e-05

init_time = 0.000
Training...
MLP(
  (net): Sequential(
    (0): Linear(in_features=68, out_features=100, bias=True)
    (1): GELU()
    (2): Linear(in_features=100, out_features=200, bias=True)
    (3): GELU()
    (4): Linear(in_features=200, out_features=200, bias=True)
    (5): GELU()
    (6): Linear(in_features=200, out_features=100, bias=True)
    (7): GELU()
    (8): Linear(in_features=100, out_features=100, bias=True)
    (9): GELU()
    (10): Linear(in_features=100, out_features=50, bias=True)
    (11): GELU()
    (12): Linear(in_features=50, out_features=20, bias=True)
    (13): GELU()
    (14): Linear(in_features=20, out_features=1, bias=True)
  )
)

Total number of trainable parameters: 103591

Checkpoint found: 1000

batch_size = 300
bias = True
clear_checkpoint = False
clip_grad = 0
cuda = -1
device = cpu
dtype = float64
lr = 0.0005
max_step = 1000
n_in = 68
n_out = 1
net_depth = 9
net_width = (100, 200, 200, 100, 100, 50, 20)
no_stdout = False
optimizer = adam
out_dir = out
out_filename = out/MLP_nd9_nw-100-200-200-100-100-50-20_bias/out
out_infix = 
print_step = 5
save_step = 10
seed = 28337654
tolerance = 1e-05

init_time = 0.000
Training...
MLP(
  (net): Sequential(
    (0): Linear(in_features=68, out_features=100, bias=True)
    (1): GELU()
    (2): Linear(in_features=100, out_features=200, bias=True)
    (3): GELU()
    (4): Linear(in_features=200, out_features=200, bias=True)
    (5): GELU()
    (6): Linear(in_features=200, out_features=100, bias=True)
    (7): GELU()
    (8): Linear(in_features=100, out_features=100, bias=True)
    (9): GELU()
    (10): Linear(in_features=100, out_features=50, bias=True)
    (11): GELU()
    (12): Linear(in_features=50, out_features=20, bias=True)
    (13): GELU()
    (14): Linear(in_features=20, out_features=1, bias=True)
  )
)

Total number of trainable parameters: 103591

Checkpoint found: 1000

batch_size = 300
bias = True
clear_checkpoint = False
clip_grad = 0
cuda = -1
device = cpu
dtype = float64
lr = 0.0005
max_step = 1000
n_in = 68
n_out = 1
net_depth = 9
net_width = (100, 200, 200, 100, 100, 50, 20)
no_stdout = False
optimizer = adam
out_dir = out
out_filename = out/MLP_nd9_nw-100-200-200-100-100-50-20_bias/out
out_infix = 
print_step = 5
save_step = 10
seed = 13689033
tolerance = 1e-05

init_time = 0.000
Training...
MLP(
  (net): Sequential(
    (0): Linear(in_features=68, out_features=100, bias=True)
    (1): GELU()
    (2): Linear(in_features=100, out_features=200, bias=True)
    (3): GELU()
    (4): Linear(in_features=200, out_features=200, bias=True)
    (5): GELU()
    (6): Linear(in_features=200, out_features=100, bias=True)
    (7): GELU()
    (8): Linear(in_features=100, out_features=100, bias=True)
    (9): GELU()
    (10): Linear(in_features=100, out_features=50, bias=True)
    (11): GELU()
    (12): Linear(in_features=50, out_features=20, bias=True)
    (13): GELU()
    (14): Linear(in_features=20, out_features=1, bias=True)
  )
)

Total number of trainable parameters: 103591

Checkpoint found: 1000

batch_size = 300
bias = True
clear_checkpoint = False
clip_grad = 0
cuda = -1
device = cpu
dtype = float64
lr = 0.0005
max_step = 1000
n_in = 68
n_out = 1
net_depth = 9
net_width = (100, 200, 200, 100, 100, 50, 20)
no_stdout = False
optimizer = adam
out_dir = out
out_filename = out/MLP_nd9_nw-100-200-200-100-100-50-20_bias/out
out_infix = 
print_step = 5
save_step = 10
seed = 73267330
tolerance = 1e-05

init_time = 0.000
Training...
MLP(
  (net): Sequential(
    (0): Linear(in_features=68, out_features=100, bias=True)
    (1): GELU()
    (2): Linear(in_features=100, out_features=200, bias=True)
    (3): GELU()
    (4): Linear(in_features=200, out_features=200, bias=True)
    (5): GELU()
    (6): Linear(in_features=200, out_features=100, bias=True)
    (7): GELU()
    (8): Linear(in_features=100, out_features=100, bias=True)
    (9): GELU()
    (10): Linear(in_features=100, out_features=50, bias=True)
    (11): GELU()
    (12): Linear(in_features=50, out_features=20, bias=True)
    (13): GELU()
    (14): Linear(in_features=20, out_features=1, bias=True)
  )
)

Total number of trainable parameters: 103591

Checkpoint found: 1000

batch_size = 300
bias = True
clear_checkpoint = False
clip_grad = 0
cuda = -1
device = cpu
dtype = float64
lr = 0.0005
max_step = 1000
n_in = 68
n_out = 1
net_depth = 9
net_width = (100, 200, 200, 100, 100, 50, 20)
no_stdout = False
optimizer = adam
out_dir = out
out_filename = out/MLP_nd9_nw-100-200-200-100-100-50-20_bias/out
out_infix = 
print_step = 5
save_step = 10
seed = 92918007
tolerance = 1e-05

init_time = 0.000
Training...
MLP(
  (net): Sequential(
    (0): Linear(in_features=68, out_features=100, bias=True)
    (1): GELU()
    (2): Linear(in_features=100, out_features=200, bias=True)
    (3): GELU()
    (4): Linear(in_features=200, out_features=200, bias=True)
    (5): GELU()
    (6): Linear(in_features=200, out_features=100, bias=True)
    (7): GELU()
    (8): Linear(in_features=100, out_features=100, bias=True)
    (9): GELU()
    (10): Linear(in_features=100, out_features=50, bias=True)
    (11): GELU()
    (12): Linear(in_features=50, out_features=20, bias=True)
    (13): GELU()
    (14): Linear(in_features=20, out_features=1, bias=True)
  )
)

Total number of trainable parameters: 103591

Checkpoint found: 1000

batch_size = 300
bias = True
clear_checkpoint = False
clip_grad = 0
cuda = -1
device = cpu
dtype = float64
lr = 0.0005
max_step = 1000
n_in = 68
n_out = 1
net_depth = 9
net_width = (100, 200, 200, 100, 100, 50, 20)
no_stdout = False
optimizer = adam
out_dir = out
out_filename = out/MLP_nd9_nw-100-200-200-100-100-50-20_bias/out
out_infix = 
print_step = 5
save_step = 10
seed = 35168156
tolerance = 1e-05

init_time = 0.000
Training...
MLP(
  (net): Sequential(
    (0): Linear(in_features=68, out_features=100, bias=True)
    (1): GELU()
    (2): Linear(in_features=100, out_features=200, bias=True)
    (3): GELU()
    (4): Linear(in_features=200, out_features=200, bias=True)
    (5): GELU()
    (6): Linear(in_features=200, out_features=100, bias=True)
    (7): GELU()
    (8): Linear(in_features=100, out_features=100, bias=True)
    (9): GELU()
    (10): Linear(in_features=100, out_features=50, bias=True)
    (11): GELU()
    (12): Linear(in_features=50, out_features=20, bias=True)
    (13): GELU()
    (14): Linear(in_features=20, out_features=1, bias=True)
  )
)

Total number of trainable parameters: 103591

Checkpoint found: 1000

batch_size = 300
bias = True
clear_checkpoint = False
clip_grad = 0
cuda = -1
device = cpu
dtype = float64
lr = 0.0005
max_step = 1000
n_in = 68
n_out = 1
net_depth = 9
net_width = (100, 200, 200, 100, 100, 50, 20)
no_stdout = False
optimizer = adam
out_dir = out
out_filename = out/MLP_nd9_nw-100-200-200-100-100-50-20_bias/out
out_infix = 
print_step = 5
save_step = 10
seed = 34745773
tolerance = 1e-05

init_time = 0.000
Training...
MLP(
  (net): Sequential(
    (0): Linear(in_features=68, out_features=100, bias=True)
    (1): GELU()
    (2): Linear(in_features=100, out_features=200, bias=True)
    (3): GELU()
    (4): Linear(in_features=200, out_features=200, bias=True)
    (5): GELU()
    (6): Linear(in_features=200, out_features=100, bias=True)
    (7): GELU()
    (8): Linear(in_features=100, out_features=100, bias=True)
    (9): GELU()
    (10): Linear(in_features=100, out_features=50, bias=True)
    (11): GELU()
    (12): Linear(in_features=50, out_features=20, bias=True)
    (13): GELU()
    (14): Linear(in_features=20, out_features=1, bias=True)
  )
)

Total number of trainable parameters: 103591

Checkpoint found: 1000

batch_size = 300
bias = True
clear_checkpoint = False
clip_grad = 0
cuda = -1
device = cpu
dtype = float64
lr = 0.0005
max_step = 1000
n_in = 68
n_out = 1
net_depth = 9
net_width = (100, 200, 200, 100, 100, 50, 20)
no_stdout = False
optimizer = adam
out_dir = out
out_filename = out/MLP_nd9_nw-100-200-200-100-100-50-20_bias/out
out_infix = 
print_step = 5
save_step = 10
seed = 48522672
tolerance = 1e-05

init_time = 0.000
Training...
MLP(
  (net): Sequential(
    (0): Linear(in_features=68, out_features=100, bias=True)
    (1): GELU()
    (2): Linear(in_features=100, out_features=200, bias=True)
    (3): GELU()
    (4): Linear(in_features=200, out_features=200, bias=True)
    (5): GELU()
    (6): Linear(in_features=200, out_features=100, bias=True)
    (7): GELU()
    (8): Linear(in_features=100, out_features=100, bias=True)
    (9): GELU()
    (10): Linear(in_features=100, out_features=50, bias=True)
    (11): GELU()
    (12): Linear(in_features=50, out_features=20, bias=True)
    (13): GELU()
    (14): Linear(in_features=20, out_features=1, bias=True)
  )
)

Total number of trainable parameters: 103591

Checkpoint found: 1000

batch_size = 300
bias = True
clear_checkpoint = False
clip_grad = 0
cuda = -1
device = cpu
dtype = float64
lr = 0.0005
max_step = 1000
n_in = 68
n_out = 1
net_depth = 9
net_width = (100, 200, 200, 100, 100, 50, 20)
no_stdout = False
optimizer = adam
out_dir = out
out_filename = out/MLP_nd9_nw-100-200-200-100-100-50-20_bias/out
out_infix = 
print_step = 5
save_step = 10
seed = 16745102
tolerance = 1e-05

init_time = 0.000
Training...
MLP(
  (net): Sequential(
    (0): Linear(in_features=68, out_features=100, bias=True)
    (1): GELU()
    (2): Linear(in_features=100, out_features=200, bias=True)
    (3): GELU()
    (4): Linear(in_features=200, out_features=200, bias=True)
    (5): GELU()
    (6): Linear(in_features=200, out_features=100, bias=True)
    (7): GELU()
    (8): Linear(in_features=100, out_features=100, bias=True)
    (9): GELU()
    (10): Linear(in_features=100, out_features=50, bias=True)
    (11): GELU()
    (12): Linear(in_features=50, out_features=20, bias=True)
    (13): GELU()
    (14): Linear(in_features=20, out_features=1, bias=True)
  )
)

Total number of trainable parameters: 103591

Checkpoint found: 1000

batch_size = 300
bias = True
clear_checkpoint = False
clip_grad = 0
cuda = -1
device = cpu
dtype = float64
lr = 0.0005
max_step = 1000
n_in = 68
n_out = 1
net_depth = 9
net_width = (100, 200, 200, 100, 100, 50, 20)
no_stdout = False
optimizer = adam
out_dir = out
out_filename = out/MLP_nd9_nw-100-200-200-100-100-50-20_bias/out
out_infix = 
print_step = 5
save_step = 10
seed = 56969242
tolerance = 1e-05

init_time = 0.000
Training...
MLP(
  (net): Sequential(
    (0): Linear(in_features=68, out_features=100, bias=True)
    (1): GELU()
    (2): Linear(in_features=100, out_features=200, bias=True)
    (3): GELU()
    (4): Linear(in_features=200, out_features=200, bias=True)
    (5): GELU()
    (6): Linear(in_features=200, out_features=100, bias=True)
    (7): GELU()
    (8): Linear(in_features=100, out_features=100, bias=True)
    (9): GELU()
    (10): Linear(in_features=100, out_features=50, bias=True)
    (11): GELU()
    (12): Linear(in_features=50, out_features=20, bias=True)
    (13): GELU()
    (14): Linear(in_features=20, out_features=1, bias=True)
  )
)

Total number of trainable parameters: 103591

Checkpoint found: 1000

batch_size = 300
bias = True
clear_checkpoint = False
clip_grad = 0
cuda = -1
device = cpu
dtype = float64
lr = 0.0005
max_step = 1000
n_in = 68
n_out = 1
net_depth = 9
net_width = (100, 200, 200, 100, 100, 50, 20)
no_stdout = False
optimizer = adam
out_dir = out
out_filename = out/MLP_nd9_nw-100-200-200-100-100-50-20_bias/out
out_infix = 
print_step = 5
save_step = 10
seed = 40296453
tolerance = 1e-05

init_time = 0.000
Training...
MLP(
  (net): Sequential(
    (0): Linear(in_features=68, out_features=100, bias=True)
    (1): GELU()
    (2): Linear(in_features=100, out_features=200, bias=True)
    (3): GELU()
    (4): Linear(in_features=200, out_features=200, bias=True)
    (5): GELU()
    (6): Linear(in_features=200, out_features=100, bias=True)
    (7): GELU()
    (8): Linear(in_features=100, out_features=100, bias=True)
    (9): GELU()
    (10): Linear(in_features=100, out_features=50, bias=True)
    (11): GELU()
    (12): Linear(in_features=50, out_features=20, bias=True)
    (13): GELU()
    (14): Linear(in_features=20, out_features=1, bias=True)
  )
)

Total number of trainable parameters: 103591

Checkpoint found: 1000

batch_size = 300
bias = True
clear_checkpoint = False
clip_grad = 0
cuda = -1
device = cpu
dtype = float64
lr = 0.0005
max_step = 1000
n_in = 68
n_out = 1
net_depth = 9
net_width = (100, 200, 200, 100, 100, 50, 20)
no_stdout = False
optimizer = adam
out_dir = out
out_filename = out/MLP_nd9_nw-100-200-200-100-100-50-20_bias/out
out_infix = 
print_step = 5
save_step = 10
seed = 23706739
tolerance = 1e-05

init_time = 0.000
Training...
MLP(
  (net): Sequential(
    (0): Linear(in_features=68, out_features=100, bias=True)
    (1): GELU()
    (2): Linear(in_features=100, out_features=200, bias=True)
    (3): GELU()
    (4): Linear(in_features=200, out_features=200, bias=True)
    (5): GELU()
    (6): Linear(in_features=200, out_features=100, bias=True)
    (7): GELU()
    (8): Linear(in_features=100, out_features=100, bias=True)
    (9): GELU()
    (10): Linear(in_features=100, out_features=50, bias=True)
    (11): GELU()
    (12): Linear(in_features=50, out_features=20, bias=True)
    (13): GELU()
    (14): Linear(in_features=20, out_features=1, bias=True)
  )
)

Total number of trainable parameters: 103591

Checkpoint found: 1000

batch_size = 300
bias = True
clear_checkpoint = False
clip_grad = 0
cuda = -1
device = cpu
dtype = float64
lr = 0.0005
max_step = 1000
n_in = 68
n_out = 1
net_depth = 9
net_width = (100, 200, 200, 100, 100, 50, 20)
no_stdout = False
optimizer = adam
out_dir = out
out_filename = out/MLP_nd9_nw-100-200-200-100-100-50-20_bias/out
out_infix = 
print_step = 5
save_step = 10
seed = 745668
tolerance = 1e-05

init_time = 0.000
Training...
MLP(
  (net): Sequential(
    (0): Linear(in_features=68, out_features=100, bias=True)
    (1): GELU()
    (2): Linear(in_features=100, out_features=200, bias=True)
    (3): GELU()
    (4): Linear(in_features=200, out_features=200, bias=True)
    (5): GELU()
    (6): Linear(in_features=200, out_features=100, bias=True)
    (7): GELU()
    (8): Linear(in_features=100, out_features=100, bias=True)
    (9): GELU()
    (10): Linear(in_features=100, out_features=50, bias=True)
    (11): GELU()
    (12): Linear(in_features=50, out_features=20, bias=True)
    (13): GELU()
    (14): Linear(in_features=20, out_features=1, bias=True)
  )
)

Total number of trainable parameters: 103591

Checkpoint found: 1000

batch_size = 300
bias = True
clear_checkpoint = False
clip_grad = 0
cuda = -1
device = cpu
dtype = float64
lr = 0.0005
max_step = 1000
n_in = 68
n_out = 1
net_depth = 9
net_width = (100, 200, 200, 100, 100, 50, 20)
no_stdout = False
optimizer = adam
out_dir = out
out_filename = out/MLP_nd9_nw-100-200-200-100-100-50-20_bias/out
out_infix = 
print_step = 5
save_step = 10
seed = 3976151
tolerance = 1e-05

init_time = 0.000
Training...
MLP(
  (net): Sequential(
    (0): Linear(in_features=68, out_features=100, bias=True)
    (1): GELU()
    (2): Linear(in_features=100, out_features=200, bias=True)
    (3): GELU()
    (4): Linear(in_features=200, out_features=200, bias=True)
    (5): GELU()
    (6): Linear(in_features=200, out_features=100, bias=True)
    (7): GELU()
    (8): Linear(in_features=100, out_features=100, bias=True)
    (9): GELU()
    (10): Linear(in_features=100, out_features=50, bias=True)
    (11): GELU()
    (12): Linear(in_features=50, out_features=20, bias=True)
    (13): GELU()
    (14): Linear(in_features=20, out_features=1, bias=True)
  )
)

Total number of trainable parameters: 103591

Checkpoint found: 1000

batch_size = 300
bias = True
clear_checkpoint = False
clip_grad = 0
cuda = -1
device = cpu
dtype = float64
lr = 0.0005
max_step = 1000
n_in = 68
n_out = 1
net_depth = 9
net_width = (100, 200, 200, 100, 100, 50, 20)
no_stdout = False
optimizer = adam
out_dir = out
out_filename = out/MLP_nd9_nw-100-200-200-100-100-50-20_bias/out
out_infix = 
print_step = 5
save_step = 10
seed = 54201345
tolerance = 1e-05

init_time = 0.000
Training...
MLP(
  (net): Sequential(
    (0): Linear(in_features=68, out_features=100, bias=True)
    (1): GELU()
    (2): Linear(in_features=100, out_features=200, bias=True)
    (3): GELU()
    (4): Linear(in_features=200, out_features=200, bias=True)
    (5): GELU()
    (6): Linear(in_features=200, out_features=100, bias=True)
    (7): GELU()
    (8): Linear(in_features=100, out_features=100, bias=True)
    (9): GELU()
    (10): Linear(in_features=100, out_features=50, bias=True)
    (11): GELU()
    (12): Linear(in_features=50, out_features=20, bias=True)
    (13): GELU()
    (14): Linear(in_features=20, out_features=1, bias=True)
  )
)

Total number of trainable parameters: 103591

Checkpoint found: 1000

batch_size = 300
bias = True
clear_checkpoint = False
clip_grad = 0
cuda = -1
device = cpu
dtype = float64
lr = 0.0005
max_step = 1000
n_in = 68
n_out = 1
net_depth = 9
net_width = (100, 200, 200, 100, 100, 50, 20)
no_stdout = False
optimizer = adam
out_dir = out
out_filename = out/MLP_nd9_nw-100-200-200-100-100-50-20_bias/out
out_infix = 
print_step = 5
save_step = 10
seed = 11319764
tolerance = 1e-05

init_time = 0.000
Training...
MLP(
  (net): Sequential(
    (0): Linear(in_features=68, out_features=100, bias=True)
    (1): GELU()
    (2): Linear(in_features=100, out_features=200, bias=True)
    (3): GELU()
    (4): Linear(in_features=200, out_features=200, bias=True)
    (5): GELU()
    (6): Linear(in_features=200, out_features=100, bias=True)
    (7): GELU()
    (8): Linear(in_features=100, out_features=100, bias=True)
    (9): GELU()
    (10): Linear(in_features=100, out_features=50, bias=True)
    (11): GELU()
    (12): Linear(in_features=50, out_features=20, bias=True)
    (13): GELU()
    (14): Linear(in_features=20, out_features=1, bias=True)
  )
)

Total number of trainable parameters: 103591

Checkpoint found: 1000

batch_size = 300
bias = True
clear_checkpoint = False
clip_grad = 0
cuda = -1
device = cpu
dtype = float64
lr = 0.0005
max_step = 1000
n_in = 68
n_out = 1
net_depth = 9
net_width = (100, 200, 200, 100, 100, 50, 20)
no_stdout = False
optimizer = adam
out_dir = out
out_filename = out/MLP_nd9_nw-100-200-200-100-100-50-20_bias/out
out_infix = 
print_step = 5
save_step = 10
seed = 6649905
tolerance = 1e-05

init_time = 0.000
Training...
MLP(
  (net): Sequential(
    (0): Linear(in_features=68, out_features=100, bias=True)
    (1): GELU()
    (2): Linear(in_features=100, out_features=200, bias=True)
    (3): GELU()
    (4): Linear(in_features=200, out_features=200, bias=True)
    (5): GELU()
    (6): Linear(in_features=200, out_features=100, bias=True)
    (7): GELU()
    (8): Linear(in_features=100, out_features=100, bias=True)
    (9): GELU()
    (10): Linear(in_features=100, out_features=50, bias=True)
    (11): GELU()
    (12): Linear(in_features=50, out_features=20, bias=True)
    (13): GELU()
    (14): Linear(in_features=20, out_features=1, bias=True)
  )
)

Total number of trainable parameters: 103591

Checkpoint found: 1000

batch_size = 300
bias = True
clear_checkpoint = False
clip_grad = 0
cuda = -1
device = cpu
dtype = float64
lr = 0.0005
max_step = 1000
n_in = 68
n_out = 1
net_depth = 9
net_width = (100, 200, 200, 100, 100, 50, 20)
no_stdout = False
optimizer = adam
out_dir = out
out_filename = out/MLP_nd9_nw-100-200-200-100-100-50-20_bias/out
out_infix = 
print_step = 5
save_step = 10
seed = 50044318
tolerance = 1e-05

init_time = 0.000
Training...
MLP(
  (net): Sequential(
    (0): Linear(in_features=68, out_features=100, bias=True)
    (1): GELU()
    (2): Linear(in_features=100, out_features=200, bias=True)
    (3): GELU()
    (4): Linear(in_features=200, out_features=200, bias=True)
    (5): GELU()
    (6): Linear(in_features=200, out_features=100, bias=True)
    (7): GELU()
    (8): Linear(in_features=100, out_features=100, bias=True)
    (9): GELU()
    (10): Linear(in_features=100, out_features=50, bias=True)
    (11): GELU()
    (12): Linear(in_features=50, out_features=20, bias=True)
    (13): GELU()
    (14): Linear(in_features=20, out_features=1, bias=True)
  )
)

Total number of trainable parameters: 103591

Checkpoint found: 1000

batch_size = 300
bias = True
clear_checkpoint = False
clip_grad = 0
cuda = -1
device = cpu
dtype = float64
lr = 0.0005
max_step = 1000
n_in = 68
n_out = 1
net_depth = 9
net_width = (100, 200, 200, 100, 100, 50, 20)
no_stdout = False
optimizer = adam
out_dir = out
out_filename = out/MLP_nd9_nw-100-200-200-100-100-50-20_bias/out
out_infix = 
print_step = 5
save_step = 10
seed = 24112749
tolerance = 1e-05

init_time = 0.000
Training...
MLP(
  (net): Sequential(
    (0): Linear(in_features=68, out_features=100, bias=True)
    (1): GELU()
    (2): Linear(in_features=100, out_features=200, bias=True)
    (3): GELU()
    (4): Linear(in_features=200, out_features=200, bias=True)
    (5): GELU()
    (6): Linear(in_features=200, out_features=100, bias=True)
    (7): GELU()
    (8): Linear(in_features=100, out_features=100, bias=True)
    (9): GELU()
    (10): Linear(in_features=100, out_features=50, bias=True)
    (11): GELU()
    (12): Linear(in_features=50, out_features=20, bias=True)
    (13): GELU()
    (14): Linear(in_features=20, out_features=1, bias=True)
  )
)

Total number of trainable parameters: 103591

Checkpoint found: 1000

batch_size = 300
bias = True
clear_checkpoint = False
clip_grad = 0
cuda = -1
device = cpu
dtype = float64
lr = 0.0005
max_step = 1000
n_in = 68
n_out = 1
net_depth = 9
net_width = (100, 200, 200, 100, 100, 50, 20)
no_stdout = False
optimizer = adam
out_dir = out
out_filename = out/MLP_nd9_nw-100-200-200-100-100-50-20_bias/out
out_infix = 
print_step = 5
save_step = 10
seed = 68337395
tolerance = 1e-05

init_time = 0.000
Training...
MLP(
  (net): Sequential(
    (0): Linear(in_features=68, out_features=100, bias=True)
    (1): GELU()
    (2): Linear(in_features=100, out_features=200, bias=True)
    (3): GELU()
    (4): Linear(in_features=200, out_features=200, bias=True)
    (5): GELU()
    (6): Linear(in_features=200, out_features=100, bias=True)
    (7): GELU()
    (8): Linear(in_features=100, out_features=100, bias=True)
    (9): GELU()
    (10): Linear(in_features=100, out_features=50, bias=True)
    (11): GELU()
    (12): Linear(in_features=50, out_features=20, bias=True)
    (13): GELU()
    (14): Linear(in_features=20, out_features=1, bias=True)
  )
)

Total number of trainable parameters: 103591

Checkpoint found: 1000

batch_size = 300
bias = True
clear_checkpoint = False
clip_grad = 0
cuda = -1
device = cpu
dtype = float64
lr = 0.0005
max_step = 1000
n_in = 68
n_out = 1
net_depth = 9
net_width = (100, 200, 200, 100, 100, 50, 20)
no_stdout = False
optimizer = adam
out_dir = out
out_filename = out/MLP_nd9_nw-100-200-200-100-100-50-20_bias/out
out_infix = 
print_step = 5
save_step = 10
seed = 38152252
tolerance = 1e-05

init_time = 0.000
Training...
MLP(
  (net): Sequential(
    (0): Linear(in_features=68, out_features=100, bias=True)
    (1): GELU()
    (2): Linear(in_features=100, out_features=200, bias=True)
    (3): GELU()
    (4): Linear(in_features=200, out_features=200, bias=True)
    (5): GELU()
    (6): Linear(in_features=200, out_features=100, bias=True)
    (7): GELU()
    (8): Linear(in_features=100, out_features=100, bias=True)
    (9): GELU()
    (10): Linear(in_features=100, out_features=50, bias=True)
    (11): GELU()
    (12): Linear(in_features=50, out_features=20, bias=True)
    (13): GELU()
    (14): Linear(in_features=20, out_features=1, bias=True)
  )
)

Total number of trainable parameters: 103591

Checkpoint found: 1000

batch_size = 300
bias = True
clear_checkpoint = False
clip_grad = 0
cuda = -1
device = cpu
dtype = float64
lr = 0.0005
max_step = 1000
n_in = 68
n_out = 1
net_depth = 9
net_width = (100, 200, 200, 100, 100, 50, 20)
no_stdout = False
optimizer = adam
out_dir = out
out_filename = out/MLP_nd9_nw-100-200-200-100-100-50-20_bias/out
out_infix = 
print_step = 5
save_step = 10
seed = 90577733
tolerance = 1e-05

init_time = 0.000
Training...
MLP(
  (net): Sequential(
    (0): Linear(in_features=68, out_features=100, bias=True)
    (1): GELU()
    (2): Linear(in_features=100, out_features=200, bias=True)
    (3): GELU()
    (4): Linear(in_features=200, out_features=200, bias=True)
    (5): GELU()
    (6): Linear(in_features=200, out_features=100, bias=True)
    (7): GELU()
    (8): Linear(in_features=100, out_features=100, bias=True)
    (9): GELU()
    (10): Linear(in_features=100, out_features=50, bias=True)
    (11): GELU()
    (12): Linear(in_features=50, out_features=20, bias=True)
    (13): GELU()
    (14): Linear(in_features=20, out_features=1, bias=True)
  )
)

Total number of trainable parameters: 103591

Checkpoint found: 1000

batch_size = 300
bias = True
clear_checkpoint = False
clip_grad = 0
cuda = -1
device = cpu
dtype = float64
lr = 0.0005
max_step = 1000
n_in = 68
n_out = 1
net_depth = 9
net_width = (100, 200, 200, 100, 100, 50, 20)
no_stdout = False
optimizer = adam
out_dir = out
out_filename = out/MLP_nd9_nw-100-200-200-100-100-50-20_bias/out
out_infix = 
print_step = 5
save_step = 10
seed = 73319727
tolerance = 1e-05

init_time = 0.000
Training...
MLP(
  (net): Sequential(
    (0): Linear(in_features=68, out_features=100, bias=True)
    (1): GELU()
    (2): Linear(in_features=100, out_features=200, bias=True)
    (3): GELU()
    (4): Linear(in_features=200, out_features=200, bias=True)
    (5): GELU()
    (6): Linear(in_features=200, out_features=100, bias=True)
    (7): GELU()
    (8): Linear(in_features=100, out_features=100, bias=True)
    (9): GELU()
    (10): Linear(in_features=100, out_features=50, bias=True)
    (11): GELU()
    (12): Linear(in_features=50, out_features=20, bias=True)
    (13): GELU()
    (14): Linear(in_features=20, out_features=1, bias=True)
  )
)

Total number of trainable parameters: 103591

Checkpoint found: 1000

batch_size = 300
bias = True
clear_checkpoint = False
clip_grad = 0
cuda = -1
device = cpu
dtype = float64
lr = 0.0005
max_step = 1000
n_in = 68
n_out = 1
net_depth = 9
net_width = (100, 200, 200, 100, 100, 50, 20)
no_stdout = False
optimizer = adam
out_dir = out
out_filename = out/MLP_nd9_nw-100-200-200-100-100-50-20_bias/out
out_infix = 
print_step = 5
save_step = 10
seed = 47798595
tolerance = 1e-05

init_time = 0.000
Training...
MLP(
  (net): Sequential(
    (0): Linear(in_features=68, out_features=100, bias=True)
    (1): GELU()
    (2): Linear(in_features=100, out_features=200, bias=True)
    (3): GELU()
    (4): Linear(in_features=200, out_features=200, bias=True)
    (5): GELU()
    (6): Linear(in_features=200, out_features=100, bias=True)
    (7): GELU()
    (8): Linear(in_features=100, out_features=100, bias=True)
    (9): GELU()
    (10): Linear(in_features=100, out_features=50, bias=True)
    (11): GELU()
    (12): Linear(in_features=50, out_features=20, bias=True)
    (13): GELU()
    (14): Linear(in_features=20, out_features=1, bias=True)
  )
)

Total number of trainable parameters: 103591

Checkpoint found: 1000

batch_size = 300
bias = True
clear_checkpoint = False
clip_grad = 0
cuda = -1
device = cpu
dtype = float64
lr = 0.0005
max_step = 1000
n_in = 68
n_out = 1
net_depth = 9
net_width = (100, 200, 200, 100, 100, 50, 20)
no_stdout = False
optimizer = adam
out_dir = out
out_filename = out/MLP_nd9_nw-100-200-200-100-100-50-20_bias/out
out_infix = 
print_step = 5
save_step = 10
seed = 30898915
tolerance = 1e-05

init_time = 0.000
Training...
MLP(
  (net): Sequential(
    (0): Linear(in_features=68, out_features=100, bias=True)
    (1): GELU()
    (2): Linear(in_features=100, out_features=200, bias=True)
    (3): GELU()
    (4): Linear(in_features=200, out_features=200, bias=True)
    (5): GELU()
    (6): Linear(in_features=200, out_features=100, bias=True)
    (7): GELU()
    (8): Linear(in_features=100, out_features=100, bias=True)
    (9): GELU()
    (10): Linear(in_features=100, out_features=50, bias=True)
    (11): GELU()
    (12): Linear(in_features=50, out_features=20, bias=True)
    (13): GELU()
    (14): Linear(in_features=20, out_features=1, bias=True)
  )
)

Total number of trainable parameters: 103591

Checkpoint found: 1000

batch_size = 300
bias = True
clear_checkpoint = False
clip_grad = 0
cuda = -1
device = cpu
dtype = float64
lr = 0.0005
max_step = 1000
n_in = 68
n_out = 1
net_depth = 9
net_width = (100, 200, 200, 100, 100, 50, 20)
no_stdout = False
optimizer = adam
out_dir = out
out_filename = out/MLP_nd9_nw-100-200-200-100-100-50-20_bias/out
out_infix = 
print_step = 5
save_step = 10
seed = 33416887
tolerance = 1e-05

init_time = 0.000
Training...
MLP(
  (net): Sequential(
    (0): Linear(in_features=68, out_features=100, bias=True)
    (1): GELU()
    (2): Linear(in_features=100, out_features=200, bias=True)
    (3): GELU()
    (4): Linear(in_features=200, out_features=200, bias=True)
    (5): GELU()
    (6): Linear(in_features=200, out_features=100, bias=True)
    (7): GELU()
    (8): Linear(in_features=100, out_features=100, bias=True)
    (9): GELU()
    (10): Linear(in_features=100, out_features=50, bias=True)
    (11): GELU()
    (12): Linear(in_features=50, out_features=20, bias=True)
    (13): GELU()
    (14): Linear(in_features=20, out_features=1, bias=True)
  )
)

Total number of trainable parameters: 103591

Checkpoint found: 1000

batch_size = 300
bias = True
clear_checkpoint = False
clip_grad = 0
cuda = -1
device = cpu
dtype = float64
lr = 0.0005
max_step = 1000
n_in = 68
n_out = 1
net_depth = 9
net_width = (100, 200, 200, 100, 100, 50, 20)
no_stdout = False
optimizer = adam
out_dir = out
out_filename = out/MLP_nd9_nw-100-200-200-100-100-50-20_bias/out
out_infix = 
print_step = 5
save_step = 10
seed = 8255219
tolerance = 1e-05

init_time = 0.000
Training...
MLP(
  (net): Sequential(
    (0): Linear(in_features=68, out_features=100, bias=True)
    (1): GELU()
    (2): Linear(in_features=100, out_features=200, bias=True)
    (3): GELU()
    (4): Linear(in_features=200, out_features=200, bias=True)
    (5): GELU()
    (6): Linear(in_features=200, out_features=100, bias=True)
    (7): GELU()
    (8): Linear(in_features=100, out_features=100, bias=True)
    (9): GELU()
    (10): Linear(in_features=100, out_features=50, bias=True)
    (11): GELU()
    (12): Linear(in_features=50, out_features=20, bias=True)
    (13): GELU()
    (14): Linear(in_features=20, out_features=1, bias=True)
  )
)

Total number of trainable parameters: 103591

Checkpoint found: 1000

batch_size = 300
bias = True
clear_checkpoint = False
clip_grad = 0
cuda = -1
device = cpu
dtype = float64
lr = 0.0005
max_step = 1000
n_in = 68
n_out = 1
net_depth = 9
net_width = (100, 200, 200, 100, 100, 50, 20)
no_stdout = False
optimizer = adam
out_dir = out
out_filename = out/MLP_nd9_nw-100-200-200-100-100-50-20_bias/out
out_infix = 
print_step = 5
save_step = 10
seed = 7117089
tolerance = 1e-05

init_time = 0.000
Training...
MLP(
  (net): Sequential(
    (0): Linear(in_features=68, out_features=100, bias=True)
    (1): GELU()
    (2): Linear(in_features=100, out_features=200, bias=True)
    (3): GELU()
    (4): Linear(in_features=200, out_features=200, bias=True)
    (5): GELU()
    (6): Linear(in_features=200, out_features=100, bias=True)
    (7): GELU()
    (8): Linear(in_features=100, out_features=100, bias=True)
    (9): GELU()
    (10): Linear(in_features=100, out_features=50, bias=True)
    (11): GELU()
    (12): Linear(in_features=50, out_features=20, bias=True)
    (13): GELU()
    (14): Linear(in_features=20, out_features=1, bias=True)
  )
)

Total number of trainable parameters: 103591

Checkpoint found: 1000

batch_size = 300
bias = True
clear_checkpoint = False
clip_grad = 0
cuda = -1
device = cpu
dtype = float64
lr = 0.0005
max_step = 1000
n_in = 68
n_out = 1
net_depth = 9
net_width = (100, 200, 200, 100, 100, 50, 20)
no_stdout = False
optimizer = adam
out_dir = out
out_filename = out/MLP_nd9_nw-100-200-200-100-100-50-20_bias/out
out_infix = 
print_step = 5
save_step = 10
seed = 31547718
tolerance = 1e-05

init_time = 0.000
Training...
MLP(
  (net): Sequential(
    (0): Linear(in_features=68, out_features=100, bias=True)
    (1): GELU()
    (2): Linear(in_features=100, out_features=200, bias=True)
    (3): GELU()
    (4): Linear(in_features=200, out_features=200, bias=True)
    (5): GELU()
    (6): Linear(in_features=200, out_features=100, bias=True)
    (7): GELU()
    (8): Linear(in_features=100, out_features=100, bias=True)
    (9): GELU()
    (10): Linear(in_features=100, out_features=50, bias=True)
    (11): GELU()
    (12): Linear(in_features=50, out_features=20, bias=True)
    (13): GELU()
    (14): Linear(in_features=20, out_features=1, bias=True)
  )
)

Total number of trainable parameters: 103591

Checkpoint found: 1000

batch_size = 300
bias = True
clear_checkpoint = False
clip_grad = 0
cuda = -1
device = cpu
dtype = float64
lr = 0.0005
max_step = 1000
n_in = 68
n_out = 1
net_depth = 9
net_width = (100, 200, 200, 100, 100, 50, 20)
no_stdout = False
optimizer = adam
out_dir = out
out_filename = out/MLP_nd9_nw-100-200-200-100-100-50-20_bias/out
out_infix = 
print_step = 5
save_step = 10
seed = 33597843
tolerance = 1e-05

init_time = 0.000
Training...
MLP(
  (net): Sequential(
    (0): Linear(in_features=68, out_features=100, bias=True)
    (1): GELU()
    (2): Linear(in_features=100, out_features=200, bias=True)
    (3): GELU()
    (4): Linear(in_features=200, out_features=200, bias=True)
    (5): GELU()
    (6): Linear(in_features=200, out_features=100, bias=True)
    (7): GELU()
    (8): Linear(in_features=100, out_features=100, bias=True)
    (9): GELU()
    (10): Linear(in_features=100, out_features=50, bias=True)
    (11): GELU()
    (12): Linear(in_features=50, out_features=20, bias=True)
    (13): GELU()
    (14): Linear(in_features=20, out_features=1, bias=True)
  )
)

Total number of trainable parameters: 103591

Checkpoint found: 1000

batch_size = 300
bias = True
clear_checkpoint = False
clip_grad = 0
cuda = -1
device = cpu
dtype = float64
lr = 0.0005
max_step = 1000
n_in = 68
n_out = 1
net_depth = 9
net_width = (100, 200, 200, 100, 100, 50, 20)
no_stdout = False
optimizer = adam
out_dir = out
out_filename = out/MLP_nd9_nw-100-200-200-100-100-50-20_bias/out
out_infix = 
print_step = 5
save_step = 10
seed = 84132771
tolerance = 1e-05

init_time = 0.000
Training...
MLP(
  (net): Sequential(
    (0): Linear(in_features=68, out_features=100, bias=True)
    (1): GELU()
    (2): Linear(in_features=100, out_features=200, bias=True)
    (3): GELU()
    (4): Linear(in_features=200, out_features=200, bias=True)
    (5): GELU()
    (6): Linear(in_features=200, out_features=100, bias=True)
    (7): GELU()
    (8): Linear(in_features=100, out_features=100, bias=True)
    (9): GELU()
    (10): Linear(in_features=100, out_features=50, bias=True)
    (11): GELU()
    (12): Linear(in_features=50, out_features=20, bias=True)
    (13): GELU()
    (14): Linear(in_features=20, out_features=1, bias=True)
  )
)

Total number of trainable parameters: 103591

Checkpoint found: 1000

batch_size = 300
bias = True
clear_checkpoint = False
clip_grad = 0
cuda = -1
device = cpu
dtype = float64
lr = 0.0005
max_step = 1000
n_in = 68
n_out = 1
net_depth = 9
net_width = (100, 200, 200, 100, 100, 50, 20)
no_stdout = False
optimizer = adam
out_dir = out
out_filename = out/MLP_nd9_nw-100-200-200-100-100-50-20_bias/out
out_infix = 
print_step = 5
save_step = 10
seed = 62661100
tolerance = 1e-05

init_time = 0.000
Training...
MLP(
  (net): Sequential(
    (0): Linear(in_features=68, out_features=100, bias=True)
    (1): GELU()
    (2): Linear(in_features=100, out_features=200, bias=True)
    (3): GELU()
    (4): Linear(in_features=200, out_features=200, bias=True)
    (5): GELU()
    (6): Linear(in_features=200, out_features=100, bias=True)
    (7): GELU()
    (8): Linear(in_features=100, out_features=100, bias=True)
    (9): GELU()
    (10): Linear(in_features=100, out_features=50, bias=True)
    (11): GELU()
    (12): Linear(in_features=50, out_features=20, bias=True)
    (13): GELU()
    (14): Linear(in_features=20, out_features=1, bias=True)
  )
)

Total number of trainable parameters: 103591

Checkpoint found: 1000

batch_size = 300
bias = True
clear_checkpoint = False
clip_grad = 0
cuda = -1
device = cpu
dtype = float64
lr = 0.0005
max_step = 1000
n_in = 68
n_out = 1
net_depth = 9
net_width = (100, 200, 200, 100, 100, 50, 20)
no_stdout = False
optimizer = adam
out_dir = out
out_filename = out/MLP_nd9_nw-100-200-200-100-100-50-20_bias/out
out_infix = 
print_step = 5
save_step = 10
seed = 15568316
tolerance = 1e-05

init_time = 0.000
Training...
MLP(
  (net): Sequential(
    (0): Linear(in_features=68, out_features=100, bias=True)
    (1): GELU()
    (2): Linear(in_features=100, out_features=200, bias=True)
    (3): GELU()
    (4): Linear(in_features=200, out_features=200, bias=True)
    (5): GELU()
    (6): Linear(in_features=200, out_features=100, bias=True)
    (7): GELU()
    (8): Linear(in_features=100, out_features=100, bias=True)
    (9): GELU()
    (10): Linear(in_features=100, out_features=50, bias=True)
    (11): GELU()
    (12): Linear(in_features=50, out_features=20, bias=True)
    (13): GELU()
    (14): Linear(in_features=20, out_features=1, bias=True)
  )
)

Total number of trainable parameters: 103591

Checkpoint found: 1000

batch_size = 300
bias = True
clear_checkpoint = False
clip_grad = 0
cuda = -1
device = cpu
dtype = float64
lr = 0.0005
max_step = 1000
n_in = 68
n_out = 1
net_depth = 9
net_width = (100, 200, 200, 100, 100, 50, 20)
no_stdout = False
optimizer = adam
out_dir = out
out_filename = out/MLP_nd9_nw-100-200-200-100-100-50-20_bias/out
out_infix = 
print_step = 5
save_step = 10
seed = 18597304
tolerance = 1e-05

init_time = 0.000
Training...
MLP(
  (net): Sequential(
    (0): Linear(in_features=68, out_features=100, bias=True)
    (1): GELU()
    (2): Linear(in_features=100, out_features=200, bias=True)
    (3): GELU()
    (4): Linear(in_features=200, out_features=200, bias=True)
    (5): GELU()
    (6): Linear(in_features=200, out_features=100, bias=True)
    (7): GELU()
    (8): Linear(in_features=100, out_features=100, bias=True)
    (9): GELU()
    (10): Linear(in_features=100, out_features=50, bias=True)
    (11): GELU()
    (12): Linear(in_features=50, out_features=20, bias=True)
    (13): GELU()
    (14): Linear(in_features=20, out_features=1, bias=True)
  )
)

Total number of trainable parameters: 103591

Checkpoint found: 1000

batch_size = 300
bias = True
clear_checkpoint = False
clip_grad = 0
cuda = -1
device = cpu
dtype = float64
lr = 0.0005
max_step = 1000
n_in = 68
n_out = 1
net_depth = 9
net_width = (100, 200, 200, 100, 100, 50, 20)
no_stdout = False
optimizer = adam
out_dir = out
out_filename = out/MLP_nd9_nw-100-200-200-100-100-50-20_bias/out
out_infix = 
print_step = 5
save_step = 10
seed = 97318902
tolerance = 1e-05

init_time = 0.000
Training...
MLP(
  (net): Sequential(
    (0): Linear(in_features=68, out_features=100, bias=True)
    (1): GELU()
    (2): Linear(in_features=100, out_features=200, bias=True)
    (3): GELU()
    (4): Linear(in_features=200, out_features=200, bias=True)
    (5): GELU()
    (6): Linear(in_features=200, out_features=100, bias=True)
    (7): GELU()
    (8): Linear(in_features=100, out_features=100, bias=True)
    (9): GELU()
    (10): Linear(in_features=100, out_features=50, bias=True)
    (11): GELU()
    (12): Linear(in_features=50, out_features=20, bias=True)
    (13): GELU()
    (14): Linear(in_features=20, out_features=1, bias=True)
  )
)

Total number of trainable parameters: 103591

Checkpoint found: 1000

batch_size = 300
bias = True
clear_checkpoint = False
clip_grad = 0
cuda = -1
device = cpu
dtype = float64
lr = 0.0005
max_step = 1000
n_in = 68
n_out = 1
net_depth = 9
net_width = (100, 200, 200, 100, 100, 50, 20)
no_stdout = False
optimizer = adam
out_dir = out
out_filename = out/MLP_nd9_nw-100-200-200-100-100-50-20_bias/out
out_infix = 
print_step = 5
save_step = 10
seed = 23623527
tolerance = 1e-05

init_time = 0.000
Training...
MLP(
  (net): Sequential(
    (0): Linear(in_features=68, out_features=100, bias=True)
    (1): GELU()
    (2): Linear(in_features=100, out_features=200, bias=True)
    (3): GELU()
    (4): Linear(in_features=200, out_features=200, bias=True)
    (5): GELU()
    (6): Linear(in_features=200, out_features=100, bias=True)
    (7): GELU()
    (8): Linear(in_features=100, out_features=100, bias=True)
    (9): GELU()
    (10): Linear(in_features=100, out_features=50, bias=True)
    (11): GELU()
    (12): Linear(in_features=50, out_features=20, bias=True)
    (13): GELU()
    (14): Linear(in_features=20, out_features=1, bias=True)
  )
)

Total number of trainable parameters: 103591

Checkpoint found: 1000

batch_size = 300
bias = True
clear_checkpoint = False
clip_grad = 0
cuda = -1
device = cpu
dtype = float64
lr = 0.0005
max_step = 1000
n_in = 68
n_out = 1
net_depth = 9
net_width = (100, 200, 200, 100, 100, 50, 20)
no_stdout = False
optimizer = adam
out_dir = out
out_filename = out/MLP_nd9_nw-100-200-200-100-100-50-20_bias/out
out_infix = 
print_step = 5
save_step = 10
seed = 22445679
tolerance = 1e-05

init_time = 0.000
Training...
MLP(
  (net): Sequential(
    (0): Linear(in_features=68, out_features=100, bias=True)
    (1): GELU()
    (2): Linear(in_features=100, out_features=200, bias=True)
    (3): GELU()
    (4): Linear(in_features=200, out_features=200, bias=True)
    (5): GELU()
    (6): Linear(in_features=200, out_features=100, bias=True)
    (7): GELU()
    (8): Linear(in_features=100, out_features=100, bias=True)
    (9): GELU()
    (10): Linear(in_features=100, out_features=50, bias=True)
    (11): GELU()
    (12): Linear(in_features=50, out_features=20, bias=True)
    (13): GELU()
    (14): Linear(in_features=20, out_features=1, bias=True)
  )
)

Total number of trainable parameters: 103591

Checkpoint found: 1000

batch_size = 300
bias = True
clear_checkpoint = False
clip_grad = 0
cuda = -1
device = cpu
dtype = float64
lr = 0.0005
max_step = 1000
n_in = 68
n_out = 1
net_depth = 9
net_width = (100, 200, 200, 100, 100, 50, 20)
no_stdout = False
optimizer = adam
out_dir = out
out_filename = out/MLP_nd9_nw-100-200-200-100-100-50-20_bias/out
out_infix = 
print_step = 5
save_step = 10
seed = 44490297
tolerance = 1e-05

init_time = 0.000
Training...
MLP(
  (net): Sequential(
    (0): Linear(in_features=68, out_features=100, bias=True)
    (1): GELU()
    (2): Linear(in_features=100, out_features=200, bias=True)
    (3): GELU()
    (4): Linear(in_features=200, out_features=200, bias=True)
    (5): GELU()
    (6): Linear(in_features=200, out_features=100, bias=True)
    (7): GELU()
    (8): Linear(in_features=100, out_features=100, bias=True)
    (9): GELU()
    (10): Linear(in_features=100, out_features=50, bias=True)
    (11): GELU()
    (12): Linear(in_features=50, out_features=20, bias=True)
    (13): GELU()
    (14): Linear(in_features=20, out_features=1, bias=True)
  )
)

Total number of trainable parameters: 103591

Checkpoint found: 1000

batch_size = 300
bias = True
clear_checkpoint = False
clip_grad = 0
cuda = -1
device = cpu
dtype = float64
lr = 0.0005
max_step = 1000
n_in = 68
n_out = 1
net_depth = 9
net_width = (100, 200, 200, 100, 100, 50, 20)
no_stdout = False
optimizer = adam
out_dir = out
out_filename = out/MLP_nd9_nw-100-200-200-100-100-50-20_bias/out
out_infix = 
print_step = 5
save_step = 10
seed = 87768008
tolerance = 1e-05

init_time = 0.000
Training...
MLP(
  (net): Sequential(
    (0): Linear(in_features=68, out_features=100, bias=True)
    (1): GELU()
    (2): Linear(in_features=100, out_features=200, bias=True)
    (3): GELU()
    (4): Linear(in_features=200, out_features=200, bias=True)
    (5): GELU()
    (6): Linear(in_features=200, out_features=100, bias=True)
    (7): GELU()
    (8): Linear(in_features=100, out_features=100, bias=True)
    (9): GELU()
    (10): Linear(in_features=100, out_features=50, bias=True)
    (11): GELU()
    (12): Linear(in_features=50, out_features=20, bias=True)
    (13): GELU()
    (14): Linear(in_features=20, out_features=1, bias=True)
  )
)

Total number of trainable parameters: 103591

Checkpoint found: 1000

batch_size = 300
bias = True
clear_checkpoint = False
clip_grad = 0
cuda = -1
device = cpu
dtype = float64
lr = 0.0005
max_step = 1000
n_in = 68
n_out = 1
net_depth = 9
net_width = (100, 200, 200, 100, 100, 50, 20)
no_stdout = False
optimizer = adam
out_dir = out
out_filename = out/MLP_nd9_nw-100-200-200-100-100-50-20_bias/out
out_infix = 
print_step = 5
save_step = 10
seed = 23539088
tolerance = 1e-05

init_time = 0.000
Training...
MLP(
  (net): Sequential(
    (0): Linear(in_features=68, out_features=100, bias=True)
    (1): GELU()
    (2): Linear(in_features=100, out_features=200, bias=True)
    (3): GELU()
    (4): Linear(in_features=200, out_features=200, bias=True)
    (5): GELU()
    (6): Linear(in_features=200, out_features=100, bias=True)
    (7): GELU()
    (8): Linear(in_features=100, out_features=100, bias=True)
    (9): GELU()
    (10): Linear(in_features=100, out_features=50, bias=True)
    (11): GELU()
    (12): Linear(in_features=50, out_features=20, bias=True)
    (13): GELU()
    (14): Linear(in_features=20, out_features=1, bias=True)
  )
)

Total number of trainable parameters: 103591

Checkpoint found: 1000

batch_size = 300
bias = True
clear_checkpoint = False
clip_grad = 0
cuda = -1
device = cpu
dtype = float64
lr = 0.0005
max_step = 1000
n_in = 68
n_out = 1
net_depth = 9
net_width = (100, 200, 200, 100, 100, 50, 20)
no_stdout = False
optimizer = adam
out_dir = out
out_filename = out/MLP_nd9_nw-100-200-200-100-100-50-20_bias/out
out_infix = 
print_step = 5
save_step = 10
seed = 660668
tolerance = 1e-05

init_time = 0.000
Training...
MLP(
  (net): Sequential(
    (0): Linear(in_features=68, out_features=100, bias=True)
    (1): GELU()
    (2): Linear(in_features=100, out_features=200, bias=True)
    (3): GELU()
    (4): Linear(in_features=200, out_features=200, bias=True)
    (5): GELU()
    (6): Linear(in_features=200, out_features=100, bias=True)
    (7): GELU()
    (8): Linear(in_features=100, out_features=100, bias=True)
    (9): GELU()
    (10): Linear(in_features=100, out_features=50, bias=True)
    (11): GELU()
    (12): Linear(in_features=50, out_features=20, bias=True)
    (13): GELU()
    (14): Linear(in_features=20, out_features=1, bias=True)
  )
)

Total number of trainable parameters: 103591

Checkpoint found: 1000

batch_size = 300
bias = True
clear_checkpoint = False
clip_grad = 0
cuda = -1
device = cpu
dtype = float64
lr = 0.0005
max_step = 1000
n_in = 68
n_out = 1
net_depth = 9
net_width = (100, 200, 200, 100, 100, 50, 20)
no_stdout = False
optimizer = adam
out_dir = out
out_filename = out/MLP_nd9_nw-100-200-200-100-100-50-20_bias/out
out_infix = 
print_step = 5
save_step = 10
seed = 77919030
tolerance = 1e-05

init_time = 0.000
Training...
MLP(
  (net): Sequential(
    (0): Linear(in_features=68, out_features=100, bias=True)
    (1): GELU()
    (2): Linear(in_features=100, out_features=200, bias=True)
    (3): GELU()
    (4): Linear(in_features=200, out_features=200, bias=True)
    (5): GELU()
    (6): Linear(in_features=200, out_features=100, bias=True)
    (7): GELU()
    (8): Linear(in_features=100, out_features=100, bias=True)
    (9): GELU()
    (10): Linear(in_features=100, out_features=50, bias=True)
    (11): GELU()
    (12): Linear(in_features=50, out_features=20, bias=True)
    (13): GELU()
    (14): Linear(in_features=20, out_features=1, bias=True)
  )
)

Total number of trainable parameters: 103591

Checkpoint found: 1000

batch_size = 300
bias = True
clear_checkpoint = False
clip_grad = 0
cuda = -1
device = cpu
dtype = float64
lr = 0.0005
max_step = 1000
n_in = 68
n_out = 1
net_depth = 9
net_width = (100, 200, 200, 100, 100, 50, 20)
no_stdout = False
optimizer = adam
out_dir = out
out_filename = out/MLP_nd9_nw-100-200-200-100-100-50-20_bias/out
out_infix = 
print_step = 5
save_step = 10
seed = 15645119
tolerance = 1e-05

init_time = 0.000
Training...
MLP(
  (net): Sequential(
    (0): Linear(in_features=68, out_features=100, bias=True)
    (1): GELU()
    (2): Linear(in_features=100, out_features=200, bias=True)
    (3): GELU()
    (4): Linear(in_features=200, out_features=200, bias=True)
    (5): GELU()
    (6): Linear(in_features=200, out_features=100, bias=True)
    (7): GELU()
    (8): Linear(in_features=100, out_features=100, bias=True)
    (9): GELU()
    (10): Linear(in_features=100, out_features=50, bias=True)
    (11): GELU()
    (12): Linear(in_features=50, out_features=20, bias=True)
    (13): GELU()
    (14): Linear(in_features=20, out_features=1, bias=True)
  )
)

Total number of trainable parameters: 103591

Checkpoint found: 1000

batch_size = 300
bias = True
clear_checkpoint = False
clip_grad = 0
cuda = -1
device = cpu
dtype = float64
lr = 0.0005
max_step = 1000
n_in = 68
n_out = 1
net_depth = 9
net_width = (100, 200, 200, 100, 100, 50, 20)
no_stdout = False
optimizer = adam
out_dir = out
out_filename = out/MLP_nd9_nw-100-200-200-100-100-50-20_bias/out
out_infix = 
print_step = 5
save_step = 10
seed = 26232257
tolerance = 1e-05

init_time = 0.000
Training...
MLP(
  (net): Sequential(
    (0): Linear(in_features=68, out_features=100, bias=True)
    (1): GELU()
    (2): Linear(in_features=100, out_features=200, bias=True)
    (3): GELU()
    (4): Linear(in_features=200, out_features=200, bias=True)
    (5): GELU()
    (6): Linear(in_features=200, out_features=100, bias=True)
    (7): GELU()
    (8): Linear(in_features=100, out_features=100, bias=True)
    (9): GELU()
    (10): Linear(in_features=100, out_features=50, bias=True)
    (11): GELU()
    (12): Linear(in_features=50, out_features=20, bias=True)
    (13): GELU()
    (14): Linear(in_features=20, out_features=1, bias=True)
  )
)

Total number of trainable parameters: 103591

Checkpoint found: 1000

batch_size = 300
bias = True
clear_checkpoint = False
clip_grad = 0
cuda = -1
device = cpu
dtype = float64
lr = 0.0005
max_step = 1000
n_in = 68
n_out = 1
net_depth = 9
net_width = (100, 200, 200, 100, 100, 50, 20)
no_stdout = False
optimizer = adam
out_dir = out
out_filename = out/MLP_nd9_nw-100-200-200-100-100-50-20_bias/out
…
