…
step = 980, loss = 0.21024759, r2_train = 0.044992065, r2_test = 0.045163658, train_time = 14.036, used_time = 15333.236
step = 985, loss = 0.21275846, r2_train = 0.034055753, r2_test = 0.034545586, train_time = 14.696, used_time = 15406.907
step = 990, loss = 0.20763303, r2_train = 0.037093469, r2_test = 0.038106101, train_time = 15.644, used_time = 15485.285
step = 995, loss = 0.20985521, r2_train = 0.035522422, r2_test = 0.035813816, train_time = 14.444, used_time = 15557.694
step = 1000, loss = 0.20717796, r2_train = 0.032552714, r2_test = 0.033220697, train_time = 17.907, used_time = 15647.391
MLP(
  (net): Sequential(
    (0): Linear(in_features=68, out_features=100, bias=True)
    (1): GELU()
    (2): Linear(in_features=100, out_features=200, bias=True)
    (3): GELU()
    (4): Linear(in_features=200, out_features=200, bias=True)
    (5): GELU()
    (6): Linear(in_features=200, out_features=100, bias=True)
    (7): GELU()
    (8): Linear(in_features=100, out_features=100, bias=True)
    (9): GELU()
    (10): Linear(in_features=100, out_features=50, bias=True)
    (11): GELU()
    (12): Linear(in_features=50, out_features=21, bias=True)
    (13): GELU()
    (14): Linear(in_features=21, out_features=1, bias=True)
  )
)

Total number of trainable parameters: 103643

Checkpoint found: 1000

batch_size = 300
bias = True
clear_checkpoint = False
clip_grad = 0
cuda = -1
device = cpu
dtype = float64
lr = 0.0005
max_step = 1000
n_in = 68
n_out = 1
net_depth = 9
net_width = (100, 200, 200, 100, 100, 50, 21)
no_stdout = False
optimizer = adam
out_dir = out
out_filename = out/MLP_nd9_nw-100-200-200-100-100-50-21_bias/outwithout5
out_infix = without5
print_step = 5
save_step = 10
seed = 28208187
tolerance = 1e-05

init_time = 0.000
Training...
MLP(
  (net): Sequential(
    (0): Linear(in_features=68, out_features=100, bias=True)
    (1): GELU()
    (2): Linear(in_features=100, out_features=200, bias=True)
    (3): GELU()
    (4): Linear(in_features=200, out_features=200, bias=True)
    (5): GELU()
    (6): Linear(in_features=200, out_features=100, bias=True)
    (7): GELU()
    (8): Linear(in_features=100, out_features=100, bias=True)
    (9): GELU()
    (10): Linear(in_features=100, out_features=50, bias=True)
    (11): GELU()
    (12): Linear(in_features=50, out_features=21, bias=True)
    (13): GELU()
    (14): Linear(in_features=21, out_features=1, bias=True)
  )
)

Total number of trainable parameters: 103643

Checkpoint found: 1000

batch_size = 300
bias = True
clear_checkpoint = False
clip_grad = 0
cuda = -1
device = cpu
dtype = float64
lr = 0.0005
max_step = 1000
n_in = 68
n_out = 1
net_depth = 9
net_width = (100, 200, 200, 100, 100, 50, 21)
no_stdout = False
optimizer = adam
out_dir = out
out_filename = out/MLP_nd9_nw-100-200-200-100-100-50-21_bias/outwithout5
out_infix = without5
print_step = 5
save_step = 10
seed = 91260592
tolerance = 1e-05

init_time = 0.000
Training...
MLP(
  (net): Sequential(
    (0): Linear(in_features=68, out_features=100, bias=True)
    (1): GELU()
    (2): Linear(in_features=100, out_features=200, bias=True)
    (3): GELU()
    (4): Linear(in_features=200, out_features=200, bias=True)
    (5): GELU()
    (6): Linear(in_features=200, out_features=100, bias=True)
    (7): GELU()
    (8): Linear(in_features=100, out_features=100, bias=True)
    (9): GELU()
    (10): Linear(in_features=100, out_features=50, bias=True)
    (11): GELU()
    (12): Linear(in_features=50, out_features=21, bias=True)
    (13): GELU()
    (14): Linear(in_features=21, out_features=1, bias=True)
  )
)

Total number of trainable parameters: 103643

Checkpoint found: 1000

batch_size = 300
bias = True
clear_checkpoint = False
clip_grad = 0
cuda = -1
device = cpu
dtype = float64
lr = 0.0005
max_step = 1000
n_in = 68
n_out = 1
net_depth = 9
net_width = (100, 200, 200, 100, 100, 50, 21)
no_stdout = False
optimizer = adam
out_dir = out
out_filename = out/MLP_nd9_nw-100-200-200-100-100-50-21_bias/outwithout5
out_infix = without5
print_step = 5
save_step = 10
seed = 63100501
tolerance = 1e-05

init_time = 0.000
Training...
MLP(
  (net): Sequential(
    (0): Linear(in_features=68, out_features=100, bias=True)
    (1): GELU()
    (2): Linear(in_features=100, out_features=200, bias=True)
    (3): GELU()
    (4): Linear(in_features=200, out_features=200, bias=True)
    (5): GELU()
    (6): Linear(in_features=200, out_features=100, bias=True)
    (7): GELU()
    (8): Linear(in_features=100, out_features=100, bias=True)
    (9): GELU()
    (10): Linear(in_features=100, out_features=50, bias=True)
    (11): GELU()
    (12): Linear(in_features=50, out_features=21, bias=True)
    (13): GELU()
    (14): Linear(in_features=21, out_features=1, bias=True)
  )
)

Total number of trainable parameters: 103643

Checkpoint found: 1000

batch_size = 300
bias = True
clear_checkpoint = False
clip_grad = 0
cuda = -1
device = cpu
dtype = float64
lr = 0.0005
max_step = 1000
n_in = 68
n_out = 1
net_depth = 9
net_width = (100, 200, 200, 100, 100, 50, 21)
no_stdout = False
optimizer = adam
out_dir = out
out_filename = out/MLP_nd9_nw-100-200-200-100-100-50-21_bias/outwithout5
out_infix = without5
print_step = 5
save_step = 10
seed = 30572757
tolerance = 1e-05

init_time = 0.000
Training...
MLP(
  (net): Sequential(
    (0): Linear(in_features=68, out_features=100, bias=True)
    (1): GELU()
    (2): Linear(in_features=100, out_features=200, bias=True)
    (3): GELU()
    (4): Linear(in_features=200, out_features=200, bias=True)
    (5): GELU()
    (6): Linear(in_features=200, out_features=100, bias=True)
    (7): GELU()
    (8): Linear(in_features=100, out_features=100, bias=True)
    (9): GELU()
    (10): Linear(in_features=100, out_features=50, bias=True)
    (11): GELU()
    (12): Linear(in_features=50, out_features=21, bias=True)
    (13): GELU()
    (14): Linear(in_features=21, out_features=1, bias=True)
  )
)

Total number of trainable parameters: 103643

Checkpoint found: 1000

batch_size = 300
bias = True
clear_checkpoint = False
clip_grad = 0
cuda = -1
device = cpu
dtype = float64
lr = 0.0005
max_step = 1000
n_in = 68
n_out = 1
net_depth = 9
net_width = (100, 200, 200, 100, 100, 50, 21)
no_stdout = False
optimizer = adam
out_dir = out
out_filename = out/MLP_nd9_nw-100-200-200-100-100-50-21_bias/outwithout5
out_infix = without5
print_step = 5
save_step = 10
seed = 34538091
tolerance = 1e-05

init_time = 0.000
Training...
MLP(
  (net): Sequential(
    (0): Linear(in_features=68, out_features=100, bias=True)
    (1): GELU()
    (2): Linear(in_features=100, out_features=200, bias=True)
    (3): GELU()
    (4): Linear(in_features=200, out_features=200, bias=True)
    (5): GELU()
    (6): Linear(in_features=200, out_features=100, bias=True)
    (7): GELU()
    (8): Linear(in_features=100, out_features=100, bias=True)
    (9): GELU()
    (10): Linear(in_features=100, out_features=50, bias=True)
    (11): GELU()
    (12): Linear(in_features=50, out_features=21, bias=True)
    (13): GELU()
    (14): Linear(in_features=21, out_features=1, bias=True)
  )
)

Total number of trainable parameters: 103643

Checkpoint found: 1000

batch_size = 300
bias = True
clear_checkpoint = False
clip_grad = 0
cuda = -1
device = cpu
dtype = float64
lr = 0.0005
max_step = 1000
n_in = 68
n_out = 1
net_depth = 9
net_width = (100, 200, 200, 100, 100, 50, 21)
no_stdout = False
optimizer = adam
out_dir = out
out_filename = out/MLP_nd9_nw-100-200-200-100-100-50-21_bias/outwithout5
out_infix = without5
print_step = 5
save_step = 10
seed = 32821234
tolerance = 1e-05

init_time = 0.000
Training...
MLP(
  (net): Sequential(
    (0): Linear(in_features=68, out_features=100, bias=True)
    (1): GELU()
    (2): Linear(in_features=100, out_features=200, bias=True)
    (3): GELU()
    (4): Linear(in_features=200, out_features=200, bias=True)
    (5): GELU()
    (6): Linear(in_features=200, out_features=100, bias=True)
    (7): GELU()
    (8): Linear(in_features=100, out_features=100, bias=True)
    (9): GELU()
    (10): Linear(in_features=100, out_features=50, bias=True)
    (11): GELU()
    (12): Linear(in_features=50, out_features=21, bias=True)
    (13): GELU()
    (14): Linear(in_features=21, out_features=1, bias=True)
  )
)

Total number of trainable parameters: 103643

Checkpoint found: 1000

batch_size = 300
bias = True
clear_checkpoint = False
clip_grad = 0
cuda = -1
device = cpu
dtype = float64
lr = 0.0005
max_step = 1000
n_in = 68
n_out = 1
net_depth = 9
net_width = (100, 200, 200, 100, 100, 50, 21)
no_stdout = False
optimizer = adam
out_dir = out
out_filename = out/MLP_nd9_nw-100-200-200-100-100-50-21_bias/outwithout5
out_infix = without5
print_step = 5
save_step = 10
seed = 15884467
tolerance = 1e-05

init_time = 0.000
Training...
MLP(
  (net): Sequential(
    (0): Linear(in_features=68, out_features=100, bias=True)
    (1): GELU()
    (2): Linear(in_features=100, out_features=200, bias=True)
    (3): GELU()
    (4): Linear(in_features=200, out_features=200, bias=True)
    (5): GELU()
    (6): Linear(in_features=200, out_features=100, bias=True)
    (7): GELU()
    (8): Linear(in_features=100, out_features=100, bias=True)
    (9): GELU()
    (10): Linear(in_features=100, out_features=50, bias=True)
    (11): GELU()
    (12): Linear(in_features=50, out_features=21, bias=True)
    (13): GELU()
    (14): Linear(in_features=21, out_features=1, bias=True)
  )
)

Total number of trainable parameters: 103643

Checkpoint found: 1000

batch_size = 300
bias = True
clear_checkpoint = False
clip_grad = 0
cuda = -1
device = cpu
dtype = float64
lr = 0.0005
max_step = 1000
n_in = 68
n_out = 1
net_depth = 9
net_width = (100, 200, 200, 100, 100, 50, 21)
no_stdout = False
optimizer = adam
out_dir = out
out_filename = out/MLP_nd9_nw-100-200-200-100-100-50-21_bias/outwithout5
out_infix = without5
print_step = 5
save_step = 10
seed = 37179047
tolerance = 1e-05

init_time = 0.000
Training...
MLP(
  (net): Sequential(
    (0): Linear(in_features=68, out_features=100, bias=True)
    (1): GELU()
    (2): Linear(in_features=100, out_features=200, bias=True)
    (3): GELU()
    (4): Linear(in_features=200, out_features=200, bias=True)
    (5): GELU()
    (6): Linear(in_features=200, out_features=100, bias=True)
    (7): GELU()
    (8): Linear(in_features=100, out_features=100, bias=True)
    (9): GELU()
    (10): Linear(in_features=100, out_features=50, bias=True)
    (11): GELU()
    (12): Linear(in_features=50, out_features=21, bias=True)
    (13): GELU()
    (14): Linear(in_features=21, out_features=1, bias=True)
  )
)

Total number of trainable parameters: 103643

Checkpoint found: 1000

batch_size = 300
bias = True
clear_checkpoint = False
clip_grad = 0
cuda = -1
device = cpu
dtype = float64
lr = 0.0005
max_step = 1000
n_in = 68
n_out = 1
net_depth = 9
net_width = (100, 200, 200, 100, 100, 50, 21)
no_stdout = False
optimizer = adam
out_dir = out
out_filename = out/MLP_nd9_nw-100-200-200-100-100-50-21_bias/outwithout5
out_infix = without5
print_step = 5
save_step = 10
seed = 24608984
tolerance = 1e-05

init_time = 0.000
Training...
MLP(
  (net): Sequential(
    (0): Linear(in_features=68, out_features=100, bias=True)
    (1): GELU()
    (2): Linear(in_features=100, out_features=200, bias=True)
    (3): GELU()
    (4): Linear(in_features=200, out_features=200, bias=True)
    (5): GELU()
    (6): Linear(in_features=200, out_features=100, bias=True)
    (7): GELU()
    (8): Linear(in_features=100, out_features=100, bias=True)
    (9): GELU()
    (10): Linear(in_features=100, out_features=50, bias=True)
    (11): GELU()
    (12): Linear(in_features=50, out_features=21, bias=True)
    (13): GELU()
    (14): Linear(in_features=21, out_features=1, bias=True)
  )
)

Total number of trainable parameters: 103643

Checkpoint found: 1000

batch_size = 300
bias = True
clear_checkpoint = False
clip_grad = 0
cuda = -1
device = cpu
dtype = float64
lr = 0.0005
max_step = 1000
n_in = 68
n_out = 1
net_depth = 9
net_width = (100, 200, 200, 100, 100, 50, 21)
no_stdout = False
optimizer = adam
out_dir = out
out_filename = out/MLP_nd9_nw-100-200-200-100-100-50-21_bias/outwithout5
out_infix = without5
print_step = 5
save_step = 10
seed = 58500522
tolerance = 1e-05

init_time = 0.000
Training...
MLP(
  (net): Sequential(
    (0): Linear(in_features=68, out_features=100, bias=True)
    (1): GELU()
    (2): Linear(in_features=100, out_features=200, bias=True)
    (3): GELU()
    (4): Linear(in_features=200, out_features=200, bias=True)
    (5): GELU()
    (6): Linear(in_features=200, out_features=100, bias=True)
    (7): GELU()
    (8): Linear(in_features=100, out_features=100, bias=True)
    (9): GELU()
    (10): Linear(in_features=100, out_features=50, bias=True)
    (11): GELU()
    (12): Linear(in_features=50, out_features=21, bias=True)
    (13): GELU()
    (14): Linear(in_features=21, out_features=1, bias=True)
  )
)

Total number of trainable parameters: 103643

Checkpoint found: 1000

batch_size = 300
bias = True
clear_checkpoint = False
clip_grad = 0
cuda = -1
device = cpu
dtype = float64
lr = 0.0005
max_step = 1000
n_in = 68
n_out = 1
net_depth = 9
net_width = (100, 200, 200, 100, 100, 50, 21)
no_stdout = False
optimizer = adam
out_dir = out
out_filename = out/MLP_nd9_nw-100-200-200-100-100-50-21_bias/outwithout5
out_infix = without5
print_step = 5
save_step = 10
seed = 91242172
tolerance = 1e-05

init_time = 0.000
Training...
MLP(
  (net): Sequential(
    (0): Linear(in_features=68, out_features=100, bias=True)
    (1): GELU()
    (2): Linear(in_features=100, out_features=200, bias=True)
    (3): GELU()
    (4): Linear(in_features=200, out_features=200, bias=True)
    (5): GELU()
    (6): Linear(in_features=200, out_features=100, bias=True)
    (7): GELU()
    (8): Linear(in_features=100, out_features=100, bias=True)
    (9): GELU()
    (10): Linear(in_features=100, out_features=50, bias=True)
    (11): GELU()
    (12): Linear(in_features=50, out_features=21, bias=True)
    (13): GELU()
    (14): Linear(in_features=21, out_features=1, bias=True)
  )
)

Total number of trainable parameters: 103643

Checkpoint found: 1000

batch_size = 300
bias = True
clear_checkpoint = False
clip_grad = 0
cuda = -1
device = cpu
dtype = float64
lr = 0.0005
max_step = 1000
n_in = 68
n_out = 1
net_depth = 9
net_width = (100, 200, 200, 100, 100, 50, 21)
no_stdout = False
optimizer = adam
out_dir = out
out_filename = out/MLP_nd9_nw-100-200-200-100-100-50-21_bias/outwithout5
out_infix = without5
print_step = 5
save_step = 10
seed = 45767491
tolerance = 1e-05

init_time = 0.000
Training...
MLP(
  (net): Sequential(
    (0): Linear(in_features=68, out_features=100, bias=True)
    (1): GELU()
    (2): Linear(in_features=100, out_features=200, bias=True)
    (3): GELU()
    (4): Linear(in_features=200, out_features=200, bias=True)
    (5): GELU()
    (6): Linear(in_features=200, out_features=100, bias=True)
    (7): GELU()
    (8): Linear(in_features=100, out_features=100, bias=True)
    (9): GELU()
    (10): Linear(in_features=100, out_features=50, bias=True)
    (11): GELU()
    (12): Linear(in_features=50, out_features=21, bias=True)
    (13): GELU()
    (14): Linear(in_features=21, out_features=1, bias=True)
  )
)

Total number of trainable parameters: 103643

Checkpoint found: 1000

batch_size = 300
bias = True
clear_checkpoint = False
clip_grad = 0
cuda = -1
device = cpu
dtype = float64
lr = 0.0005
max_step = 1000
n_in = 68
n_out = 1
net_depth = 9
net_width = (100, 200, 200, 100, 100, 50, 21)
no_stdout = False
optimizer = adam
out_dir = out
out_filename = out/MLP_nd9_nw-100-200-200-100-100-50-21_bias/outwithout5
out_infix = without5
print_step = 5
save_step = 10
seed = 83204989
tolerance = 1e-05

init_time = 0.000
Training...
MLP(
  (net): Sequential(
    (0): Linear(in_features=68, out_features=100, bias=True)
    (1): GELU()
    (2): Linear(in_features=100, out_features=200, bias=True)
    (3): GELU()
    (4): Linear(in_features=200, out_features=200, bias=True)
    (5): GELU()
    (6): Linear(in_features=200, out_features=100, bias=True)
    (7): GELU()
    (8): Linear(in_features=100, out_features=100, bias=True)
    (9): GELU()
    (10): Linear(in_features=100, out_features=50, bias=True)
    (11): GELU()
    (12): Linear(in_features=50, out_features=21, bias=True)
    (13): GELU()
    (14): Linear(in_features=21, out_features=1, bias=True)
  )
)

Total number of trainable parameters: 103643

Checkpoint found: 1000

batch_size = 300
bias = True
clear_checkpoint = False
clip_grad = 0
cuda = -1
device = cpu
dtype = float64
lr = 0.0005
max_step = 1000
n_in = 68
n_out = 1
net_depth = 9
net_width = (100, 200, 200, 100, 100, 50, 21)
no_stdout = False
optimizer = adam
out_dir = out
out_filename = out/MLP_nd9_nw-100-200-200-100-100-50-21_bias/outwithout5
out_infix = without5
print_step = 5
save_step = 10
seed = 10523543
tolerance = 1e-05

init_time = 0.000
Training...
MLP(
  (net): Sequential(
    (0): Linear(in_features=68, out_features=100, bias=True)
    (1): GELU()
    (2): Linear(in_features=100, out_features=200, bias=True)
    (3): GELU()
    (4): Linear(in_features=200, out_features=200, bias=True)
    (5): GELU()
    (6): Linear(in_features=200, out_features=100, bias=True)
    (7): GELU()
    (8): Linear(in_features=100, out_features=100, bias=True)
    (9): GELU()
    (10): Linear(in_features=100, out_features=50, bias=True)
    (11): GELU()
    (12): Linear(in_features=50, out_features=21, bias=True)
    (13): GELU()
    (14): Linear(in_features=21, out_features=1, bias=True)
  )
)

Total number of trainable parameters: 103643

Checkpoint found: 1000

batch_size = 300
bias = True
clear_checkpoint = False
clip_grad = 0
cuda = -1
device = cpu
dtype = float64
lr = 0.0005
max_step = 1000
n_in = 68
n_out = 1
net_depth = 9
net_width = (100, 200, 200, 100, 100, 50, 21)
no_stdout = False
optimizer = adam
out_dir = out
out_filename = out/MLP_nd9_nw-100-200-200-100-100-50-21_bias/outwithout5
out_infix = without5
print_step = 5
save_step = 10
seed = 76169843
tolerance = 1e-05

init_time = 0.000
Training...
MLP(
  (net): Sequential(
    (0): Linear(in_features=68, out_features=100, bias=True)
    (1): GELU()
    (2): Linear(in_features=100, out_features=200, bias=True)
    (3): GELU()
    (4): Linear(in_features=200, out_features=200, bias=True)
    (5): GELU()
    (6): Linear(in_features=200, out_features=100, bias=True)
    (7): GELU()
    (8): Linear(in_features=100, out_features=100, bias=True)
    (9): GELU()
    (10): Linear(in_features=100, out_features=50, bias=True)
    (11): GELU()
    (12): Linear(in_features=50, out_features=21, bias=True)
    (13): GELU()
    (14): Linear(in_features=21, out_features=1, bias=True)
  )
)

Total number of trainable parameters: 103643

Checkpoint found: 1000

batch_size = 300
bias = True
clear_checkpoint = False
clip_grad = 0
cuda = -1
device = cpu
dtype = float64
lr = 0.0005
max_step = 1000
n_in = 68
n_out = 1
net_depth = 9
net_width = (100, 200, 200, 100, 100, 50, 21)
no_stdout = False
optimizer = adam
out_dir = out
out_filename = out/MLP_nd9_nw-100-200-200-100-100-50-21_bias/outwithout5
out_infix = without5
print_step = 5
save_step = 10
seed = 70892692
tolerance = 1e-05

init_time = 0.000
Training...
MLP(
  (net): Sequential(
    (0): Linear(in_features=68, out_features=100, bias=True)
    (1): GELU()
    (2): Linear(in_features=100, out_features=200, bias=True)
    (3): GELU()
    (4): Linear(in_features=200, out_features=200, bias=True)
    (5): GELU()
    (6): Linear(in_features=200, out_features=100, bias=True)
    (7): GELU()
    (8): Linear(in_features=100, out_features=100, bias=True)
    (9): GELU()
    (10): Linear(in_features=100, out_features=50, bias=True)
    (11): GELU()
    (12): Linear(in_features=50, out_features=21, bias=True)
    (13): GELU()
    (14): Linear(in_features=21, out_features=1, bias=True)
  )
)

Total number of trainable parameters: 103643

Checkpoint found: 1000

batch_size = 300
bias = True
clear_checkpoint = False
clip_grad = 0
cuda = -1
device = cpu
dtype = float64
lr = 0.0005
max_step = 1000
n_in = 68
n_out = 1
net_depth = 9
net_width = (100, 200, 200, 100, 100, 50, 21)
no_stdout = False
optimizer = adam
out_dir = out
out_filename = out/MLP_nd9_nw-100-200-200-100-100-50-21_bias/outwithout5
out_infix = without5
print_step = 5
save_step = 10
seed = 39552272
tolerance = 1e-05

init_time = 0.000
Training...
MLP(
  (net): Sequential(
    (0): Linear(in_features=68, out_features=100, bias=True)
    (1): GELU()
    (2): Linear(in_features=100, out_features=200, bias=True)
    (3): GELU()
    (4): Linear(in_features=200, out_features=200, bias=True)
    (5): GELU()
    (6): Linear(in_features=200, out_features=100, bias=True)
    (7): GELU()
    (8): Linear(in_features=100, out_features=100, bias=True)
    (9): GELU()
    (10): Linear(in_features=100, out_features=50, bias=True)
    (11): GELU()
    (12): Linear(in_features=50, out_features=21, bias=True)
    (13): GELU()
    (14): Linear(in_features=21, out_features=1, bias=True)
  )
)

Total number of trainable parameters: 103643

Checkpoint found: 1000

batch_size = 300
bias = True
clear_checkpoint = False
clip_grad = 0
cuda = -1
device = cpu
dtype = float64
lr = 0.0005
max_step = 1000
n_in = 68
n_out = 1
net_depth = 9
net_width = (100, 200, 200, 100, 100, 50, 21)
no_stdout = False
optimizer = adam
out_dir = out
out_filename = out/MLP_nd9_nw-100-200-200-100-100-50-21_bias/outwithout5
out_infix = without5
print_step = 5
save_step = 10
seed = 10089858
tolerance = 1e-05

init_time = 0.000
Training...
MLP(
  (net): Sequential(
    (0): Linear(in_features=68, out_features=100, bias=True)
    (1): GELU()
    (2): Linear(in_features=100, out_features=200, bias=True)
    (3): GELU()
    (4): Linear(in_features=200, out_features=200, bias=True)
    (5): GELU()
    (6): Linear(in_features=200, out_features=100, bias=True)
    (7): GELU()
    (8): Linear(in_features=100, out_features=100, bias=True)
    (9): GELU()
    (10): Linear(in_features=100, out_features=50, bias=True)
    (11): GELU()
    (12): Linear(in_features=50, out_features=21, bias=True)
    (13): GELU()
    (14): Linear(in_features=21, out_features=1, bias=True)
  )
)

Total number of trainable parameters: 103643

Checkpoint found: 1000

batch_size = 300
bias = True
clear_checkpoint = False
clip_grad = 0
cuda = -1
device = cpu
dtype = float64
lr = 0.0005
max_step = 1000
n_in = 68
n_out = 1
net_depth = 9
net_width = (100, 200, 200, 100, 100, 50, 21)
no_stdout = False
optimizer = adam
out_dir = out
out_filename = out/MLP_nd9_nw-100-200-200-100-100-50-21_bias/outwithout5
out_infix = without5
print_step = 5
save_step = 10
seed = 51629322
tolerance = 1e-05

init_time = 0.000
Training...

Checkpoint found: 1000

batch_size = 300
bias = True
clear_checkpoint = False
clip_grad = 0
cuda = -1
device = cpu
dtype = float64
lr = 0.0005
max_step = 1000
n_in = 68
n_out = 1
net_depth = 9
net_width = (100, 200, 200, 100, 100, 50, 21)
no_stdout = False
optimizer = adam
out_dir = out
out_filename = out/MLP_nd9_nw-100-200-200-100-100-50-21_bias/outwithout5
out_infix = without5
print_step = 5
save_step = 10
seed = 51629322
tolerance = 1e-05

MLP(
  (net): Sequential(
    (0): Linear(in_features=68, out_features=100, bias=True)
    (1): GELU()
    (2): Linear(in_features=100, out_features=200, bias=True)
    (3): GELU()
    (4): Linear(in_features=200, out_features=200, bias=True)
    (5): GELU()
    (6): Linear(in_features=200, out_features=100, bias=True)
    (7): GELU()
    (8): Linear(in_features=100, out_features=100, bias=True)
    (9): GELU()
    (10): Linear(in_features=100, out_features=50, bias=True)
    (11): GELU()
    (12): Linear(in_features=50, out_features=21, bias=True)
    (13): GELU()
    (14): Linear(in_features=21, out_features=1, bias=True)
  )
)

Total number of trainable parameters: 103643
MLP(
  (net): Sequential(
    (0): Linear(in_features=68, out_features=100, bias=True)
    (1): GELU()
    (2): Linear(in_features=100, out_features=200, bias=True)
    (3): GELU()
    (4): Linear(in_features=200, out_features=200, bias=True)
    (5): GELU()
    (6): Linear(in_features=200, out_features=100, bias=True)
    (7): GELU()
    (8): Linear(in_features=100, out_features=100, bias=True)
    (9): GELU()
    (10): Linear(in_features=100, out_features=50, bias=True)
    (11): GELU()
    (12): Linear(in_features=50, out_features=21, bias=True)
    (13): GELU()
    (14): Linear(in_features=21, out_features=1, bias=True)
  )
)

Total number of trainable parameters: 103643

Checkpoint found: 1000

batch_size = 300
bias = True
clear_checkpoint = False
clip_grad = 0
cuda = -1
device = cpu
dtype = float64
lr = 0.0005
max_step = 1000
n_in = 68
n_out = 1
net_depth = 9
net_width = (100, 200, 200, 100, 100, 50, 21)
no_stdout = False
optimizer = adam
out_dir = out
out_filename = out/MLP_nd9_nw-100-200-200-100-100-50-21_bias/outwithout5
out_infix = without5
print_step = 5
save_step = 10
seed = 75905563
tolerance = 1e-05

init_time = 0.000
Training...
MLP(
  (net): Sequential(
    (0): Linear(in_features=68, out_features=100, bias=True)
    (1): GELU()
    (2): Linear(in_features=100, out_features=200, bias=True)
    (3): GELU()
    (4): Linear(in_features=200, out_features=200, bias=True)
    (5): GELU()
    (6): Linear(in_features=200, out_features=100, bias=True)
    (7): GELU()
    (8): Linear(in_features=100, out_features=100, bias=True)
    (9): GELU()
    (10): Linear(in_features=100, out_features=50, bias=True)
    (11): GELU()
    (12): Linear(in_features=50, out_features=21, bias=True)
    (13): GELU()
    (14): Linear(in_features=21, out_features=1, bias=True)
  )
)

Total number of trainable parameters: 103643

Checkpoint found: 1000

batch_size = 300
bias = True
clear_checkpoint = False
clip_grad = 0
cuda = -1
device = cpu
dtype = float64
lr = 0.0005
max_step = 1000
n_in = 68
n_out = 1
net_depth = 9
net_width = (100, 200, 200, 100, 100, 50, 21)
no_stdout = False
optimizer = adam
out_dir = out
out_filename = out/MLP_nd9_nw-100-200-200-100-100-50-21_bias/outwithout5
out_infix = without5
print_step = 5
save_step = 10
seed = 76261380
tolerance = 1e-05

init_time = 0.000
Training...
MLP(
  (net): Sequential(
    (0): Linear(in_features=68, out_features=100, bias=True)
    (1): GELU()
    (2): Linear(in_features=100, out_features=200, bias=True)
    (3): GELU()
    (4): Linear(in_features=200, out_features=200, bias=True)
    (5): GELU()
    (6): Linear(in_features=200, out_features=100, bias=True)
    (7): GELU()
    (8): Linear(in_features=100, out_features=100, bias=True)
    (9): GELU()
    (10): Linear(in_features=100, out_features=50, bias=True)
    (11): GELU()
    (12): Linear(in_features=50, out_features=21, bias=True)
    (13): GELU()
    (14): Linear(in_features=21, out_features=1, bias=True)
  )
)

Total number of trainable parameters: 103643

Checkpoint found: 1000

batch_size = 300
bias = True
clear_checkpoint = False
clip_grad = 0
cuda = -1
device = cpu
dtype = float64
lr = 0.0005
max_step = 1000
n_in = 68
n_out = 1
net_depth = 9
net_width = (100, 200, 200, 100, 100, 50, 21)
no_stdout = False
optimizer = adam
out_dir = out
out_filename = out/MLP_nd9_nw-100-200-200-100-100-50-21_bias/outwithout5
out_infix = without5
print_step = 5
save_step = 10
seed = 69789107
tolerance = 1e-05

init_time = 0.000
Training...
MLP(
  (net): Sequential(
    (0): Linear(in_features=68, out_features=100, bias=True)
    (1): GELU()
    (2): Linear(in_features=100, out_features=200, bias=True)
    (3): GELU()
    (4): Linear(in_features=200, out_features=200, bias=True)
    (5): GELU()
    (6): Linear(in_features=200, out_features=100, bias=True)
    (7): GELU()
    (8): Linear(in_features=100, out_features=100, bias=True)
    (9): GELU()
    (10): Linear(in_features=100, out_features=50, bias=True)
    (11): GELU()
    (12): Linear(in_features=50, out_features=21, bias=True)
    (13): GELU()
    (14): Linear(in_features=21, out_features=1, bias=True)
  )
)

Total number of trainable parameters: 103643

Checkpoint found: 1000

batch_size = 300
bias = True
clear_checkpoint = False
clip_grad = 0
cuda = -1
device = cpu
dtype = float64
lr = 0.0005
max_step = 1000
n_in = 68
n_out = 1
net_depth = 9
net_width = (100, 200, 200, 100, 100, 50, 21)
no_stdout = False
optimizer = adam
out_dir = out
out_filename = out/MLP_nd9_nw-100-200-200-100-100-50-21_bias/outwithout5
out_infix = without5
print_step = 5
save_step = 10
seed = 42919028
tolerance = 1e-05

init_time = 0.000
Training...
MLP(
  (net): Sequential(
    (0): Linear(in_features=68, out_features=100, bias=True)
    (1): GELU()
    (2): Linear(in_features=100, out_features=200, bias=True)
    (3): GELU()
    (4): Linear(in_features=200, out_features=200, bias=True)
    (5): GELU()
    (6): Linear(in_features=200, out_features=100, bias=True)
    (7): GELU()
    (8): Linear(in_features=100, out_features=100, bias=True)
    (9): GELU()
    (10): Linear(in_features=100, out_features=50, bias=True)
    (11): GELU()
    (12): Linear(in_features=50, out_features=21, bias=True)
    (13): GELU()
    (14): Linear(in_features=21, out_features=1, bias=True)
  )
)

Total number of trainable parameters: 103643

Checkpoint found: 1000

batch_size = 300
bias = True
clear_checkpoint = False
clip_grad = 0
cuda = -1
device = cpu
dtype = float64
lr = 0.0005
max_step = 1000
n_in = 68
n_out = 1
net_depth = 9
net_width = (100, 200, 200, 100, 100, 50, 21)
no_stdout = False
optimizer = adam
out_dir = out
out_filename = out/MLP_nd9_nw-100-200-200-100-100-50-21_bias/outwithout5
out_infix = without5
print_step = 5
save_step = 10
seed = 55844104
tolerance = 1e-05

init_time = 0.000
Training...
MLP(
  (net): Sequential(
    (0): Linear(in_features=68, out_features=100, bias=True)
    (1): GELU()
    (2): Linear(in_features=100, out_features=200, bias=True)
    (3): GELU()
    (4): Linear(in_features=200, out_features=200, bias=True)
    (5): GELU()
    (6): Linear(in_features=200, out_features=100, bias=True)
    (7): GELU()
    (8): Linear(in_features=100, out_features=100, bias=True)
    (9): GELU()
    (10): Linear(in_features=100, out_features=50, bias=True)
    (11): GELU()
    (12): Linear(in_features=50, out_features=21, bias=True)
    (13): GELU()
    (14): Linear(in_features=21, out_features=1, bias=True)
  )
)

Total number of trainable parameters: 103643

Checkpoint found: 1000

batch_size = 300
bias = True
clear_checkpoint = False
clip_grad = 0
cuda = -1
device = cpu
dtype = float64
lr = 0.0005
max_step = 1000
n_in = 68
n_out = 1
net_depth = 9
net_width = (100, 200, 200, 100, 100, 50, 21)
no_stdout = False
optimizer = adam
out_dir = out
out_filename = out/MLP_nd9_nw-100-200-200-100-100-50-21_bias/outwithout5
out_infix = without5
print_step = 5
save_step = 10
seed = 34395440
tolerance = 1e-05

init_time = 0.000
Training...
MLP(
  (net): Sequential(
    (0): Linear(in_features=68, out_features=100, bias=True)
    (1): GELU()
    (2): Linear(in_features=100, out_features=200, bias=True)
    (3): GELU()
    (4): Linear(in_features=200, out_features=200, bias=True)
    (5): GELU()
    (6): Linear(in_features=200, out_features=100, bias=True)
    (7): GELU()
    (8): Linear(in_features=100, out_features=100, bias=True)
    (9): GELU()
    (10): Linear(in_features=100, out_features=50, bias=True)
    (11): GELU()
    (12): Linear(in_features=50, out_features=21, bias=True)
    (13): GELU()
    (14): Linear(in_features=21, out_features=1, bias=True)
  )
)

Total number of trainable parameters: 103643

Checkpoint found: 1000

batch_size = 300
bias = True
clear_checkpoint = False
clip_grad = 0
cuda = -1
device = cpu
dtype = float64
lr = 0.0005
max_step = 1000
n_in = 68
n_out = 1
net_depth = 9
net_width = (100, 200, 200, 100, 100, 50, 21)
no_stdout = False
optimizer = adam
out_dir = out
out_filename = out/MLP_nd9_nw-100-200-200-100-100-50-21_bias/outwithout5
out_infix = without5
print_step = 5
save_step = 10
seed = 56667083
tolerance = 1e-05

init_time = 0.000
Training...
MLP(
  (net): Sequential(
    (0): Linear(in_features=68, out_features=100, bias=True)
    (1): GELU()
    (2): Linear(in_features=100, out_features=200, bias=True)
    (3): GELU()
    (4): Linear(in_features=200, out_features=200, bias=True)
    (5): GELU()
    (6): Linear(in_features=200, out_features=100, bias=True)
    (7): GELU()
    (8): Linear(in_features=100, out_features=100, bias=True)
    (9): GELU()
    (10): Linear(in_features=100, out_features=50, bias=True)
    (11): GELU()
    (12): Linear(in_features=50, out_features=21, bias=True)
    (13): GELU()
    (14): Linear(in_features=21, out_features=1, bias=True)
  )
)

Total number of trainable parameters: 103643

Checkpoint found: 1000

batch_size = 300
bias = True
clear_checkpoint = False
clip_grad = 0
cuda = -1
device = cpu
dtype = float64
lr = 0.0005
max_step = 1000
n_in = 68
n_out = 1
net_depth = 9
net_width = (100, 200, 200, 100, 100, 50, 21)
no_stdout = False
optimizer = adam
out_dir = out
out_filename = out/MLP_nd9_nw-100-200-200-100-100-50-21_bias/outwithout5
out_infix = without5
print_step = 5
save_step = 10
seed = 54096087
tolerance = 1e-05

init_time = 0.000
Training...
MLP(
  (net): Sequential(
    (0): Linear(in_features=68, out_features=100, bias=True)
    (1): GELU()
    (2): Linear(in_features=100, out_features=200, bias=True)
    (3): GELU()
    (4): Linear(in_features=200, out_features=200, bias=True)
    (5): GELU()
    (6): Linear(in_features=200, out_features=100, bias=True)
    (7): GELU()
    (8): Linear(in_features=100, out_features=100, bias=True)
    (9): GELU()
    (10): Linear(in_features=100, out_features=50, bias=True)
    (11): GELU()
    (12): Linear(in_features=50, out_features=21, bias=True)
    (13): GELU()
    (14): Linear(in_features=21, out_features=1, bias=True)
  )
)

Total number of trainable parameters: 103643

Checkpoint found: 1000

batch_size = 300
bias = True
clear_checkpoint = False
clip_grad = 0
cuda = -1
device = cpu
dtype = float64
lr = 0.0005
max_step = 1000
n_in = 68
n_out = 1
net_depth = 9
net_width = (100, 200, 200, 100, 100, 50, 21)
no_stdout = False
optimizer = adam
out_dir = out
out_filename = out/MLP_nd9_nw-100-200-200-100-100-50-21_bias/outwithout5
out_infix = without5
print_step = 5
save_step = 10
seed = 88598006
tolerance = 1e-05

init_time = 0.000
Training...
MLP(
  (net): Sequential(
    (0): Linear(in_features=68, out_features=100, bias=True)
    (1): GELU()
    (2): Linear(in_features=100, out_features=200, bias=True)
    (3): GELU()
    (4): Linear(in_features=200, out_features=200, bias=True)
    (5): GELU()
    (6): Linear(in_features=200, out_features=100, bias=True)
    (7): GELU()
    (8): Linear(in_features=100, out_features=100, bias=True)
    (9): GELU()
    (10): Linear(in_features=100, out_features=50, bias=True)
    (11): GELU()
    (12): Linear(in_features=50, out_features=21, bias=True)
    (13): GELU()
    (14): Linear(in_features=21, out_features=1, bias=True)
  )
)

Total number of trainable parameters: 103643

Checkpoint found: 1000

batch_size = 300
bias = True
clear_checkpoint = False
clip_grad = 0
cuda = -1
device = cpu
dtype = float64
lr = 0.0005
max_step = 1000
n_in = 68
n_out = 1
net_depth = 9
net_width = (100, 200, 200, 100, 100, 50, 21)
no_stdout = False
optimizer = adam
out_dir = out
out_filename = out/MLP_nd9_nw-100-200-200-100-100-50-21_bias/outwithout5
out_infix = without5
print_step = 5
save_step = 10
seed = 68214585
tolerance = 1e-05

init_time = 0.000
Training...
MLP(
  (net): Sequential(
    (0): Linear(in_features=68, out_features=100, bias=True)
    (1): GELU()
    (2): Linear(in_features=100, out_features=200, bias=True)
    (3): GELU()
    (4): Linear(in_features=200, out_features=200, bias=True)
    (5): GELU()
    (6): Linear(in_features=200, out_features=100, bias=True)
    (7): GELU()
    (8): Linear(in_features=100, out_features=100, bias=True)
    (9): GELU()
    (10): Linear(in_features=100, out_features=50, bias=True)
    (11): GELU()
    (12): Linear(in_features=50, out_features=21, bias=True)
    (13): GELU()
    (14): Linear(in_features=21, out_features=1, bias=True)
  )
)

Total number of trainable parameters: 103643

Checkpoint found: 1000

batch_size = 300
bias = True
clear_checkpoint = False
clip_grad = 0
cuda = -1
device = cpu
dtype = float64
lr = 0.0005
max_step = 1000
n_in = 68
n_out = 1
net_depth = 9
net_width = (100, 200, 200, 100, 100, 50, 21)
no_stdout = False
optimizer = adam
out_dir = out
out_filename = out/MLP_nd9_nw-100-200-200-100-100-50-21_bias/outwithout5
out_infix = without5
print_step = 5
save_step = 10
seed = 12334807
tolerance = 1e-05

init_time = 0.000
Training...
MLP(
  (net): Sequential(
    (0): Linear(in_features=68, out_features=100, bias=True)
    (1): GELU()
    (2): Linear(in_features=100, out_features=200, bias=True)
    (3): GELU()
    (4): Linear(in_features=200, out_features=200, bias=True)
    (5): GELU()
    (6): Linear(in_features=200, out_features=100, bias=True)
    (7): GELU()
    (8): Linear(in_features=100, out_features=100, bias=True)
    (9): GELU()
    (10): Linear(in_features=100, out_features=50, bias=True)
    (11): GELU()
    (12): Linear(in_features=50, out_features=21, bias=True)
    (13): GELU()
    (14): Linear(in_features=21, out_features=1, bias=True)
  )
)

Total number of trainable parameters: 103643

Checkpoint found: 1000

batch_size = 300
bias = True
clear_checkpoint = False
clip_grad = 0
cuda = -1
device = cpu
dtype = float64
lr = 0.0005
max_step = 1000
n_in = 68
n_out = 1
net_depth = 9
net_width = (100, 200, 200, 100, 100, 50, 21)
no_stdout = False
optimizer = adam
out_dir = out
out_filename = out/MLP_nd9_nw-100-200-200-100-100-50-21_bias/outwithout5
out_infix = without5
print_step = 5
save_step = 10
seed = 65409035
tolerance = 1e-05

init_time = 0.000
Training...
MLP(
  (net): Sequential(
    (0): Linear(in_features=68, out_features=100, bias=True)
    (1): GELU()
    (2): Linear(in_features=100, out_features=200, bias=True)
    (3): GELU()
    (4): Linear(in_features=200, out_features=200, bias=True)
    (5): GELU()
    (6): Linear(in_features=200, out_features=100, bias=True)
    (7): GELU()
    (8): Linear(in_features=100, out_features=100, bias=True)
    (9): GELU()
    (10): Linear(in_features=100, out_features=50, bias=True)
    (11): GELU()
    (12): Linear(in_features=50, out_features=21, bias=True)
    (13): GELU()
    (14): Linear(in_features=21, out_features=1, bias=True)
  )
)

Total number of trainable parameters: 103643

Checkpoint found: 1000

batch_size = 300
bias = True
clear_checkpoint = False
clip_grad = 0
cuda = -1
device = cpu
dtype = float64
lr = 0.0005
max_step = 1000
n_in = 68
n_out = 1
net_depth = 9
net_width = (100, 200, 200, 100, 100, 50, 21)
no_stdout = False
optimizer = adam
out_dir = out
out_filename = out/MLP_nd9_nw-100-200-200-100-100-50-21_bias/outwithout5
out_infix = without5
print_step = 5
save_step = 10
seed = 52267509
tolerance = 1e-05

init_time = 0.000
Training...
MLP(
  (net): Sequential(
    (0): Linear(in_features=68, out_features=100, bias=True)
    (1): GELU()
    (2): Linear(in_features=100, out_features=200, bias=True)
    (3): GELU()
    (4): Linear(in_features=200, out_features=200, bias=True)
    (5): GELU()
    (6): Linear(in_features=200, out_features=100, bias=True)
    (7): GELU()
    (8): Linear(in_features=100, out_features=100, bias=True)
    (9): GELU()
    (10): Linear(in_features=100, out_features=50, bias=True)
    (11): GELU()
    (12): Linear(in_features=50, out_features=21, bias=True)
    (13): GELU()
    (14): Linear(in_features=21, out_features=1, bias=True)
  )
)

Total number of trainable parameters: 103643

Checkpoint found: 1000

batch_size = 300
bias = True
clear_checkpoint = False
clip_grad = 0
cuda = -1
device = cpu
dtype = float64
lr = 0.0005
max_step = 1000
n_in = 68
n_out = 1
net_depth = 9
net_width = (100, 200, 200, 100, 100, 50, 21)
no_stdout = False
optimizer = adam
out_dir = out
out_filename = out/MLP_nd9_nw-100-200-200-100-100-50-21_bias/outwithout5
out_infix = without5
print_step = 5
save_step = 10
seed = 84510229
tolerance = 1e-05

init_time = 0.000
Training...
MLP(
  (net): Sequential(
    (0): Linear(in_features=68, out_features=100, bias=True)
    (1): GELU()
    (2): Linear(in_features=100, out_features=200, bias=True)
    (3): GELU()
    (4): Linear(in_features=200, out_features=200, bias=True)
    (5): GELU()
    (6): Linear(in_features=200, out_features=100, bias=True)
    (7): GELU()
    (8): Linear(in_features=100, out_features=100, bias=True)
    (9): GELU()
    (10): Linear(in_features=100, out_features=50, bias=True)
    (11): GELU()
    (12): Linear(in_features=50, out_features=21, bias=True)
    (13): GELU()
    (14): Linear(in_features=21, out_features=1, bias=True)
  )
)

Total number of trainable parameters: 103643

Checkpoint found: 1000

batch_size = 300
bias = True
clear_checkpoint = False
clip_grad = 0
cuda = -1
device = cpu
dtype = float64
lr = 0.0005
max_step = 1000
n_in = 68
n_out = 1
net_depth = 9
net_width = (100, 200, 200, 100, 100, 50, 21)
no_stdout = False
optimizer = adam
out_dir = out
out_filename = out/MLP_nd9_nw-100-200-200-100-100-50-21_bias/outwithout5
out_infix = without5
print_step = 5
save_step = 10
seed = 7489094
tolerance = 1e-05

init_time = 0.000
Training...
MLP(
  (net): Sequential(
    (0): Linear(in_features=68, out_features=100, bias=True)
    (1): GELU()
    (2): Linear(in_features=100, out_features=200, bias=True)
    (3): GELU()
    (4): Linear(in_features=200, out_features=200, bias=True)
    (5): GELU()
    (6): Linear(in_features=200, out_features=100, bias=True)
    (7): GELU()
    (8): Linear(in_features=100, out_features=100, bias=True)
    (9): GELU()
    (10): Linear(in_features=100, out_features=50, bias=True)
    (11): GELU()
    (12): Linear(in_features=50, out_features=21, bias=True)
    (13): GELU()
    (14): Linear(in_features=21, out_features=1, bias=True)
  )
)

Total number of trainable parameters: 103643

Checkpoint found: 1000

batch_size = 300
bias = True
clear_checkpoint = False
clip_grad = 0
cuda = -1
device = cpu
dtype = float64
lr = 0.0005
max_step = 1000
n_in = 68
n_out = 1
net_depth = 9
net_width = (100, 200, 200, 100, 100, 50, 21)
no_stdout = False
optimizer = adam
out_dir = out
out_filename = out/MLP_nd9_nw-100-200-200-100-100-50-21_bias/outwithout5
out_infix = without5
print_step = 5
save_step = 10
seed = 78975362
tolerance = 1e-05

init_time = 0.000
Training...
MLP(
  (net): Sequential(
    (0): Linear(in_features=68, out_features=100, bias=True)
    (1): GELU()
    (2): Linear(in_features=100, out_features=200, bias=True)
    (3): GELU()
    (4): Linear(in_features=200, out_features=200, bias=True)
    (5): GELU()
    (6): Linear(in_features=200, out_features=100, bias=True)
    (7): GELU()
    (8): Linear(in_features=100, out_features=100, bias=True)
    (9): GELU()
    (10): Linear(in_features=100, out_features=50, bias=True)
    (11): GELU()
    (12): Linear(in_features=50, out_features=21, bias=True)
    (13): GELU()
    (14): Linear(in_features=21, out_features=1, bias=True)
  )
)

Total number of trainable parameters: 103643

Checkpoint found: 1000

batch_size = 300
bias = True
clear_checkpoint = False
clip_grad = 0
cuda = -1
device = cpu
dtype = float64
lr = 0.0005
max_step = 1000
n_in = 68
n_out = 1
net_depth = 9
net_width = (100, 200, 200, 100, 100, 50, 21)
no_stdout = False
optimizer = adam
out_dir = out
out_filename = out/MLP_nd9_nw-100-200-200-100-100-50-21_bias/outwithout5
out_infix = without5
print_step = 5
save_step = 10
seed = 45583769
tolerance = 1e-05

init_time = 0.000
Training...
MLP(
  (net): Sequential(
    (0): Linear(in_features=68, out_features=100, bias=True)
    (1): GELU()
    (2): Linear(in_features=100, out_features=200, bias=True)
    (3): GELU()
    (4): Linear(in_features=200, out_features=200, bias=True)
    (5): GELU()
    (6): Linear(in_features=200, out_features=100, bias=True)
    (7): GELU()
    (8): Linear(in_features=100, out_features=100, bias=True)
    (9): GELU()
    (10): Linear(in_features=100, out_features=50, bias=True)
    (11): GELU()
    (12): Linear(in_features=50, out_features=21, bias=True)
    (13): GELU()
    (14): Linear(in_features=21, out_features=1, bias=True)
  )
)

Total number of trainable parameters: 103643

Checkpoint found: 1000

batch_size = 300
bias = True
clear_checkpoint = False
clip_grad = 0
cuda = -1
device = cpu
dtype = float64
lr = 0.0005
max_step = 1000
n_in = 68
n_out = 1
net_depth = 9
net_width = (100, 200, 200, 100, 100, 50, 21)
no_stdout = False
optimizer = adam
out_dir = out
out_filename = out/MLP_nd9_nw-100-200-200-100-100-50-21_bias/outwithout5
out_infix = without5
print_step = 5
save_step = 10
seed = 1013886
tolerance = 1e-05

init_time = 0.000
Training...
MLP(
  (net): Sequential(
    (0): Linear(in_features=68, out_features=100, bias=True)
    (1): GELU()
    (2): Linear(in_features=100, out_features=200, bias=True)
    (3): GELU()
    (4): Linear(in_features=200, out_features=200, bias=True)
    (5): GELU()
    (6): Linear(in_features=200, out_features=100, bias=True)
    (7): GELU()
    (8): Linear(in_features=100, out_features=100, bias=True)
    (9): GELU()
    (10): Linear(in_features=100, out_features=50, bias=True)
    (11): GELU()
    (12): Linear(in_features=50, out_features=21, bias=True)
    (13): GELU()
    (14): Linear(in_features=21, out_features=1, bias=True)
  )
)

Total number of trainable parameters: 103643

Checkpoint found: 1000

batch_size = 300
bias = True
clear_checkpoint = False
clip_grad = 0
cuda = -1
device = cpu
dtype = float64
lr = 0.0005
max_step = 1000
n_in = 68
n_out = 1
net_depth = 9
net_width = (100, 200, 200, 100, 100, 50, 21)
no_stdout = False
optimizer = adam
out_dir = out
out_filename = out/MLP_nd9_nw-100-200-200-100-100-50-21_bias/outwithout5
out_infix = without5
print_step = 5
save_step = 10
seed = 21270400
tolerance = 1e-05

init_time = 0.000
Training...
MLP(
  (net): Sequential(
    (0): Linear(in_features=68, out_features=100, bias=True)
    (1): GELU()
    (2): Linear(in_features=100, out_features=200, bias=True)
    (3): GELU()
    (4): Linear(in_features=200, out_features=200, bias=True)
    (5): GELU()
    (6): Linear(in_features=200, out_features=100, bias=True)
    (7): GELU()
    (8): Linear(in_features=100, out_features=100, bias=True)
    (9): GELU()
    (10): Linear(in_features=100, out_features=50, bias=True)
    (11): GELU()
    (12): Linear(in_features=50, out_features=21, bias=True)
    (13): GELU()
    (14): Linear(in_features=21, out_features=1, bias=True)
  )
)

Total number of trainable parameters: 103643

Checkpoint found: 1000

batch_size = 300
bias = True
clear_checkpoint = False
clip_grad = 0
cuda = -1
device = cpu
dtype = float64
lr = 0.0005
max_step = 1000
n_in = 68
n_out = 1
net_depth = 9
net_width = (100, 200, 200, 100, 100, 50, 21)
no_stdout = False
optimizer = adam
out_dir = out
out_filename = out/MLP_nd9_nw-100-200-200-100-100-50-21_bias/outwithout5
out_infix = without5
print_step = 5
save_step = 10
seed = 18775039
tolerance = 1e-05

init_time = 0.000
Training...
MLP(
  (net): Sequential(
    (0): Linear(in_features=68, out_features=100, bias=True)
    (1): GELU()
    (2): Linear(in_features=100, out_features=200, bias=True)
    (3): GELU()
    (4): Linear(in_features=200, out_features=200, bias=True)
    (5): GELU()
    (6): Linear(in_features=200, out_features=100, bias=True)
    (7): GELU()
    (8): Linear(in_features=100, out_features=100, bias=True)
    (9): GELU()
    (10): Linear(in_features=100, out_features=50, bias=True)
    (11): GELU()
    (12): Linear(in_features=50, out_features=21, bias=True)
    (13): GELU()
    (14): Linear(in_features=21, out_features=1, bias=True)
  )
)

Total number of trainable parameters: 103643

Checkpoint found: 1000

batch_size = 300
bias = True
clear_checkpoint = False
clip_grad = 0
cuda = -1
device = cpu
dtype = float64
lr = 0.0005
max_step = 1000
n_in = 68
n_out = 1
net_depth = 9
net_width = (100, 200, 200, 100, 100, 50, 21)
no_stdout = False
optimizer = adam
out_dir = out
out_filename = out/MLP_nd9_nw-100-200-200-100-100-50-21_bias/outwithout5
out_infix = without5
print_step = 5
save_step = 10
seed = 14515848
tolerance = 1e-05

init_time = 0.000
Training...
MLP(
  (net): Sequential(
    (0): Linear(in_features=68, out_features=100, bias=True)
    (1): GELU()
    (2): Linear(in_features=100, out_features=200, bias=True)
    (3): GELU()
    (4): Linear(in_features=200, out_features=200, bias=True)
    (5): GELU()
    (6): Linear(in_features=200, out_features=100, bias=True)
    (7): GELU()
    (8): Linear(in_features=100, out_features=100, bias=True)
    (9): GELU()
    (10): Linear(in_features=100, out_features=50, bias=True)
    (11): GELU()
    (12): Linear(in_features=50, out_features=21, bias=True)
    (13): GELU()
    (14): Linear(in_features=21, out_features=1, bias=True)
  )
)

Total number of trainable parameters: 103643

Checkpoint found: 1000

batch_size = 300
bias = True
clear_checkpoint = False
clip_grad = 0
cuda = -1
device = cpu
dtype = float64
lr = 0.0005
max_step = 1000
n_in = 68
n_out = 1
net_depth = 9
net_width = (100, 200, 200, 100, 100, 50, 21)
no_stdout = False
optimizer = adam
out_dir = out
out_filename = out/MLP_nd9_nw-100-200-200-100-100-50-21_bias/outwithout5
out_infix = without5
print_step = 5
save_step = 10
seed = 85221741
tolerance = 1e-05

init_time = 0.000
Training...
MLP(
  (net): Sequential(
    (0): Linear(in_features=68, out_features=100, bias=True)
    (1): GELU()
    (2): Linear(in_features=100, out_features=200, bias=True)
    (3): GELU()
    (4): Linear(in_features=200, out_features=200, bias=True)
    (5): GELU()
    (6): Linear(in_features=200, out_features=100, bias=True)
    (7): GELU()
    (8): Linear(in_features=100, out_features=100, bias=True)
    (9): GELU()
    (10): Linear(in_features=100, out_features=50, bias=True)
    (11): GELU()
    (12): Linear(in_features=50, out_features=21, bias=True)
    (13): GELU()
    (14): Linear(in_features=21, out_features=1, bias=True)
  )
)

Total number of trainable parameters: 103643

Checkpoint found: 1000

batch_size = 300
bias = True
clear_checkpoint = False
clip_grad = 0
cuda = -1
device = cpu
dtype = float64
lr = 0.0005
max_step = 1000
n_in = 68
n_out = 1
net_depth = 9
net_width = (100, 200, 200, 100, 100, 50, 21)
no_stdout = False
optimizer = adam
out_dir = out
out_filename = out/MLP_nd9_nw-100-200-200-100-100-50-21_bias/outwithout5
out_infix = without5
print_step = 5
save_step = 10
seed = 67280096
tolerance = 1e-05

init_time = 0.000
Training...
MLP(
  (net): Sequential(
    (0): Linear(in_features=68, out_features=100, bias=True)
    (1): GELU()
    (2): Linear(in_features=100, out_features=200, bias=True)
    (3): GELU()
    (4): Linear(in_features=200, out_features=200, bias=True)
    (5): GELU()
    (6): Linear(in_features=200, out_features=100, bias=True)
    (7): GELU()
    (8): Linear(in_features=100, out_features=100, bias=True)
    (9): GELU()
    (10): Linear(in_features=100, out_features=50, bias=True)
    (11): GELU()
    (12): Linear(in_features=50, out_features=21, bias=True)
    (13): GELU()
    (14): Linear(in_features=21, out_features=1, bias=True)
  )
)

Total number of trainable parameters: 103643

Checkpoint found: 1000

batch_size = 300
bias = True
clear_checkpoint = False
clip_grad = 0
cuda = -1
device = cpu
dtype = float64
lr = 0.0005
max_step = 1000
n_in = 68
n_out = 1
net_depth = 9
net_width = (100, 200, 200, 100, 100, 50, 21)
no_stdout = False
optimizer = adam
out_dir = out
out_filename = out/MLP_nd9_nw-100-200-200-100-100-50-21_bias/outwithout5
out_infix = without5
print_step = 5
save_step = 10
seed = 48804708
tolerance = 1e-05

init_time = 0.000
Training...
MLP(
  (net): Sequential(
    (0): Linear(in_features=68, out_features=100, bias=True)
    (1): GELU()
    (2): Linear(in_features=100, out_features=200, bias=True)
    (3): GELU()
    (4): Linear(in_features=200, out_features=200, bias=True)
    (5): GELU()
    (6): Linear(in_features=200, out_features=100, bias=True)
    (7): GELU()
    (8): Linear(in_features=100, out_features=100, bias=True)
    (9): GELU()
    (10): Linear(in_features=100, out_features=50, bias=True)
    (11): GELU()
    (12): Linear(in_features=50, out_features=21, bias=True)
    (13): GELU()
    (14): Linear(in_features=21, out_features=1, bias=True)
  )
)

Total number of trainable parameters: 103643

Checkpoint found: 1000

batch_size = 300
bias = True
clear_checkpoint = False
clip_grad = 0
cuda = -1
device = cpu
dtype = float64
lr = 0.0005
max_step = 1000
n_in = 68
n_out = 1
net_depth = 9
net_width = (100, 200, 200, 100, 100, 50, 21)
no_stdout = False
optimizer = adam
out_dir = out
out_filename = out/MLP_nd9_nw-100-200-200-100-100-50-21_bias/outwithout5
out_infix = without5
print_step = 5
save_step = 10
seed = 24127639
tolerance = 1e-05

init_time = 0.000
Training...
MLP(
  (net): Sequential(
    (0): Linear(in_features=68, out_features=100, bias=True)
    (1): GELU()
    (2): Linear(in_features=100, out_features=200, bias=True)
    (3): GELU()
    (4): Linear(in_features=200, out_features=200, bias=True)
    (5): GELU()
    (6): Linear(in_features=200, out_features=100, bias=True)
    (7): GELU()
    (8): Linear(in_features=100, out_features=100, bias=True)
    (9): GELU()
    (10): Linear(in_features=100, out_features=50, bias=True)
    (11): GELU()
    (12): Linear(in_features=50, out_features=21, bias=True)
    (13): GELU()
    (14): Linear(in_features=21, out_features=1, bias=True)
  )
)

Total number of trainable parameters: 103643

Checkpoint found: 1000

batch_size = 300
bias = True
clear_checkpoint = False
clip_grad = 0
cuda = -1
device = cpu
dtype = float64
lr = 0.0005
max_step = 1000
n_in = 68
n_out = 1
net_depth = 9
net_width = (100, 200, 200, 100, 100, 50, 21)
no_stdout = False
optimizer = adam
out_dir = out
out_filename = out/MLP_nd9_nw-100-200-200-100-100-50-21_bias/outwithout5
out_infix = without5
print_step = 5
save_step = 10
seed = 93452197
tolerance = 1e-05

init_time = 0.000
Training...
MLP(
  (net): Sequential(
    (0): Linear(in_features=68, out_features=100, bias=True)
    (1): GELU()
    (2): Linear(in_features=100, out_features=200, bias=True)
    (3): GELU()
    (4): Linear(in_features=200, out_features=200, bias=True)
    (5): GELU()
    (6): Linear(in_features=200, out_features=100, bias=True)
    (7): GELU()
    (8): Linear(in_features=100, out_features=100, bias=True)
    (9): GELU()
    (10): Linear(in_features=100, out_features=50, bias=True)
    (11): GELU()
    (12): Linear(in_features=50, out_features=21, bias=True)
    (13): GELU()
    (14): Linear(in_features=21, out_features=1, bias=True)
  )
)

Total number of trainable parameters: 103643

Checkpoint found: 1000

batch_size = 300
bias = True
clear_checkpoint = False
clip_grad = 0
cuda = -1
device = cpu
dtype = float64
lr = 0.0005
max_step = 1000
n_in = 68
n_out = 1
net_depth = 9
net_width = (100, 200, 200, 100, 100, 50, 21)
no_stdout = False
optimizer = adam
out_dir = out
out_filename = out/MLP_nd9_nw-100-200-200-100-100-50-21_bias/outwithout5
out_infix = without5
print_step = 5
save_step = 10
seed = 21686804
tolerance = 1e-05

init_time = 0.000
Training...
MLP(
  (net): Sequential(
    (0): Linear(in_features=68, out_features=100, bias=True)
    (1): GELU()
    (2): Linear(in_features=100, out_features=200, bias=True)
    (3): GELU()
    (4): Linear(in_features=200, out_features=200, bias=True)
    (5): GELU()
    (6): Linear(in_features=200, out_features=100, bias=True)
    (7): GELU()
    (8): Linear(in_features=100, out_features=100, bias=True)
    (9): GELU()
    (10): Linear(in_features=100, out_features=50, bias=True)
    (11): GELU()
    (12): Linear(in_features=50, out_features=21, bias=True)
    (13): GELU()
    (14): Linear(in_features=21, out_features=1, bias=True)
  )
)

Total number of trainable parameters: 103643

Checkpoint found: 1000

batch_size = 300
bias = True
clear_checkpoint = False
clip_grad = 0
cuda = -1
device = cpu
dtype = float64
lr = 0.0005
max_step = 1000
n_in = 68
n_out = 1
net_depth = 9
net_width = (100, 200, 200, 100, 100, 50, 21)
no_stdout = False
optimizer = adam
out_dir = out
out_filename = out/MLP_nd9_nw-100-200-200-100-100-50-21_bias/outwithout5
out_infix = without5
print_step = 5
save_step = 10
seed = 67176215
tolerance = 1e-05

init_time = 0.000
Training...
MLP(
  (net): Sequential(
    (0): Linear(in_features=68, out_features=100, bias=True)
    (1): GELU()
    (2): Linear(in_features=100, out_features=200, bias=True)
    (3): GELU()
    (4): Linear(in_features=200, out_features=200, bias=True)
    (5): GELU()
    (6): Linear(in_features=200, out_features=100, bias=True)
    (7): GELU()
    (8): Linear(in_features=100, out_features=100, bias=True)
    (9): GELU()
    (10): Linear(in_features=100, out_features=50, bias=True)
    (11): GELU()
    (12): Linear(in_features=50, out_features=21, bias=True)
    (13): GELU()
    (14): Linear(in_features=21, out_features=1, bias=True)
  )
)

Total number of trainable parameters: 103643

Checkpoint found: 1000

batch_size = 300
bias = True
clear_checkpoint = False
clip_grad = 0
cuda = -1
device = cpu
dtype = float64
lr = 0.0005
max_step = 1000
n_in = 68
n_out = 1
net_depth = 9
net_width = (100, 200, 200, 100, 100, 50, 21)
no_stdout = False
optimizer = adam
out_dir = out
out_filename = out/MLP_nd9_nw-100-200-200-100-100-50-21_bias/outwithout5
out_infix = without5
print_step = 5
save_step = 10
seed = 62477889
tolerance = 1e-05

init_time = 0.000
Training...
MLP(
  (net): Sequential(
    (0): Linear(in_features=68, out_features=100, bias=True)
    (1): GELU()
    (2): Linear(in_features=100, out_features=200, bias=True)
    (3): GELU()
    (4): Linear(in_features=200, out_features=200, bias=True)
    (5): GELU()
    (6): Linear(in_features=200, out_features=100, bias=True)
    (7): GELU()
    (8): Linear(in_features=100, out_features=100, bias=True)
    (9): GELU()
    (10): Linear(in_features=100, out_features=50, bias=True)
    (11): GELU()
    (12): Linear(in_features=50, out_features=21, bias=True)
    (13): GELU()
    (14): Linear(in_features=21, out_features=1, bias=True)
  )
)

Total number of trainable parameters: 103643

Checkpoint found: 1000

batch_size = 300
bias = True
clear_checkpoint = False
clip_grad = 0
cuda = -1
device = cpu
dtype = float64
lr = 0.0005
max_step = 1000
n_in = 68
n_out = 1
net_depth = 9
net_width = (100, 200, 200, 100, 100, 50, 21)
no_stdout = False
optimizer = adam
out_dir = out
out_filename = out/MLP_nd9_nw-100-200-200-100-100-50-21_bias/outwithout5
out_infix = without5
print_step = 5
save_step = 10
seed = 68285299
tolerance = 1e-05

init_time = 0.000
Training...
MLP(
  (net): Sequential(
    (0): Linear(in_features=68, out_features=100, bias=True)
    (1): GELU()
    (2): Linear(in_features=100, out_features=200, bias=True)
    (3): GELU()
    (4): Linear(in_features=200, out_features=200, bias=True)
    (5): GELU()
    (6): Linear(in_features=200, out_features=100, bias=True)
    (7): GELU()
    (8): Linear(in_features=100, out_features=100, bias=True)
    (9): GELU()
    (10): Linear(in_features=100, out_features=50, bias=True)
    (11): GELU()
    (12): Linear(in_features=50, out_features=21, bias=True)
    (13): GELU()
    (14): Linear(in_features=21, out_features=1, bias=True)
  )
)

Total number of trainable parameters: 103643

Checkpoint found: 1000

batch_size = 300
bias = True
clear_checkpoint = False
clip_grad = 0
cuda = -1
device = cpu
dtype = float64
lr = 0.0005
max_step = 1000
n_in = 68
n_out = 1
net_depth = 9
net_width = (100, 200, 200, 100, 100, 50, 21)
no_stdout = False
optimizer = adam
out_dir = out
out_filename = out/MLP_nd9_nw-100-200-200-100-100-50-21_bias/outwithout5
out_infix = without5
print_step = 5
save_step = 10
seed = 98677455
tolerance = 1e-05

init_time = 0.000
Training...
MLP(
  (net): Sequential(
    (0): Linear(in_features=68, out_features=100, bias=True)
    (1): GELU()
    (2): Linear(in_features=100, out_features=200, bias=True)
    (3): GELU()
    (4): Linear(in_features=200, out_features=200, bias=True)
    (5): GELU()
    (6): Linear(in_features=200, out_features=100, bias=True)
    (7): GELU()
    (8): Linear(in_features=100, out_features=100, bias=True)
    (9): GELU()
    (10): Linear(in_features=100, out_features=50, bias=True)
    (11): GELU()
    (12): Linear(in_features=50, out_features=21, bias=True)
    (13): GELU()
    (14): Linear(in_features=21, out_features=1, bias=True)
  )
)

Total number of trainable parameters: 103643

Checkpoint found: 1000

batch_size = 300
bias = True
clear_checkpoint = False
clip_grad = 0
cuda = -1
device = cpu
dtype = float64
lr = 0.0005
max_step = 1000
n_in = 68
n_out = 1
net_depth = 9
net_width = (100, 200, 200, 100, 100, 50, 21)
no_stdout = False
optimizer = adam
out_dir = out
out_filename = out/MLP_nd9_nw-100-200-200-100-100-50-21_bias/outwithout5
out_infix = without5
print_step = 5
save_step = 10
seed = 3829876
tolerance = 1e-05

init_time = 0.000
Training...
MLP(
  (net): Sequential(
    (0): Linear(in_features=68, out_features=100, bias=True)
    (1): GELU()
    (2): Linear(in_features=100, out_features=200, bias=True)
    (3): GELU()
    (4): Linear(in_features=200, out_features=200, bias=True)
    (5): GELU()
    (6): Linear(in_features=200, out_features=100, bias=True)
    (7): GELU()
    (8): Linear(in_features=100, out_features=100, bias=True)
    (9): GELU()
    (10): Linear(in_features=100, out_features=50, bias=True)
    (11): GELU()
    (12): Linear(in_features=50, out_features=21, bias=True)
    (13): GELU()
    (14): Linear(in_features=21, out_features=1, bias=True)
  )
)

Total number of trainable parameters: 103643

Checkpoint found: 1000

batch_size = 300
bias = True
clear_checkpoint = False
clip_grad = 0
cuda = -1
device = cpu
dtype = float64
lr = 0.0005
max_step = 1000
n_in = 68
n_out = 1
net_depth = 9
net_width = (100, 200, 200, 100, 100, 50, 21)
no_stdout = False
optimizer = adam
out_dir = out
out_filename = out/MLP_nd9_nw-100-200-200-100-100-50-21_bias/outwithout5
out_infix = without5
print_step = 5
save_step = 10
seed = 24645294
tolerance = 1e-05

init_time = 0.000
Training...
MLP(
  (net): Sequential(
    (0): Linear(in_features=68, out_features=100, bias=True)
    (1): GELU()
    (2): Linear(in_features=100, out_features=200, bias=True)
    (3): GELU()
    (4): Linear(in_features=200, out_features=200, bias=True)
    (5): GELU()
    (6): Linear(in_features=200, out_features=100, bias=True)
    (7): GELU()
    (8): Linear(in_features=100, out_features=100, bias=True)
    (9): GELU()
    (10): Linear(in_features=100, out_features=50, bias=True)
    (11): GELU()
    (12): Linear(in_features=50, out_features=21, bias=True)
    (13): GELU()
    (14): Linear(in_features=21, out_features=1, bias=True)
  )
)

Total number of trainable parameters: 103643

Checkpoint found: 1000

batch_size = 300
bias = True
clear_checkpoint = False
clip_grad = 0
cuda = -1
device = cpu
dtype = float64
lr = 0.0005
max_step = 1000
n_in = 68
n_out = 1
net_depth = 9
net_width = (100, 200, 200, 100, 100, 50, 21)
no_stdout = False
optimizer = adam
out_dir = out
out_filename = out/MLP_nd9_nw-100-200-200-100-100-50-21_bias/outwithout5
out_infix = without5
print_step = 5
save_step = 10
seed = 18899666
tolerance = 1e-05

init_time = 0.000
Training...
MLP(
  (net): Sequential(
    (0): Linear(in_features=68, out_features=100, bias=True)
    (1): GELU()
    (2): Linear(in_features=100, out_features=200, bias=True)
    (3): GELU()
    (4): Linear(in_features=200, out_features=200, bias=True)
    (5): GELU()
    (6): Linear(in_features=200, out_features=100, bias=True)
    (7): GELU()
    (8): Linear(in_features=100, out_features=100, bias=True)
    (9): GELU()
    (10): Linear(in_features=100, out_features=50, bias=True)
    (11): GELU()
    (12): Linear(in_features=50, out_features=21, bias=True)
    (13): GELU()
    (14): Linear(in_features=21, out_features=1, bias=True)
  )
)

Total number of trainable parameters: 103643

Checkpoint found: 1000

batch_size = 300
bias = True
clear_checkpoint = False
clip_grad = 0
cuda = -1
device = cpu
dtype = float64
lr = 0.0005
max_step = 1000
n_in = 68
n_out = 1
net_depth = 9
net_width = (100, 200, 200, 100, 100, 50, 21)
no_stdout = False
optimizer = adam
out_dir = out
out_filename = out/MLP_nd9_nw-100-200-200-100-100-50-21_bias/outwithout5
out_infix = without5
print_step = 5
save_step = 10
seed = 1668356
tolerance = 1e-05

init_time = 0.000
Training...
MLP(
  (net): Sequential(
    (0): Linear(in_features=68, out_features=100, bias=True)
    (1): GELU()
    (2): Linear(in_features=100, out_features=200, bias=True)
    (3): GELU()
    (4): Linear(in_features=200, out_features=200, bias=True)
    (5): GELU()
    (6): Linear(in_features=200, out_features=100, bias=True)
    (7): GELU()
    (8): Linear(in_features=100, out_features=100, bias=True)
    (9): GELU()
    (10): Linear(in_features=100, out_features=50, bias=True)
    (11): GELU()
    (12): Linear(in_features=50, out_features=21, bias=True)
    (13): GELU()
    (14): Linear(in_features=21, out_features=1, bias=True)
  )
)

Total number of trainable parameters: 103643

Checkpoint found: 1000

batch_size = 300
bias = True
clear_checkpoint = False
clip_grad = 0
cuda = -1
device = cpu
dtype = float64
lr = 0.0005
max_step = 1000
n_in = 68
n_out = 1
net_depth = 9
net_width = (100, 200, 200, 100, 100, 50, 21)
no_stdout = False
optimizer = adam
out_dir = out
out_filename = out/MLP_nd9_nw-100-200-200-100-100-50-21_bias/outwithout5
out_infix = without5
print_step = 5
save_step = 10
seed = 10847897
tolerance = 1e-05

init_time = 0.000
Training...
MLP(
  (net): Sequential(
    (0): Linear(in_features=68, out_features=100, bias=True)
    (1): GELU()
    (2): Linear(in_features=100, out_features=200, bias=True)
    (3): GELU()
    (4): Linear(in_features=200, out_features=200, bias=True)
    (5): GELU()
    (6): Linear(in_features=200, out_features=100, bias=True)
    (7): GELU()
    (8): Linear(in_features=100, out_features=100, bias=True)
    (9): GELU()
    (10): Linear(in_features=100, out_features=50, bias=True)
    (11): GELU()
    (12): Linear(in_features=50, out_features=21, bias=True)
    (13): GELU()
    (14): Linear(in_features=21, out_features=1, bias=True)
  )
)

Total number of trainable parameters: 103643

Checkpoint found: 1000

batch_size = 300
bias = True
clear_checkpoint = False
clip_grad = 0
cuda = -1
device = cpu
dtype = float64
lr = 0.0005
max_step = 1000
n_in = 68
n_out = 1
net_depth = 9
net_width = (100, 200, 200, 100, 100, 50, 21)
no_stdout = False
optimizer = adam
out_dir = out
out_filename = out/MLP_nd9_nw-100-200-200-100-100-50-21_bias/outwithout5
out_infix = without5
print_step = 5
save_step = 10
seed = 97165979
tolerance = 1e-05

init_time = 0.000
Training...
MLP(
  (net): Sequential(
    (0): Linear(in_features=68, out_features=100, bias=True)
    (1): GELU()
    (2): Linear(in_features=100, out_features=200, bias=True)
    (3): GELU()
    (4): Linear(in_features=200, out_features=200, bias=True)
    (5): GELU()
    (6): Linear(in_features=200, out_features=100, bias=True)
    (7): GELU()
    (8): Linear(in_features=100, out_features=100, bias=True)
    (9): GELU()
    (10): Linear(in_features=100, out_features=50, bias=True)
    (11): GELU()
    (12): Linear(in_features=50, out_features=21, bias=True)
    (13): GELU()
    (14): Linear(in_features=21, out_features=1, bias=True)
  )
)

Total number of trainable parameters: 103643

Checkpoint found: 1000

batch_size = 300
bias = True
clear_checkpoint = False
clip_grad = 0
cuda = -1
device = cpu
dtype = float64
lr = 0.0005
max_step = 1000
n_in = 68
n_out = 1
net_depth = 9
net_width = (100, 200, 200, 100, 100, 50, 21)
no_stdout = False
optimizer = adam
out_dir = out
out_filename = out/MLP_nd9_nw-100-200-200-100-100-50-21_bias/outwithout5
out_infix = without5
print_step = 5
save_step = 10
seed = 8247116
tolerance = 1e-05

init_time = 0.000
Training...
MLP(
  (net): Sequential(
    (0): Linear(in_features=68, out_features=100, bias=True)
    (1): GELU()
    (2): Linear(in_features=100, out_features=200, bias=True)
    (3): GELU()
    (4): Linear(in_features=200, out_features=200, bias=True)
    (5): GELU()
    (6): Linear(in_features=200, out_features=100, bias=True)
    (7): GELU()
    (8): Linear(in_features=100, out_features=100, bias=True)
    (9): GELU()
    (10): Linear(in_features=100, out_features=50, bias=True)
    (11): GELU()
    (12): Linear(in_features=50, out_features=21, bias=True)
    (13): GELU()
    (14): Linear(in_features=21, out_features=1, bias=True)
  )
)

Total number of trainable parameters: 103643

Checkpoint found: 1000

batch_size = 300
bias = True
clear_checkpoint = False
clip_grad = 0
cuda = -1
device = cpu
dtype = float64
lr = 0.0005
max_step = 1000
n_in = 68
n_out = 1
net_depth = 9
net_width = (100, 200, 200, 100, 100, 50, 21)
no_stdout = False
optimizer = adam
out_dir = out
out_filename = out/MLP_nd9_nw-100-200-200-100-100-50-21_bias/outwithout5
out_infix = without5
print_step = 5
save_step = 10
seed = 82366086
tolerance = 1e-05

init_time = 0.000
Training...
MLP(
  (net): Sequential(
    (0): Linear(in_features=68, out_features=100, bias=True)
    (1): GELU()
    (2): Linear(in_features=100, out_features=200, bias=True)
    (3): GELU()
    (4): Linear(in_features=200, out_features=200, bias=True)
    (5): GELU()
    (6): Linear(in_features=200, out_features=100, bias=True)
    (7): GELU()
    (8): Linear(in_features=100, out_features=100, bias=True)
    (9): GELU()
    (10): Linear(in_features=100, out_features=50, bias=True)
    (11): GELU()
    (12): Linear(in_features=50, out_features=21, bias=True)
    (13): GELU()
    (14): Linear(in_features=21, out_features=1, bias=True)
  )
)

Total number of trainable parameters: 103643

Checkpoint found: 1000

batch_size = 300
bias = True
clear_checkpoint = False
clip_grad = 0
cuda = -1
device = cpu
dtype = float64
lr = 0.0005
max_step = 1000
n_in = 68
n_out = 1
net_depth = 9
net_width = (100, 200, 200, 100, 100, 50, 21)
no_stdout = False
optimizer = adam
out_dir = out
out_filename = out/MLP_nd9_nw-100-200-200-100-100-50-21_bias/outwithout5
out_infix = without5
print_step = 5
save_step = 10
seed = 18475110
tolerance = 1e-05

init_time = 0.000
Training...
MLP(
  (net): Sequential(
    (0): Linear(in_features=68, out_features=100, bias=True)
    (1): GELU()
    (2): Linear(in_features=100, out_features=200, bias=True)
    (3): GELU()
    (4): Linear(in_features=200, out_features=200, bias=True)
    (5): GELU()
    (6): Linear(in_features=200, out_features=100, bias=True)
    (7): GELU()
    (8): Linear(in_features=100, out_features=100, bias=True)
    (9): GELU()
    (10): Linear(in_features=100, out_features=50, bias=True)
    (11): GELU()
    (12): Linear(in_features=50, out_features=21, bias=True)
    (13): GELU()
    (14): Linear(in_features=21, out_features=1, bias=True)
  )
)

Total number of trainable parameters: 103643

Checkpoint found: 1000

batch_size = 300
bias = True
clear_checkpoint = False
clip_grad = 0
cuda = -1
device = cpu
dtype = float64
lr = 0.0005
max_step = 1000
n_in = 68
n_out = 1
net_depth = 9
net_width = (100, 200, 200, 100, 100, 50, 21)
no_stdout = False
optimizer = adam
out_dir = out
out_filename = out/MLP_nd9_nw-100-200-200-100-100-50-21_bias/outwithout5
out_infix = without5
print_step = 5
save_step = 10
seed = 73816239
tolerance = 1e-05

init_time = 0.000
Training...
MLP(
  (net): Sequential(
    (0): Linear(in_features=68, out_features=100, bias=True)
    (1): GELU()
    (2): Linear(in_features=100, out_features=200, bias=True)
    (3): GELU()
    (4): Linear(in_features=200, out_features=200, bias=True)
    (5): GELU()
    (6): Linear(in_features=200, out_features=100, bias=True)
    (7): GELU()
    (8): Linear(in_features=100, out_features=100, bias=True)
    (9): GELU()
    (10): Linear(in_features=100, out_features=50, bias=True)
    (11): GELU()
    (12): Linear(in_features=50, out_features=21, bias=True)
    (13): GELU()
    (14): Linear(in_features=21, out_features=1, bias=True)
  )
)

Total number of trainable parameters: 103643

Checkpoint found: 1000

batch_size = 300
bias = True
clear_checkpoint = False
clip_grad = 0
cuda = -1
device = cpu
dtype = float64
lr = 0.0005
max_step = 1000
n_in = 68
n_out = 1
net_depth = 9
net_width = (100, 200, 200, 100, 100, 50, 21)
no_stdout = False
optimizer = adam
out_dir = out
out_filename = out/MLP_nd9_nw-100-200-200-100-100-50-21_bias/outwithout5
out_infix = without5
print_step = 5
save_step = 10
seed = 608682
tolerance = 1e-05

init_time = 0.000
Training...
MLP(
  (net): Sequential(
    (0): Linear(in_features=68, out_features=100, bias=True)
    (1): GELU()
    (2): Linear(in_features=100, out_features=200, bias=True)
    (3): GELU()
    (4): Linear(in_features=200, out_features=200, bias=True)
    (5): GELU()
    (6): Linear(in_features=200, out_features=100, bias=True)
    (7): GELU()
    (8): Linear(in_features=100, out_features=100, bias=True)
    (9): GELU()
    (10): Linear(in_features=100, out_features=50, bias=True)
    (11): GELU()
    (12): Linear(in_features=50, out_features=21, bias=True)
    (13): GELU()
    (14): Linear(in_features=21, out_features=1, bias=True)
  )
)

Total number of trainable parameters: 103643

Checkpoint found: 1000

batch_size = 300
bias = True
clear_checkpoint = False
clip_grad = 0
cuda = -1
device = cpu
dtype = float64
lr = 0.0005
max_step = 1000
n_in = 68
n_out = 1
net_depth = 9
net_width = (100, 200, 200, 100, 100, 50, 21)
no_stdout = False
optimizer = adam
out_dir = out
out_filename = out/MLP_nd9_nw-100-200-200-100-100-50-21_bias/outwithout5
out_infix = without5
print_step = 5
save_step = 10
seed = 17112755
tolerance = 1e-05

init_time = 0.000
Training...
MLP(
  (net): Sequential(
    (0): Linear(in_features=68, out_features=100, bias=True)
    (1): GELU()
    (2): Linear(in_features=100, out_features=200, bias=True)
    (3): GELU()
    (4): Linear(in_features=200, out_features=200, bias=True)
    (5): GELU()
    (6): Linear(in_features=200, out_features=100, bias=True)
    (7): GELU()
    (8): Linear(in_features=100, out_features=100, bias=True)
    (9): GELU()
    (10): Linear(in_features=100, out_features=50, bias=True)
    (11): GELU()
    (12): Linear(in_features=50, out_features=21, bias=True)
    (13): GELU()
    (14): Linear(in_features=21, out_features=1, bias=True)
  )
)

Total number of trainable parameters: 103643

Checkpoint found: 1000

batch_size = 300
bias = True
clear_checkpoint = False
clip_grad = 0
cuda = -1
device = cpu
dtype = float64
lr = 0.0005
max_step = 1000
n_in = 68
n_out = 1
net_depth = 9
net_width = (100, 200, 200, 100, 100, 50, 21)
no_stdout = False
optimizer = adam
out_dir = out
out_filename = out/MLP_nd9_nw-100-200-200-100-100-50-21_bias/outwithout5
out_infix = without5
print_step = 5
save_step = 10
seed = 53923330
tolerance = 1e-05

init_time = 0.000
Training...
MLP(
  (net): Sequential(
    (0): Linear(in_features=68, out_features=100, bias=True)
    (1): GELU()
    (2): Linear(in_features=100, out_features=200, bias=True)
    (3): GELU()
    (4): Linear(in_features=200, out_features=200, bias=True)
    (5): GELU()
    (6): Linear(in_features=200, out_features=100, bias=True)
    (7): GELU()
    (8): Linear(in_features=100, out_features=100, bias=True)
    (9): GELU()
    (10): Linear(in_features=100, out_features=50, bias=True)
    (11): GELU()
    (12): Linear(in_features=50, out_features=21, bias=True)
    (13): GELU()
    (14): Linear(in_features=21, out_features=1, bias=True)
  )
)

Total number of trainable parameters: 103643

Checkpoint found: 1000

batch_size = 300
bias = True
clear_checkpoint = False
clip_grad = 0
cuda = -1
device = cpu
dtype = float64
lr = 0.0005
max_step = 1000
n_in = 68
n_out = 1
net_depth = 9
net_width = (100, 200, 200, 100, 100, 50, 21)
no_stdout = False
optimizer = adam
out_dir = out
out_filename = out/MLP_nd9_nw-100-200-200-100-100-50-21_bias/outwithout5
out_infix = without5
print_step = 5
save_step = 10
seed = 95332893
tolerance = 1e-05

init_time = 0.000
Training...
MLP(
  (net): Sequential(
    (0): Linear(in_features=68, out_features=100, bias=True)
    (1): GELU()
    (2): Linear(in_features=100, out_features=200, bias=True)
    (3): GELU()
    (4): Linear(in_features=200, out_features=200, bias=True)
    (5): GELU()
    (6): Linear(in_features=200, out_features=100, bias=True)
    (7): GELU()
    (8): Linear(in_features=100, out_features=100, bias=True)
    (9): GELU()
    (10): Linear(in_features=100, out_features=50, bias=True)
    (11): GELU()
    (12): Linear(in_features=50, out_features=21, bias=True)
    (13): GELU()
    (14): Linear(in_features=21, out_features=1, bias=True)
  )
)

Total number of trainable parameters: 103643

Checkpoint found: 1000

batch_size = 300
bias = True
clear_checkpoint = False
clip_grad = 0
cuda = -1
device = cpu
dtype = float64
lr = 0.0005
max_step = 1000
n_in = 68
n_out = 1
net_depth = 9
net_width = (100, 200, 200, 100, 100, 50, 21)
no_stdout = False
optimizer = adam
out_dir = out
out_filename = out/MLP_nd9_nw-100-200-200-100-100-50-21_bias/outwithout5
out_infix = without5
print_step = 5
save_step = 10
seed = 76379337
tolerance = 1e-05

init_time = 0.000
Training...
MLP(
  (net): Sequential(
    (0): Linear(in_features=68, out_features=100, bias=True)
    (1): GELU()
    (2): Linear(in_features=100, out_features=200, bias=True)
    (3): GELU()
    (4): Linear(in_features=200, out_features=200, bias=True)
    (5): GELU()
    (6): Linear(in_features=200, out_features=100, bias=True)
    (7): GELU()
    (8): Linear(in_features=100, out_features=100, bias=True)
    (9): GELU()
    (10): Linear(in_features=100, out_features=50, bias=True)
    (11): GELU()
    (12): Linear(in_features=50, out_features=21, bias=True)
    (13): GELU()
    (14): Linear(in_features=21, out_features=1, bias=True)
  )
)

Total number of trainable parameters: 103643

Checkpoint found: 1000

batch_size = 300
bias = True
clear_checkpoint = False
clip_grad = 0
cuda = -1
device = cpu
dtype = float64
lr = 0.0005
max_step = 1000
n_in = 68
n_out = 1
net_depth = 9
net_width = (100, 200, 200, 100, 100, 50, 21)
no_stdout = False
optimizer = adam
out_dir = out
out_filename = out/MLP_nd9_nw-100-200-200-100-100-50-21_bias/outwithout5
out_infix = without5
print_step = 5
save_step = 10
seed = 73431601
tolerance = 1e-05

init_time = 0.000
Training...
MLP(
  (net): Sequential(
    (0): Linear(in_features=68, out_features=100, bias=True)
    (1): GELU()
    (2): Linear(in_features=100, out_features=200, bias=True)
    (3): GELU()
    (4): Linear(in_features=200, out_features=200, bias=True)
    (5): GELU()
    (6): Linear(in_features=200, out_features=100, bias=True)
    (7): GELU()
    (8): Linear(in_features=100, out_features=100, bias=True)
    (9): GELU()
    (10): Linear(in_features=100, out_features=50, bias=True)
    (11): GELU()
    (12): Linear(in_features=50, out_features=21, bias=True)
    (13): GELU()
    (14): Linear(in_features=21, out_features=1, bias=True)
  )
)

Total number of trainable parameters: 103643

Checkpoint found: 1000

batch_size = 300
bias = True
clear_checkpoint = False
clip_grad = 0
cuda = -1
device = cpu
dtype = float64
lr = 0.0005
max_step = 1000
n_in = 68
n_out = 1
net_depth = 9
net_width = (100, 200, 200, 100, 100, 50, 21)
no_stdout = False
optimizer = adam
out_dir = out
out_filename = out/MLP_nd9_nw-100-200-200-100-100-50-21_bias/outwithout5
out_infix = without5
print_step = 5
save_step = 10
seed = 70786336
tolerance = 1e-05

init_time = 0.000
Training...
MLP(
  (net): Sequential(
    (0): Linear(in_features=68, out_features=100, bias=True)
    (1): GELU()
    (2): Linear(in_features=100, out_features=200, bias=True)
    (3): GELU()
    (4): Linear(in_features=200, out_features=200, bias=True)
    (5): GELU()
    (6): Linear(in_features=200, out_features=100, bias=True)
    (7): GELU()
    (8): Linear(in_features=100, out_features=100, bias=True)
    (9): GELU()
    (10): Linear(in_features=100, out_features=50, bias=True)
    (11): GELU()
    (12): Linear(in_features=50, out_features=21, bias=True)
    (13): GELU()
    (14): Linear(in_features=21, out_features=1, bias=True)
  )
)

Total number of trainable parameters: 103643

Checkpoint found: 1000

batch_size = 300
bias = True
clear_checkpoint = False
clip_grad = 0
cuda = -1
device = cpu
dtype = float64
lr = 0.0005
max_step = 1000
n_in = 68
n_out = 1
net_depth = 9
net_width = (100, 200, 200, 100, 100, 50, 21)
no_stdout = False
optimizer = adam
out_dir = out
out_filename = out/MLP_nd9_nw-100-200-200-100-100-50-21_bias/outwithout5
out_infix = without5
print_step = 5
save_step = 10
seed = 37734090
tolerance = 1e-05

init_time = 0.000
Training...
MLP(
  (net): Sequential(
    (0): Linear(in_features=68, out_features=100, bias=True)
    (1): GELU()
    (2): Linear(in_features=100, out_features=200, bias=True)
    (3): GELU()
    (4): Linear(in_features=200, out_features=200, bias=True)
    (5): GELU()
    (6): Linear(in_features=200, out_features=100, bias=True)
    (7): GELU()
    (8): Linear(in_features=100, out_features=100, bias=True)
    (9): GELU()
    (10): Linear(in_features=100, out_features=50, bias=True)
    (11): GELU()
    (12): Linear(in_features=50, out_features=21, bias=True)
    (13): GELU()
    (14): Linear(in_features=21, out_features=1, bias=True)
  )
)

Total number of trainable parameters: 103643

Checkpoint found: 1000

batch_size = 300
bias = True
clear_checkpoint = False
clip_grad = 0
cuda = -1
device = cpu
dtype = float64
lr = 0.0005
max_step = 1000
n_in = 68
n_out = 1
net_depth = 9
net_width = (100, 200, 200, 100, 100, 50, 21)
no_stdout = False
optimizer = adam
out_dir = out
out_filename = out/MLP_nd9_nw-100-200-200-100-100-50-21_bias/outwithout5
out_infix = without5
print_step = 5
save_step = 10
seed = 13857417
tolerance = 1e-05

init_time = 0.000
Training...
MLP(
  (net): Sequential(
    (0): Linear(in_features=68, out_features=100, bias=True)
    (1): GELU()
    (2): Linear(in_features=100, out_features=200, bias=True)
    (3): GELU()
    (4): Linear(in_features=200, out_features=200, bias=True)
    (5): GELU()
    (6): Linear(in_features=200, out_features=100, bias=True)
    (7): GELU()
    (8): Linear(in_features=100, out_features=100, bias=True)
    (9): GELU()
    (10): Linear(in_features=100, out_features=50, bias=True)
    (11): GELU()
    (12): Linear(in_features=50, out_features=21, bias=True)
    (13): GELU()
    (14): Linear(in_features=21, out_features=1, bias=True)
  )
)

Total number of trainable parameters: 103643

Checkpoint found: 1000

batch_size = 300
bias = True
clear_checkpoint = False
clip_grad = 0
cuda = -1
device = cpu
dtype = float64
lr = 0.0005
max_step = 1000
n_in = 68
n_out = 1
net_depth = 9
net_width = (100, 200, 200, 100, 100, 50, 21)
no_stdout = False
optimizer = adam
out_dir = out
out_filename = out/MLP_nd9_nw-100-200-200-100-100-50-21_bias/outwithout5
out_infix = without5
print_step = 5
save_step = 10
seed = 9989516
tolerance = 1e-05

init_time = 0.000
Training...
MLP(
  (net): Sequential(
    (0): Linear(in_features=68, out_features=100, bias=True)
    (1): GELU()
    (2): Linear(in_features=100, out_features=200, bias=True)
    (3): GELU()
    (4): Linear(in_features=200, out_features=200, bias=True)
    (5): GELU()
    (6): Linear(in_features=200, out_features=100, bias=True)
    (7): GELU()
    (8): Linear(in_features=100, out_features=100, bias=True)
    (9): GELU()
    (10): Linear(in_features=100, out_features=50, bias=True)
    (11): GELU()
    (12): Linear(in_features=50, out_features=21, bias=True)
    (13): GELU()
    (14): Linear(in_features=21, out_features=1, bias=True)
  )
)

Total number of trainable parameters: 103643

Checkpoint found: 1000

batch_size = 300
bias = True
clear_checkpoint = False
clip_grad = 0
cuda = -1
device = cpu
dtype = float64
lr = 0.0005
max_step = 1000
n_in = 68
n_out = 1
net_depth = 9
net_width = (100, 200, 200, 100, 100, 50, 21)
no_stdout = False
optimizer = adam
out_dir = out
out_filename = out/MLP_nd9_nw-100-200-200-100-100-50-21_bias/outwithout5
out_infix = without5
print_step = 5
save_step = 10
seed = 68836320
tolerance = 1e-05

init_time = 0.000
Training...
MLP(
  (net): Sequential(
    (0): Linear(in_features=68, out_features=100, bias=True)
    (1): GELU()
    (2): Linear(in_features=100, out_features=200, bias=True)
    (3): GELU()
    (4): Linear(in_features=200, out_features=200, bias=True)
    (5): GELU()
    (6): Linear(in_features=200, out_features=100, bias=True)
    (7): GELU()
    (8): Linear(in_features=100, out_features=100, bias=True)
    (9): GELU()
    (10): Linear(in_features=100, out_features=50, bias=True)
    (11): GELU()
    (12): Linear(in_features=50, out_features=21, bias=True)
    (13): GELU()
    (14): Linear(in_features=21, out_features=1, bias=True)
  )
)

Total number of trainable parameters: 103643

Checkpoint found: 1000

batch_size = 300
bias = True
clear_checkpoint = False
clip_grad = 0
cuda = -1
device = cpu
dtype = float64
lr = 0.0005
max_step = 1000
n_in = 68
n_out = 1
net_depth = 9
net_width = (100, 200, 200, 100, 100, 50, 21)
no_stdout = False
optimizer = adam
out_dir = out
out_filename = out/MLP_nd9_nw-100-200-200-100-100-50-21_bias/outwithout5
out_infix = without5
print_step = 5
save_step = 10
seed = 77312723
tolerance = 1e-05

init_time = 0.000
Training...
MLP(
  (net): Sequential(
    (0): Linear(in_features=68, out_features=100, bias=True)
    (1): GELU()
    (2): Linear(in_features=100, out_features=200, bias=True)
    (3): GELU()
    (4): Linear(in_features=200, out_features=200, bias=True)
    (5): GELU()
    (6): Linear(in_features=200, out_features=100, bias=True)
    (7): GELU()
    (8): Linear(in_features=100, out_features=100, bias=True)
    (9): GELU()
    (10): Linear(in_features=100, out_features=50, bias=True)
    (11): GELU()
    (12): Linear(in_features=50, out_features=21, bias=True)
    (13): GELU()
    (14): Linear(in_features=21, out_features=1, bias=True)
  )
)

Total number of trainable parameters: 103643

Checkpoint found: 1000

batch_size = 300
bias = True
clear_checkpoint = False
clip_grad = 0
cuda = -1
device = cpu
dtype = float64
lr = 0.0005
max_step = 1000
n_in = 68
n_out = 1
net_depth = 9
net_width = (100, 200, 200, 100, 100, 50, 21)
no_stdout = False
optimizer = adam
out_dir = out
out_filename = out/MLP_nd9_nw-100-200-200-100-100-50-21_bias/outwithout5
out_infix = without5
print_step = 5
save_step = 10
seed = 40868170
tolerance = 1e-05

init_time = 0.000
Training...
MLP(
  (net): Sequential(
    (0): Linear(in_features=68, out_features=100, bias=True)
    (1): GELU()
    (2): Linear(in_features=100, out_features=200, bias=True)
    (3): GELU()
    (4): Linear(in_features=200, out_features=200, bias=True)
    (5): GELU()
    (6): Linear(in_features=200, out_features=100, bias=True)
    (7): GELU()
    (8): Linear(in_features=100, out_features=100, bias=True)
    (9): GELU()
    (10): Linear(in_features=100, out_features=50, bias=True)
    (11): GELU()
    (12): Linear(in_features=50, out_features=21, bias=True)
    (13): GELU()
    (14): Linear(in_features=21, out_features=1, bias=True)
  )
)

Total number of trainable parameters: 103643

Checkpoint found: 1000

batch_size = 300
bias = True
clear_checkpoint = False
clip_grad = 0
cuda = -1
device = cpu
dtype = float64
lr = 0.0005
max_step = 1000
n_in = 68
n_out = 1
net_depth = 9
net_width = (100, 200, 200, 100, 100, 50, 21)
no_stdout = False
optimizer = adam
out_dir = out
out_filename = out/MLP_nd9_nw-100-200-200-100-100-50-21_bias/outwithout5
out_infix = without5
print_step = 5
save_step = 10
seed = 77051096
tolerance = 1e-05

init_time = 0.000
Training...
MLP(
  (net): Sequential(
    (0): Linear(in_features=68, out_features=100, bias=True)
    (1): GELU()
    (2): Linear(in_features=100, out_features=200, bias=True)
    (3): GELU()
    (4): Linear(in_features=200, out_features=200, bias=True)
    (5): GELU()
    (6): Linear(in_features=200, out_features=100, bias=True)
    (7): GELU()
    (8): Linear(in_features=100, out_features=100, bias=True)
    (9): GELU()
    (10): Linear(in_features=100, out_features=50, bias=True)
    (11): GELU()
    (12): Linear(in_features=50, out_features=21, bias=True)
    (13): GELU()
    (14): Linear(in_features=21, out_features=1, bias=True)
  )
)

Total number of trainable parameters: 103643

Checkpoint found: 1000

batch_size = 300
bias = True
clear_checkpoint = False
clip_grad = 0
cuda = -1
device = cpu
dtype = float64
lr = 0.0005
max_step = 1000
n_in = 68
n_out = 1
net_depth = 9
net_width = (100, 200, 200, 100, 100, 50, 21)
no_stdout = False
optimizer = adam
out_dir = out
out_filename = out/MLP_nd9_nw-100-200-200-100-100-50-21_bias/outwithout5
out_infix = without5
print_step = 5
save_step = 10
seed = 26457149
tolerance = 1e-05

init_time = 0.000
Training...
MLP(
  (net): Sequential(
    (0): Linear(in_features=68, out_features=100, bias=True)
    (1): GELU()
    (2): Linear(in_features=100, out_features=200, bias=True)
    (3): GELU()
    (4): Linear(in_features=200, out_features=200, bias=True)
    (5): GELU()
    (6): Linear(in_features=200, out_features=100, bias=True)
    (7): GELU()
    (8): Linear(in_features=100, out_features=100, bias=True)
    (9): GELU()
    (10): Linear(in_features=100, out_features=50, bias=True)
    (11): GELU()
    (12): Linear(in_features=50, out_features=21, bias=True)
    (13): GELU()
    (14): Linear(in_features=21, out_features=1, bias=True)
  )
)

Total number of trainable parameters: 103643

Checkpoint found: 1000

batch_size = 300
bias = True
clear_checkpoint = False
clip_grad = 0
cuda = -1
device = cpu
dtype = float64
lr = 0.0005
max_step = 1000
n_in = 68
n_out = 1
net_depth = 9
net_width = (100, 200, 200, 100, 100, 50, 21)
no_stdout = False
optimizer = adam
out_dir = out
out_filename = out/MLP_nd9_nw-100-200-200-100-100-50-21_bias/outwithout5
out_infix = without5
print_step = 5
save_step = 10
seed = 5818128
tolerance = 1e-05

init_time = 0.000
Training...
MLP(
  (net): Sequential(
    (0): Linear(in_features=68, out_features=100, bias=True)
    (1): GELU()
    (2): Linear(in_features=100, out_features=200, bias=True)
    (3): GELU()
    (4): Linear(in_features=200, out_features=200, bias=True)
    (5): GELU()
    (6): Linear(in_features=200, out_features=100, bias=True)
    (7): GELU()
    (8): Linear(in_features=100, out_features=100, bias=True)
    (9): GELU()
    (10): Linear(in_features=100, out_features=50, bias=True)
    (11): GELU()
    (12): Linear(in_features=50, out_features=21, bias=True)
    (13): GELU()
    (14): Linear(in_features=21, out_features=1, bias=True)
  )
)

Total number of trainable parameters: 103643

Checkpoint found: 1000

batch_size = 300
bias = True
clear_checkpoint = False
clip_grad = 0
cuda = -1
device = cpu
dtype = float64
lr = 0.0005
max_step = 1000
n_in = 68
n_out = 1
net_depth = 9
net_width = (100, 200, 200, 100, 100, 50, 21)
no_stdout = False
optimizer = adam
out_dir = out
out_filename = out/MLP_nd9_nw-100-200-200-100-100-50-21_bias/outwithout5
out_infix = without5
print_step = 5
save_step = 10
seed = 58586184
tolerance = 1e-05

init_time = 0.000
Training...
MLP(
  (net): Sequential(
    (0): Linear(in_features=68, out_features=100, bias=True)
    (1): GELU()
    (2): Linear(in_features=100, out_features=200, bias=True)
    (3): GELU()
    (4): Linear(in_features=200, out_features=200, bias=True)
    (5): GELU()
    (6): Linear(in_features=200, out_features=100, bias=True)
    (7): GELU()
    (8): Linear(in_features=100, out_features=100, bias=True)
    (9): GELU()
    (10): Linear(in_features=100, out_features=50, bias=True)
    (11): GELU()
    (12): Linear(in_features=50, out_features=21, bias=True)
    (13): GELU()
    (14): Linear(in_features=21, out_features=1, bias=True)
  )
)

Total number of trainable parameters: 103643

Checkpoint found: 1000

batch_size = 300
bias = True
clear_checkpoint = False
clip_grad = 0
cuda = -1
device = cpu
dtype = float64
lr = 0.0005
max_step = 1000
n_in = 68
n_out = 1
net_depth = 9
net_width = (100, 200, 200, 100, 100, 50, 21)
no_stdout = False
optimizer = adam
out_dir = out
out_filename = out/MLP_nd9_nw-100-200-200-100-100-50-21_bias/outwithout5
out_infix = without5
print_step = 5
save_step = 10
seed = 35861409
tolerance = 1e-05

init_time = 0.000
Training...
MLP(
  (net): Sequential(
    (0): Linear(in_features=68, out_features=100, bias=True)
    (1): GELU()
    (2): Linear(in_features=100, out_features=200, bias=True)
    (3): GELU()
    (4): Linear(in_features=200, out_features=200, bias=True)
    (5): GELU()
    (6): Linear(in_features=200, out_features=100, bias=True)
    (7): GELU()
    (8): Linear(in_features=100, out_features=100, bias=True)
    (9): GELU()
    (10): Linear(in_features=100, out_features=50, bias=True)
    (11): GELU()
    (12): Linear(in_features=50, out_features=21, bias=True)
    (13): GELU()
    (14): Linear(in_features=21, out_features=1, bias=True)
  )
)

Total number of trainable parameters: 103643

Checkpoint found: 1000

batch_size = 300
bias = True
clear_checkpoint = False
clip_grad = 0
cuda = -1
device = cpu
dtype = float64
lr = 0.0005
max_step = 1000
n_in = 68
n_out = 1
net_depth = 9
net_width = (100, 200, 200, 100, 100, 50, 21)
no_stdout = False
optimizer = adam
out_dir = out
out_filename = out/MLP_nd9_nw-100-200-200-100-100-50-21_bias/outwithout5
out_infix = without5
print_step = 5
save_step = 10
seed = 99959376
tolerance = 1e-05

init_time = 0.000
Training...
MLP(
  (net): Sequential(
    (0): Linear(in_features=68, out_features=100, bias=True)
    (1): GELU()
    (2): Linear(in_features=100, out_features=200, bias=True)
    (3): GELU()
    (4): Linear(in_features=200, out_features=200, bias=True)
    (5): GELU()
    (6): Linear(in_features=200, out_features=100, bias=True)
    (7): GELU()
    (8): Linear(in_features=100, out_features=100, bias=True)
    (9): GELU()
    (10): Linear(in_features=100, out_features=50, bias=True)
    (11): GELU()
    (12): Linear(in_features=50, out_features=21, bias=True)
    (13): GELU()
    (14): Linear(in_features=21, out_features=1, bias=True)
  )
)

Total number of trainable parameters: 103643

Checkpoint found: 1000

batch_size = 300
bias = True
clear_checkpoint = False
clip_grad = 0
cuda = -1
device = cpu
dtype = float64
lr = 0.0005
max_step = 1000
n_in = 68
n_out = 1
net_depth = 9
net_width = (100, 200, 200, 100, 100, 50, 21)
no_stdout = False
optimizer = adam
out_dir = out
out_filename = out/MLP_nd9_nw-100-200-200-100-100-50-21_bias/outwithout5
out_infix = without5
print_step = 5
save_step = 10
seed = 37344137
tolerance = 1e-05

init_time = 0.000
Training...
MLP(
  (net): Sequential(
    (0): Linear(in_features=68, out_features=100, bias=True)
    (1): GELU()
    (2): Linear(in_features=100, out_features=200, bias=True)
    (3): GELU()
    (4): Linear(in_features=200, out_features=200, bias=True)
    (5): GELU()
    (6): Linear(in_features=200, out_features=100, bias=True)
    (7): GELU()
    (8): Linear(in_features=100, out_features=100, bias=True)
    (9): GELU()
    (10): Linear(in_features=100, out_features=50, bias=True)
    (11): GELU()
    (12): Linear(in_features=50, out_features=21, bias=True)
    (13): GELU()
    (14): Linear(in_features=21, out_features=1, bias=True)
  )
)

Total number of trainable parameters: 103643

Checkpoint found: 1000

batch_size = 300
bias = True
clear_checkpoint = False
clip_grad = 0
cuda = -1
device = cpu
dtype = float64
lr = 0.0005
max_step = 1000
n_in = 68
n_out = 1
net_depth = 9
net_width = (100, 200, 200, 100, 100, 50, 21)
no_stdout = False
optimizer = adam
out_dir = out
out_filename = out/MLP_nd9_nw-100-200-200-100-100-50-21_bias/outwithout5
out_infix = without5
print_step = 5
save_step = 10
seed = 1461010
tolerance = 1e-05

init_time = 0.000
Training...
MLP(
  (net): Sequential(
    (0): Linear(in_features=68, out_features=100, bias=True)
    (1): GELU()
    (2): Linear(in_features=100, out_features=200, bias=True)
    (3): GELU()
    (4): Linear(in_features=200, out_features=200, bias=True)
    (5): GELU()
    (6): Linear(in_features=200, out_features=100, bias=True)
    (7): GELU()
    (8): Linear(in_features=100, out_features=100, bias=True)
    (9): GELU()
    (10): Linear(in_features=100, out_features=50, bias=True)
    (11): GELU()
    (12): Linear(in_features=50, out_features=21, bias=True)
    (13): GELU()
    (14): Linear(in_features=21, out_features=1, bias=True)
  )
)

Total number of trainable parameters: 103643

Checkpoint found: 1000

batch_size = 300
bias = True
clear_checkpoint = False
clip_grad = 0
cuda = -1
device = cpu
dtype = float64
lr = 0.0005
max_step = 1000
n_in = 68
n_out = 1
net_depth = 9
net_width = (100, 200, 200, 100, 100, 50, 21)
no_stdout = False
optimizer = adam
out_dir = out
out_filename = out/MLP_nd9_nw-100-200-200-100-100-50-21_bias/outwithout5
out_infix = without5
print_step = 5
save_step = 10
seed = 23694639
tolerance = 1e-05

init_time = 0.000
Training...
MLP(
  (net): Sequential(
    (0): Linear(in_features=68, out_features=100, bias=True)
    (1): GELU()
    (2): Linear(in_features=100, out_features=200, bias=True)
    (3): GELU()
    (4): Linear(in_features=200, out_features=200, bias=True)
    (5): GELU()
    (6): Linear(in_features=200, out_features=100, bias=True)
    (7): GELU()
    (8): Linear(in_features=100, out_features=100, bias=True)
    (9): GELU()
    (10): Linear(in_features=100, out_features=50, bias=True)
    (11): GELU()
    (12): Linear(in_features=50, out_features=21, bias=True)
    (13): GELU()
    (14): Linear(in_features=21, out_features=1, bias=True)
  )
)

Total number of trainable parameters: 103643

Checkpoint found: 1000

batch_size = 300
bias = True
clear_checkpoint = False
clip_grad = 0
cuda = -1
device = cpu
dtype = float64
lr = 0.0005
max_step = 1000
n_in = 68
n_out = 1
net_depth = 9
net_width = (100, 200, 200, 100, 100, 50, 21)
no_stdout = False
optimizer = adam
out_dir = out
out_filename = out/MLP_nd9_nw-100-200-200-100-100-50-21_bias/outwithout5
out_infix = without5
print_step = 5
save_step = 10
seed = 33039271
tolerance = 1e-05

init_time = 0.000
Training...
MLP(
  (net): Sequential(
    (0): Linear(in_features=68, out_features=100, bias=True)
    (1): GELU()
    (2): Linear(in_features=100, out_features=200, bias=True)
    (3): GELU()
    (4): Linear(in_features=200, out_features=200, bias=True)
    (5): GELU()
    (6): Linear(in_features=200, out_features=100, bias=True)
    (7): GELU()
    (8): Linear(in_features=100, out_features=100, bias=True)
    (9): GELU()
    (10): Linear(in_features=100, out_features=50, bias=True)
    (11): GELU()
    (12): Linear(in_features=50, out_features=21, bias=True)
    (13): GELU()
    (14): Linear(in_features=21, out_features=1, bias=True)
  )
)

Total number of trainable parameters: 103643

Checkpoint found: 1000

batch_size = 300
bias = True
clear_checkpoint = False
clip_grad = 0
cuda = -1
device = cpu
dtype = float64
lr = 0.0005
max_step = 1000
n_in = 68
n_out = 1
net_depth = 9
net_width = (100, 200, 200, 100, 100, 50, 21)
no_stdout = False
optimizer = adam
out_dir = out
out_filename = out/MLP_nd9_nw-100-200-200-100-100-50-21_bias/outwithout5
out_infix = without5
print_step = 5
save_step = 10
seed = 82853351
tolerance = 1e-05

init_time = 0.000
Training...
MLP(
  (net): Sequential(
    (0): Linear(in_features=68, out_features=100, bias=True)
    (1): GELU()
    (2): Linear(in_features=100, out_features=200, bias=True)
    (3): GELU()
    (4): Linear(in_features=200, out_features=200, bias=True)
    (5): GELU()
    (6): Linear(in_features=200, out_features=100, bias=True)
    (7): GELU()
    (8): Linear(in_features=100, out_features=100, bias=True)
    (9): GELU()
    (10): Linear(in_features=100, out_features=50, bias=True)
    (11): GELU()
    (12): Linear(in_features=50, out_features=21, bias=True)
    (13): GELU()
    (14): Linear(in_features=21, out_features=1, bias=True)
  )
)

Total number of trainable parameters: 103643

Checkpoint found: 1000

batch_size = 300
bias = True
clear_checkpoint = False
clip_grad = 0
cuda = -1
device = cpu
dtype = float64
lr = 0.0005
max_step = 1000
n_in = 68
n_out = 1
net_depth = 9
net_width = (100, 200, 200, 100, 100, 50, 21)
no_stdout = False
optimizer = adam
out_dir = out
out_filename = out/MLP_nd9_nw-100-200-200-100-100-50-21_bias/outwithout5
out_infix = without5
print_step = 5
save_step = 10
seed = 4510862
tolerance = 1e-05

init_time = 0.000
Training...
MLP(
  (net): Sequential(
    (0): Linear(in_features=68, out_features=100, bias=True)
    (1): GELU()
    (2): Linear(in_features=100, out_features=200, bias=True)
    (3): GELU()
    (4): Linear(in_features=200, out_features=200, bias=True)
    (5): GELU()
    (6): Linear(in_features=200, out_features=100, bias=True)
    (7): GELU()
    (8): Linear(in_features=100, out_features=100, bias=True)
    (9): GELU()
    (10): Linear(in_features=100, out_features=50, bias=True)
    (11): GELU()
    (12): Linear(in_features=50, out_features=21, bias=True)
    (13): GELU()
    (14): Linear(in_features=21, out_features=1, bias=True)
  )
)

Total number of trainable parameters: 103643

Checkpoint found: 1000

batch_size = 300
bias = True
clear_checkpoint = False
clip_grad = 0
cuda = -1
device = cpu
dtype = float64
lr = 0.0005
max_step = 1000
n_in = 68
n_out = 1
net_depth = 9
net_width = (100, 200, 200, 100, 100, 50, 21)
no_stdout = False
optimizer = adam
out_dir = out
out_filename = out/MLP_nd9_nw-100-200-200-100-100-50-21_bias/outwithout5
out_infix = without5
print_step = 5
save_step = 10
seed = 84821425
tolerance = 1e-05

init_time = 0.000
Training...
MLP(
  (net): Sequential(
    (0): Linear(in_features=68, out_features=100, bias=True)
    (1): GELU()
    (2): Linear(in_features=100, out_features=200, bias=True)
    (3): GELU()
    (4): Linear(in_features=200, out_features=200, bias=True)
    (5): GELU()
    (6): Linear(in_features=200, out_features=100, bias=True)
    (7): GELU()
    (8): Linear(in_features=100, out_features=100, bias=True)
    (9): GELU()
    (10): Linear(in_features=100, out_features=50, bias=True)
    (11): GELU()
    (12): Linear(in_features=50, out_features=21, bias=True)
    (13): GELU()
    (14): Linear(in_features=21, out_features=1, bias=True)
  )
)

Total number of trainable parameters: 103643

Checkpoint found: 1000

batch_size = 300
bias = True
clear_checkpoint = False
clip_grad = 0
cuda = -1
device = cpu
dtype = float64
lr = 0.0005
max_step = 1000
n_in = 68
n_out = 1
net_depth = 9
net_width = (100, 200, 200, 100, 100, 50, 21)
no_stdout = False
optimizer = adam
out_dir = out
out_filename = out/MLP_nd9_nw-100-200-200-100-100-50-21_bias/outwithout5
out_infix = without5
print_step = 5
save_step = 10
seed = 17501655
tolerance = 1e-05

init_time = 0.000
Training...
MLP(
  (net): Sequential(
    (0): Linear(in_features=68, out_features=100, bias=True)
    (1): GELU()
    (2): Linear(in_features=100, out_features=200, bias=True)
    (3): GELU()
    (4): Linear(in_features=200, out_features=200, bias=True)
    (5): GELU()
    (6): Linear(in_features=200, out_features=100, bias=True)
    (7): GELU()
    (8): Linear(in_features=100, out_features=100, bias=True)
    (9): GELU()
    (10): Linear(in_features=100, out_features=50, bias=True)
    (11): GELU()
    (12): Linear(in_features=50, out_features=21, bias=True)
    (13): GELU()
    (14): Linear(in_features=21, out_features=1, bias=True)
  )
)

Total number of trainable parameters: 103643

Checkpoint found: 1000

batch_size = 300
bias = True
clear_checkpoint = False
clip_grad = 0
cuda = -1
device = cpu
dtype = float64
lr = 0.0005
max_step = 1000
n_in = 68
n_out = 1
net_depth = 9
net_width = (100, 200, 200, 100, 100, 50, 21)
no_stdout = False
optimizer = adam
out_dir = out
out_filename = out/MLP_nd9_nw-100-200-200-100-100-50-21_bias/outwithout5
out_infix = without5
print_step = 5
save_step = 10
seed = 13933990
tolerance = 1e-05

init_time = 0.000
Training...
MLP(
  (net): Sequential(
    (0): Linear(in_features=68, out_features=100, bias=True)
    (1): GELU()
    (2): Linear(in_features=100, out_features=200, bias=True)
    (3): GELU()
    (4): Linear(in_features=200, out_features=200, bias=True)
    (5): GELU()
    (6): Linear(in_features=200, out_features=100, bias=True)
    (7): GELU()
    (8): Linear(in_features=100, out_features=100, bias=True)
    (9): GELU()
    (10): Linear(in_features=100, out_features=50, bias=True)
    (11): GELU()
    (12): Linear(in_features=50, out_features=21, bias=True)
    (13): GELU()
    (14): Linear(in_features=21, out_features=1, bias=True)
  )
)

Total number of trainable parameters: 103643

Checkpoint found: 1000

batch_size = 300
bias = True
clear_checkpoint = False
clip_grad = 0
cuda = -1
device = cpu
dtype = float64
lr = 0.0005
max_step = 1000
n_in = 68
n_out = 1
net_depth = 9
net_width = (100, 200, 200, 100, 100, 50, 21)
no_stdout = False
optimizer = adam
out_dir = out
out_filename = out/MLP_nd9_nw-100-200-200-100-100-50-21_bias/outwithout5
out_infix = without5
print_step = 5
save_step = 10
seed = 16060582
tolerance = 1e-05

init_time = 0.000
Training...
MLP(
  (net): Sequential(
    (0): Linear(in_features=68, out_features=100, bias=True)
    (1): GELU()
    (2): Linear(in_features=100, out_features=200, bias=True)
    (3): GELU()
    (4): Linear(in_features=200, out_features=200, bias=True)
    (5): GELU()
    (6): Linear(in_features=200, out_features=100, bias=True)
    (7): GELU()
    (8): Linear(in_features=100, out_features=100, bias=True)
    (9): GELU()
    (10): Linear(in_features=100, out_features=50, bias=True)
    (11): GELU()
    (12): Linear(in_features=50, out_features=21, bias=True)
    (13): GELU()
    (14): Linear(in_features=21, out_features=1, bias=True)
  )
)

Total number of trainable parameters: 103643

Checkpoint found: 1000

batch_size = 300
bias = True
clear_checkpoint = False
clip_grad = 0
cuda = -1
device = cpu
dtype = float64
lr = 0.0005
max_step = 1000
n_in = 68
n_out = 1
net_depth = 9
net_width = (100, 200, 200, 100, 100, 50, 21)
no_stdout = False
optimizer = adam
out_dir = out
out_filename = out/MLP_nd9_nw-100-200-200-100-100-50-21_bias/outwithout5
out_infix = without5
print_step = 5
save_step = 10
seed = 5977644
tolerance = 1e-05

init_time = 0.000
Training...
MLP(
  (net): Sequential(
    (0): Linear(in_features=68, out_features=100, bias=True)
    (1): GELU()
    (2): Linear(in_features=100, out_features=200, bias=True)
    (3): GELU()
    (4): Linear(in_features=200, out_features=200, bias=True)
    (5): GELU()
    (6): Linear(in_features=200, out_features=100, bias=True)
    (7): GELU()
    (8): Linear(in_features=100, out_features=100, bias=True)
    (9): GELU()
    (10): Linear(in_features=100, out_features=50, bias=True)
    (11): GELU()
    (12): Linear(in_features=50, out_features=21, bias=True)
    (13): GELU()
    (14): Linear(in_features=21, out_features=1, bias=True)
  )
)

Total number of trainable parameters: 103643

Checkpoint found: 1000

batch_size = 300
bias = True
clear_checkpoint = False
clip_grad = 0
cuda = -1
device = cpu
dtype = float64
lr = 0.0005
max_step = 1000
n_in = 68
n_out = 1
net_depth = 9
net_width = (100, 200, 200, 100, 100, 50, 21)
no_stdout = False
optimizer = adam
out_dir = out
out_filename = out/MLP_nd9_nw-100-200-200-100-100-50-21_bias/outwithout5
out_infix = without5
print_step = 5
save_step = 10
seed = 52529800
tolerance = 1e-05

init_time = 0.000
Training...
MLP(
  (net): Sequential(
    (0): Linear(in_features=68, out_features=100, bias=True)
    (1): GELU()
    (2): Linear(in_features=100, out_features=200, bias=True)
    (3): GELU()
    (4): Linear(in_features=200, out_features=200, bias=True)
    (5): GELU()
    (6): Linear(in_features=200, out_features=100, bias=True)
    (7): GELU()
    (8): Linear(in_features=100, out_features=100, bias=True)
    (9): GELU()
    (10): Linear(in_features=100, out_features=50, bias=True)
    (11): GELU()
    (12): Linear(in_features=50, out_features=21, bias=True)
    (13): GELU()
    (14): Linear(in_features=21, out_features=1, bias=True)
  )
)

Total number of trainable parameters: 103643

Checkpoint found: 1000

batch_size = 300
bias = True
clear_checkpoint = False
clip_grad = 0
cuda = -1
device = cpu
dtype = float64
lr = 0.0005
max_step = 1000
n_in = 68
n_out = 1
net_depth = 9
net_width = (100, 200, 200, 100, 100, 50, 21)
no_stdout = False
optimizer = adam
out_dir = out
out_filename = out/MLP_nd9_nw-100-200-200-100-100-50-21_bias/outwithout5
out_infix = without5
print_step = 5
save_step = 10
seed = 8943806
tolerance = 1e-05

init_time = 0.000
Training...
MLP(
  (net): Sequential(
    (0): Linear(in_features=68, out_features=100, bias=True)
    (1): GELU()
    (2): Linear(in_features=100, out_features=200, bias=True)
    (3): GELU()
    (4): Linear(in_features=200, out_features=200, bias=True)
    (5): GELU()
    (6): Linear(in_features=200, out_features=100, bias=True)
    (7): GELU()
    (8): Linear(in_features=100, out_features=100, bias=True)
    (9): GELU()
    (10): Linear(in_features=100, out_features=50, bias=True)
    (11): GELU()
    (12): Linear(in_features=50, out_features=21, bias=True)
    (13): GELU()
    (14): Linear(in_features=21, out_features=1, bias=True)
  )
)

Total number of trainable parameters: 103643

Checkpoint found: 1000

batch_size = 300
bias = True
clear_checkpoint = False
clip_grad = 0
cuda = -1
device = cpu
dtype = float64
lr = 0.0005
max_step = 1000
n_in = 68
n_out = 1
net_depth = 9
net_width = (100, 200, 200, 100, 100, 50, 21)
no_stdout = False
optimizer = adam
out_dir = out
out_filename = out/MLP_nd9_nw-100-200-200-100-100-50-21_bias/outwithout5
out_infix = without5
print_step = 5
save_step = 10
seed = 3154751
tolerance = 1e-05

init_time = 0.000
Training...
MLP(
  (net): Sequential(
    (0): Linear(in_features=68, out_features=100, bias=True)
    (1): GELU()
    (2): Linear(in_features=100, out_features=200, bias=True)
    (3): GELU()
    (4): Linear(in_features=200, out_features=200, bias=True)
    (5): GELU()
    (6): Linear(in_features=200, out_features=100, bias=True)
    (7): GELU()
    (8): Linear(in_features=100, out_features=100, bias=True)
    (9): GELU()
    (10): Linear(in_features=100, out_features=50, bias=True)
    (11): GELU()
    (12): Linear(in_features=50, out_features=21, bias=True)
    (13): GELU()
    (14): Linear(in_features=21, out_features=1, bias=True)
  )
)

Total number of trainable parameters: 103643

Checkpoint found: 1000

batch_size = 300
bias = True
clear_checkpoint = False
clip_grad = 0
cuda = -1
device = cpu
dtype = float64
lr = 0.0005
max_step = 1000
n_in = 68
n_out = 1
net_depth = 9
net_width = (100, 200, 200, 100, 100, 50, 21)
no_stdout = False
optimizer = adam
out_dir = out
out_filename = out/MLP_nd9_nw-100-200-200-100-100-50-21_bias/outwithout5
out_infix = without5
print_step = 5
save_step = 10
seed = 92321041
tolerance = 1e-05

init_time = 0.000
Training...
MLP(
  (net): Sequential(
    (0): Linear(in_features=68, out_features=100, bias=True)
    (1): GELU()
    (2): Linear(in_features=100, out_features=200, bias=True)
    (3): GELU()
    (4): Linear(in_features=200, out_features=200, bias=True)
    (5): GELU()
    (6): Linear(in_features=200, out_features=100, bias=True)
    (7): GELU()
    (8): Linear(in_features=100, out_features=100, bias=True)
    (9): GELU()
    (10): Linear(in_features=100, out_features=50, bias=True)
    (11): GELU()
    (12): Linear(in_features=50, out_features=21, bias=True)
    (13): GELU()
    (14): Linear(in_features=21, out_features=1, bias=True)
  )
)

Total number of trainable parameters: 103643

Checkpoint found: 1000

batch_size = 300
bias = True
clear_checkpoint = False
clip_grad = 0
cuda = -1
device = cpu
dtype = float64
lr = 0.0005
max_step = 1000
n_in = 68
n_out = 1
net_depth = 9
net_width = (100, 200, 200, 100, 100, 50, 21)
no_stdout = False
optimizer = adam
out_dir = out
out_filename = out/MLP_nd9_nw-100-200-200-100-100-50-21_bias/outwithout5
out_infix = without5
print_step = 5
save_step = 10
seed = 87998951
tolerance = 1e-05

init_time = 0.000
Training...
MLP(
  (net): Sequential(
    (0): Linear(in_features=68, out_features=100, bias=True)
    (1): GELU()
    (2): Linear(in_features=100, out_features=200, bias=True)
    (3): GELU()
    (4): Linear(in_features=200, out_features=200, bias=True)
    (5): GELU()
    (6): Linear(in_features=200, out_features=100, bias=True)
    (7): GELU()
    (8): Linear(in_features=100, out_features=100, bias=True)
    (9): GELU()
    (10): Linear(in_features=100, out_features=50, bias=True)
    (11): GELU()
    (12): Linear(in_features=50, out_features=21, bias=True)
    (13): GELU()
    (14): Linear(in_features=21, out_features=1, bias=True)
  )
)

Total number of trainable parameters: 103643

Checkpoint found: 1000

batch_size = 300
bias = True
clear_checkpoint = False
clip_grad = 0
cuda = -1
device = cpu
dtype = float64
lr = 0.0005
max_step = 1000
n_in = 68
n_out = 1
net_depth = 9
net_width = (100, 200, 200, 100, 100, 50, 21)
no_stdout = False
optimizer = adam
out_dir = out
out_filename = out/MLP_nd9_nw-100-200-200-100-100-50-21_bias/outwithout5
out_infix = without5
print_step = 5
save_step = 10
seed = 77911818
tolerance = 1e-05

init_time = 0.000
Training...
MLP(
  (net): Sequential(
    (0): Linear(in_features=68, out_features=100, bias=True)
    (1): GELU()
    (2): Linear(in_features=100, out_features=200, bias=True)
    (3): GELU()
    (4): Linear(in_features=200, out_features=200, bias=True)
    (5): GELU()
    (6): Linear(in_features=200, out_features=100, bias=True)
    (7): GELU()
    (8): Linear(in_features=100, out_features=100, bias=True)
    (9): GELU()
    (10): Linear(in_features=100, out_features=50, bias=True)
    (11): GELU()
    (12): Linear(in_features=50, out_features=21, bias=True)
    (13): GELU()
    (14): Linear(in_features=21, out_features=1, bias=True)
  )
)

Total number of trainable parameters: 103643

Checkpoint found: 1000

batch_size = 300
bias = True
clear_checkpoint = False
clip_grad = 0
cuda = -1
device = cpu
dtype = float64
lr = 0.0005
max_step = 1000
n_in = 68
n_out = 1
net_depth = 9
net_width = (100, 200, 200, 100, 100, 50, 21)
no_stdout = False
optimizer = adam
out_dir = out
out_filename = out/MLP_nd9_nw-100-200-200-100-100-50-21_bias/outwithout5
out_infix = without5
print_step = 5
save_step = 10
seed = 4568055
tolerance = 1e-05

init_time = 0.000
Training...
MLP(
  (net): Sequential(
    (0): Linear(in_features=68, out_features=100, bias=True)
    (1): GELU()
    (2): Linear(in_features=100, out_features=200, bias=True)
    (3): GELU()
    (4): Linear(in_features=200, out_features=200, bias=True)
    (5): GELU()
    (6): Linear(in_features=200, out_features=100, bias=True)
    (7): GELU()
    (8): Linear(in_features=100, out_features=100, bias=True)
    (9): GELU()
    (10): Linear(in_features=100, out_features=50, bias=True)
    (11): GELU()
    (12): Linear(in_features=50, out_features=21, bias=True)
    (13): GELU()
    (14): Linear(in_features=21, out_features=1, bias=True)
  )
)

Total number of trainable parameters: 103643

Checkpoint found: 1000

batch_size = 300
bias = True
clear_checkpoint = False
clip_grad = 0
cuda = -1
device = cpu
dtype = float64
lr = 0.0005
max_step = 1000
n_in = 68
n_out = 1
net_depth = 9
net_width = (100, 200, 200, 100, 100, 50, 21)
no_stdout = False
optimizer = adam
out_dir = out
out_filename = out/MLP_nd9_nw-100-200-200-100-100-50-21_bias/outwithout5
out_infix = without5
print_step = 5
save_step = 10
seed = 19385598
tolerance = 1e-05

init_time = 0.000
Training...
MLP(
  (net): Sequential(
    (0): Linear(in_features=68, out_features=100, bias=True)
    (1): GELU()
    (2): Linear(in_features=100, out_features=200, bias=True)
    (3): GELU()
    (4): Linear(in_features=200, out_features=200, bias=True)
    (5): GELU()
    (6): Linear(in_features=200, out_features=100, bias=True)
    (7): GELU()
    (8): Linear(in_features=100, out_features=100, bias=True)
    (9): GELU()
    (10): Linear(in_features=100, out_features=50, bias=True)
    (11): GELU()
    (12): Linear(in_features=50, out_features=21, bias=True)
    (13): GELU()
    (14): Linear(in_features=21, out_features=1, bias=True)
  )
)

Total number of trainable parameters: 103643

Checkpoint found: 1000

batch_size = 300
bias = True
clear_checkpoint = False
clip_grad = 0
cuda = -1
device = cpu
dtype = float64
lr = 0.0005
max_step = 1000
n_in = 68
n_out = 1
net_depth = 9
net_width = (100, 200, 200, 100, 100, 50, 21)
no_stdout = False
optimizer = adam
out_dir = out
out_filename = out/MLP_nd9_nw-100-200-200-100-100-50-21_bias/outwithout5
out_infix = without5
print_step = 5
save_step = 10
seed = 40291998
tolerance = 1e-05

init_time = 0.000
Training...
MLP(
  (net): Sequential(
    (0): Linear(in_features=68, out_features=100, bias=True)
    (1): GELU()
    (2): Linear(in_features=100, out_features=200, bias=True)
    (3): GELU()
    (4): Linear(in_features=200, out_features=200, bias=True)
    (5): GELU()
    (6): Linear(in_features=200, out_features=100, bias=True)
    (7): GELU()
    (8): Linear(in_features=100, out_features=100, bias=True)
    (9): GELU()
    (10): Linear(in_features=100, out_features=50, bias=True)
    (11): GELU()
    (12): Linear(in_features=50, out_features=21, bias=True)
    (13): GELU()
    (14): Linear(in_features=21, out_features=1, bias=True)
  )
)

Total number of trainable parameters: 103643

Checkpoint found: 1000

batch_size = 300
bias = True
clear_checkpoint = False
clip_grad = 0
cuda = -1
device = cpu
dtype = float64
lr = 0.0005
max_step = 1000
n_in = 68
n_out = 1
net_depth = 9
net_width = (100, 200, 200, 100, 100, 50, 21)
no_stdout = False
optimizer = adam
out_dir = out
out_filename = out/MLP_nd9_nw-100-200-200-100-100-50-21_bias/outwithout5
out_infix = without5
print_step = 5
save_step = 10
seed = 76894656
tolerance = 1e-05

init_time = 0.000
Training...
MLP(
  (net): Sequential(
    (0): Linear(in_features=68, out_features=100, bias=True)
    (1): GELU()
    (2): Linear(in_features=100, out_features=200, bias=True)
    (3): GELU()
    (4): Linear(in_features=200, out_features=200, bias=True)
    (5): GELU()
    (6): Linear(in_features=200, out_features=100, bias=True)
    (7): GELU()
    (8): Linear(in_features=100, out_features=100, bias=True)
    (9): GELU()
    (10): Linear(in_features=100, out_features=50, bias=True)
    (11): GELU()
    (12): Linear(in_features=50, out_features=21, bias=True)
    (13): GELU()
    (14): Linear(in_features=21, out_features=1, bias=True)
  )
)

Total number of trainable parameters: 103643

Checkpoint found: 1000

batch_size = 300
bias = True
clear_checkpoint = False
clip_grad = 0
cuda = -1
device = cpu
dtype = float64
lr = 0.0005
max_step = 1000
n_in = 68
n_out = 1
net_depth = 9
net_width = (100, 200, 200, 100, 100, 50, 21)
no_stdout = False
optimizer = adam
out_dir = out
out_filename = out/MLP_nd9_nw-100-200-200-100-100-50-21_bias/outwithout5
out_infix = without5
print_step = 5
save_step = 10
seed = 49858741
tolerance = 1e-05

init_time = 0.000
Training...
MLP(
  (net): Sequential(
    (0): Linear(in_features=68, out_features=100, bias=True)
    (1): GELU()
    (2): Linear(in_features=100, out_features=200, bias=True)
    (3): GELU()
    (4): Linear(in_features=200, out_features=200, bias=True)
    (5): GELU()
    (6): Linear(in_features=200, out_features=100, bias=True)
    (7): GELU()
    (8): Linear(in_features=100, out_features=100, bias=True)
    (9): GELU()
    (10): Linear(in_features=100, out_features=50, bias=True)
    (11): GELU()
    (12): Linear(in_features=50, out_features=21, bias=True)
    (13): GELU()
    (14): Linear(in_features=21, out_features=1, bias=True)
  )
)

Total number of trainable parameters: 103643

Checkpoint found: 1000

batch_size = 300
bias = True
clear_checkpoint = False
clip_grad = 0
cuda = -1
device = cpu
dtype = float64
lr = 0.0005
max_step = 1000
n_in = 68
n_out = 1
net_depth = 9
net_width = (100, 200, 200, 100, 100, 50, 21)
no_stdout = False
optimizer = adam
out_dir = out
out_filename = out/MLP_nd9_nw-100-200-200-100-100-50-21_bias/outwithout5
out_infix = without5
print_step = 5
save_step = 10
seed = 38216041
tolerance = 1e-05

init_time = 0.000
Training...
MLP(
  (net): Sequential(
    (0): Linear(in_features=68, out_features=100, bias=True)
    (1): GELU()
    (2): Linear(in_features=100, out_features=200, bias=True)
    (3): GELU()
    (4): Linear(in_features=200, out_features=200, bias=True)
    (5): GELU()
    (6): Linear(in_features=200, out_features=100, bias=True)
    (7): GELU()
    (8): Linear(in_features=100, out_features=100, bias=True)
    (9): GELU()
    (10): Linear(in_features=100, out_features=50, bias=True)
    (11): GELU()
    (12): Linear(in_features=50, out_features=21, bias=True)
    (13): GELU()
    (14): Linear(in_features=21, out_features=1, bias=True)
  )
)

Total number of trainable parameters: 103643

Checkpoint found: 1000

batch_size = 300
bias = True
clear_checkpoint = False
clip_grad = 0
cuda = -1
device = cpu
dtype = float64
lr = 0.0005
max_step = 1000
n_in = 68
n_out = 1
net_depth = 9
net_width = (100, 200, 200, 100, 100, 50, 21)
no_stdout = False
optimizer = adam
out_dir = out
out_filename = out/MLP_nd9_nw-100-200-200-100-100-50-21_bias/outwithout5
out_infix = without5
print_step = 5
save_step = 10
seed = 3875327
tolerance = 1e-05

init_time = 0.000
Training...
MLP(
  (net): Sequential(
    (0): Linear(in_features=68, out_features=100, bias=True)
    (1): GELU()
    (2): Linear(in_features=100, out_features=200, bias=True)
    (3): GELU()
    (4): Linear(in_features=200, out_features=200, bias=True)
    (5): GELU()
    (6): Linear(in_features=200, out_features=100, bias=True)
    (7): GELU()
    (8): Linear(in_features=100, out_features=100, bias=True)
    (9): GELU()
    (10): Linear(in_features=100, out_features=50, bias=True)
    (11): GELU()
    (12): Linear(in_features=50, out_features=21, bias=True)
    (13): GELU()
    (14): Linear(in_features=21, out_features=1, bias=True)
  )
)

Total number of trainable parameters: 103643

Checkpoint found: 1000

batch_size = 300
bias = True
clear_checkpoint = False
clip_grad = 0
cuda = -1
device = cpu
dtype = float64
lr = 0.0005
max_step = 1000
n_in = 68
n_out = 1
net_depth = 9
net_width = (100, 200, 200, 100, 100, 50, 21)
no_stdout = False
optimizer = adam
out_dir = out
out_filename = out/MLP_nd9_nw-100-200-200-100-100-50-21_bias/outwithout5
out_infix = without5
print_step = 5
save_step = 10
seed = 65893437
tolerance = 1e-05

init_time = 0.000
Training...
MLP(
  (net): Sequential(
    (0): Linear(in_features=68, out_features=100, bias=True)
    (1): GELU()
    (2): Linear(in_features=100, out_features=200, bias=True)
    (3): GELU()
    (4): Linear(in_features=200, out_features=200, bias=True)
    (5): GELU()
    (6): Linear(in_features=200, out_features=100, bias=True)
    (7): GELU()
    (8): Linear(in_features=100, out_features=100, bias=True)
    (9): GELU()
    (10): Linear(in_features=100, out_features=50, bias=True)
    (11): GELU()
    (12): Linear(in_features=50, out_features=21, bias=True)
    (13): GELU()
    (14): Linear(in_features=21, out_features=1, bias=True)
  )
)

Total number of trainable parameters: 103643

Checkpoint found: 1000

batch_size = 300
bias = True
clear_checkpoint = False
clip_grad = 0
cuda = -1
device = cpu
dtype = float64
lr = 0.0005
max_step = 1000
n_in = 68
n_out = 1
net_depth = 9
net_width = (100, 200, 200, 100, 100, 50, 21)
no_stdout = False
optimizer = adam
out_dir = out
out_filename = out/MLP_nd9_nw-100-200-200-100-100-50-21_bias/outwithout5
out_infix = without5
print_step = 5
save_step = 10
seed = 18161076
tolerance = 1e-05

init_time = 0.000
Training...
MLP(
  (net): Sequential(
    (0): Linear(in_features=68, out_features=100, bias=True)
    (1): GELU()
    (2): Linear(in_features=100, out_features=200, bias=True)
    (3): GELU()
    (4): Linear(in_features=200, out_features=200, bias=True)
    (5): GELU()
    (6): Linear(in_features=200, out_features=100, bias=True)
    (7): GELU()
    (8): Linear(in_features=100, out_features=100, bias=True)
    (9): GELU()
    (10): Linear(in_features=100, out_features=50, bias=True)
    (11): GELU()
    (12): Linear(in_features=50, out_features=21, bias=True)
    (13): GELU()
    (14): Linear(in_features=21, out_features=1, bias=True)
  )
)

Total number of trainable parameters: 103643

Checkpoint found: 1000

batch_size = 300
bias = True
clear_checkpoint = False
clip_grad = 0
cuda = -1
device = cpu
dtype = float64
lr = 0.0005
max_step = 1000
n_in = 68
n_out = 1
net_depth = 9
net_width = (100, 200, 200, 100, 100, 50, 21)
no_stdout = False
optimizer = adam
out_dir = out
out_filename = out/MLP_nd9_nw-100-200-200-100-100-50-21_bias/outwithout5
out_infix = without5
print_step = 5
save_step = 10
seed = 11865357
tolerance = 1e-05

init_time = 0.000
Training...
MLP(
  (net): Sequential(
    (0): Linear(in_features=68, out_features=100, bias=True)
    (1): GELU()
    (2): Linear(in_features=100, out_features=200, bias=True)
    (3): GELU()
    (4): Linear(in_features=200, out_features=200, bias=True)
    (5): GELU()
    (6): Linear(in_features=200, out_features=100, bias=True)
    (7): GELU()
    (8): Linear(in_features=100, out_features=100, bias=True)
    (9): GELU()
    (10): Linear(in_features=100, out_features=50, bias=True)
    (11): GELU()
    (12): Linear(in_features=50, out_features=21, bias=True)
    (13): GELU()
    (14): Linear(in_features=21, out_features=1, bias=True)
  )
)

Total number of trainable parameters: 103643

Checkpoint found: 1000

batch_size = 300
bias = True
clear_checkpoint = False
clip_grad = 0
cuda = -1
device = cpu
dtype = float64
lr = 0.0005
max_step = 1000
n_in = 68
n_out = 1
net_depth = 9
net_width = (100, 200, 200, 100, 100, 50, 21)
no_stdout = False
optimizer = adam
out_dir = out
out_filename = out/MLP_nd9_nw-100-200-200-100-100-50-21_bias/outwithout5
out_infix = without5
print_step = 5
save_step = 10
seed = 61890996
tolerance = 1e-05

init_time = 0.000
Training...
MLP(
  (net): Sequential(
    (0): Linear(in_features=68, out_features=100, bias=True)
    (1): GELU()
    (2): Linear(in_features=100, out_features=200, bias=True)
    (3): GELU()
    (4): Linear(in_features=200, out_features=200, bias=True)
    (5): GELU()
    (6): Linear(in_features=200, out_features=100, bias=True)
    (7): GELU()
    (8): Linear(in_features=100, out_features=100, bias=True)
    (9): GELU()
    (10): Linear(in_features=100, out_features=50, bias=True)
    (11): GELU()
    (12): Linear(in_features=50, out_features=21, bias=True)
    (13): GELU()
    (14): Linear(in_features=21, out_features=1, bias=True)
  )
)

Total number of trainable parameters: 103643

Checkpoint found: 1000

batch_size = 300
bias = True
clear_checkpoint = False
clip_grad = 0
cuda = -1
device = cpu
dtype = float64
lr = 0.0005
max_step = 1000
n_in = 68
n_out = 1
net_depth = 9
net_width = (100, 200, 200, 100, 100, 50, 21)
no_stdout = False
optimizer = adam
out_dir = out
out_filename = out/MLP_nd9_nw-100-200-200-100-100-50-21_bias/outwithout5
out_infix = without5
print_step = 5
save_step = 10
seed = 30291767
tolerance = 1e-05

init_time = 0.000
Training...
MLP(
  (net): Sequential(
    (0): Linear(in_features=68, out_features=100, bias=True)
    (1): GELU()
    (2): Linear(in_features=100, out_features=200, bias=True)
    (3): GELU()
    (4): Linear(in_features=200, out_features=200, bias=True)
    (5): GELU()
    (6): Linear(in_features=200, out_features=100, bias=True)
    (7): GELU()
    (8): Linear(in_features=100, out_features=100, bias=True)
    (9): GELU()
    (10): Linear(in_features=100, out_features=50, bias=True)
    (11): GELU()
    (12): Linear(in_features=50, out_features=21, bias=True)
    (13): GELU()
    (14): Linear(in_features=21, out_features=1, bias=True)
  )
)

Total number of trainable parameters: 103643

Checkpoint found: 1000

batch_size = 300
bias = True
clear_checkpoint = False
clip_grad = 0
cuda = -1
device = cpu
dtype = float64
lr = 0.0005
max_step = 1000
n_in = 68
n_out = 1
net_depth = 9
net_width = (100, 200, 200, 100, 100, 50, 21)
no_stdout = False
optimizer = adam
out_dir = out
out_filename = out/MLP_nd9_nw-100-200-200-100-100-50-21_bias/outwithout5
out_infix = without5
print_step = 5
save_step = 10
seed = 18787019
tolerance = 1e-05

init_time = 0.000
Training...
MLP(
  (net): Sequential(
    (0): Linear(in_features=68, out_features=100, bias=True)
    (1): GELU()
    (2): Linear(in_features=100, out_features=200, bias=True)
    (3): GELU()
    (4): Linear(in_features=200, out_features=200, bias=True)
    (5): GELU()
    (6): Linear(in_features=200, out_features=100, bias=True)
    (7): GELU()
    (8): Linear(in_features=100, out_features=100, bias=True)
    (9): GELU()
    (10): Linear(in_features=100, out_features=50, bias=True)
    (11): GELU()
    (12): Linear(in_features=50, out_features=21, bias=True)
    (13): GELU()
    (14): Linear(in_features=21, out_features=1, bias=True)
  )
)

Total number of trainable parameters: 103643

Checkpoint found: 1000

batch_size = 300
bias = True
clear_checkpoint = False
clip_grad = 0
cuda = -1
device = cpu
dtype = float64
lr = 0.0005
max_step = 1000
n_in = 68
n_out = 1
net_depth = 9
net_width = (100, 200, 200, 100, 100, 50, 21)
no_stdout = False
optimizer = adam
out_dir = out
out_filename = out/MLP_nd9_nw-100-200-200-100-100-50-21_bias/outwithout5
out_infix = without5
print_step = 5
save_step = 10
seed = 86678182
tolerance = 1e-05

init_time = 0.000
Training...
MLP(
  (net): Sequential(
    (0): Linear(in_features=68, out_features=100, bias=True)
    (1): GELU()
    (2): Linear(in_features=100, out_features=200, bias=True)
    (3): GELU()
    (4): Linear(in_features=200, out_features=200, bias=True)
    (5): GELU()
    (6): Linear(in_features=200, out_features=100, bias=True)
    (7): GELU()
    (8): Linear(in_features=100, out_features=100, bias=True)
    (9): GELU()
    (10): Linear(in_features=100, out_features=50, bias=True)
    (11): GELU()
    (12): Linear(in_features=50, out_features=21, bias=True)
    (13): GELU()
    (14): Linear(in_features=21, out_features=1, bias=True)
  )
)

Total number of trainable parameters: 103643

Checkpoint found: 1000

batch_size = 300
bias = True
clear_checkpoint = False
clip_grad = 0
cuda = -1
device = cpu
dtype = float64
lr = 0.0005
max_step = 1000
n_in = 68
n_out = 1
net_depth = 9
net_width = (100, 200, 200, 100, 100, 50, 21)
no_stdout = False
optimizer = adam
out_dir = out
out_filename = out/MLP_nd9_nw-100-200-200-100-100-50-21_bias/outwithout5
out_infix = without5
print_step = 5
save_step = 10
seed = 37610683
tolerance = 1e-05

init_time = 0.000
Training...
MLP(
  (net): Sequential(
    (0): Linear(in_features=68, out_features=100, bias=True)
    (1): GELU()
    (2): Linear(in_features=100, out_features=200, bias=True)
    (3): GELU()
    (4): Linear(in_features=200, out_features=200, bias=True)
    (5): GELU()
    (6): Linear(in_features=200, out_features=100, bias=True)
    (7): GELU()
    (8): Linear(in_features=100, out_features=100, bias=True)
    (9): GELU()
    (10): Linear(in_features=100, out_features=50, bias=True)
    (11): GELU()
    (12): Linear(in_features=50, out_features=21, bias=True)
    (13): GELU()
    (14): Linear(in_features=21, out_features=1, bias=True)
  )
)

Total number of trainable parameters: 103643

Checkpoint found: 1000

batch_size = 300
bias = True
clear_checkpoint = False
clip_grad = 0
cuda = -1
device = cpu
dtype = float64
lr = 0.0005
max_step = 1000
n_in = 68
n_out = 1
net_depth = 9
net_width = (100, 200, 200, 100, 100, 50, 21)
no_stdout = False
optimizer = adam
out_dir = out
out_filename = out/MLP_nd9_nw-100-200-200-100-100-50-21_bias/outwithout5
out_infix = without5
print_step = 5
save_step = 10
seed = 6366079
tolerance = 1e-05

init_time = 0.000
Training...
MLP(
  (net): Sequential(
    (0): Linear(in_features=68, out_features=100, bias=True)
    (1): GELU()
    (2): Linear(in_features=100, out_features=200, bias=True)
    (3): GELU()
    (4): Linear(in_features=200, out_features=200, bias=True)
    (5): GELU()
    (6): Linear(in_features=200, out_features=100, bias=True)
    (7): GELU()
    (8): Linear(in_features=100, out_features=100, bias=True)
    (9): GELU()
    (10): Linear(in_features=100, out_features=50, bias=True)
    (11): GELU()
    (12): Linear(in_features=50, out_features=21, bias=True)
    (13): GELU()
    (14): Linear(in_features=21, out_features=1, bias=True)
  )
)

Total number of trainable parameters: 103643

Checkpoint found: 1000

batch_size = 300
bias = True
clear_checkpoint = False
clip_grad = 0
cuda = -1
device = cpu
dtype = float64
lr = 0.0005
max_step = 1000
n_in = 68
n_out = 1
net_depth = 9
net_width = (100, 200, 200, 100, 100, 50, 21)
no_stdout = False
optimizer = adam
out_dir = out
out_filename = out/MLP_nd9_nw-100-200-200-100-100-50-21_bias/outwithout5
out_infix = without5
print_step = 5
save_step = 10
seed = 84725455
tolerance = 1e-05

init_time = 0.000
Training...
MLP(
  (net): Sequential(
    (0): Linear(in_features=68, out_features=100, bias=True)
    (1): GELU()
    (2): Linear(in_features=100, out_features=200, bias=True)
    (3): GELU()
    (4): Linear(in_features=200, out_features=200, bias=True)
    (5): GELU()
    (6): Linear(in_features=200, out_features=100, bias=True)
    (7): GELU()
    (8): Linear(in_features=100, out_features=100, bias=True)
    (9): GELU()
    (10): Linear(in_features=100, out_features=50, bias=True)
    (11): GELU()
    (12): Linear(in_features=50, out_features=21, bias=True)
    (13): GELU()
    (14): Linear(in_features=21, out_features=1, bias=True)
  )
)

Total number of trainable parameters: 103643

Checkpoint found: 1000

batch_size = 300
bias = True
clear_checkpoint = False
clip_grad = 0
cuda = -1
device = cpu
dtype = float64
lr = 0.0005
max_step = 1000
n_in = 68
n_out = 1
net_depth = 9
net_width = (100, 200, 200, 100, 100, 50, 21)
no_stdout = False
optimizer = adam
out_dir = out
out_filename = out/MLP_nd9_nw-100-200-200-100-100-50-21_bias/outwithout5
out_infix = without5
print_step = 5
save_step = 10
seed = 95369496
tolerance = 1e-05

init_time = 0.000
Training...
MLP(
  (net): Sequential(
    (0): Linear(in_features=68, out_features=100, bias=True)
    (1): GELU()
    (2): Linear(in_features=100, out_features=200, bias=True)
    (3): GELU()
    (4): Linear(in_features=200, out_features=200, bias=True)
    (5): GELU()
    (6): Linear(in_features=200, out_features=100, bias=True)
    (7): GELU()
    (8): Linear(in_features=100, out_features=100, bias=True)
    (9): GELU()
    (10): Linear(in_features=100, out_features=50, bias=True)
    (11): GELU()
    (12): Linear(in_features=50, out_features=21, bias=True)
    (13): GELU()
    (14): Linear(in_features=21, out_features=1, bias=True)
  )
)

Total number of trainable parameters: 103643

Checkpoint found: 1000

batch_size = 300
bias = True
clear_checkpoint = False
clip_grad = 0
cuda = -1
device = cpu
dtype = float64
lr = 0.0005
max_step = 1000
n_in = 68
n_out = 1
net_depth = 9
net_width = (100, 200, 200, 100, 100, 50, 21)
no_stdout = False
optimizer = adam
out_dir = out
out_filename = out/MLP_nd9_nw-100-200-200-100-100-50-21_bias/outwithout5
out_infix = without5
print_step = 5
save_step = 10
seed = 38723744
tolerance = 1e-05

init_time = 0.000
Training...
MLP(
  (net): Sequential(
    (0): Linear(in_features=68, out_features=100, bias=True)
    (1): GELU()
    (2): Linear(in_features=100, out_features=200, bias=True)
    (3): GELU()
    (4): Linear(in_features=200, out_features=200, bias=True)
    (5): GELU()
    (6): Linear(in_features=200, out_features=100, bias=True)
    (7): GELU()
    (8): Linear(in_features=100, out_features=100, bias=True)
    (9): GELU()
    (10): Linear(in_features=100, out_features=50, bias=True)
    (11): GELU()
    (12): Linear(in_features=50, out_features=21, bias=True)
    (13): GELU()
    (14): Linear(in_features=21, out_features=1, bias=True)
  )
)

Total number of trainable parameters: 103643

Checkpoint found: 1000

batch_size = 300
bias = True
clear_checkpoint = False
clip_grad = 0
cuda = -1
device = cpu
dtype = float64
lr = 0.0005
max_step = 1000
n_in = 68
n_out = 1
net_depth = 9
net_width = (100, 200, 200, 100, 100, 50, 21)
no_stdout = False
optimizer = adam
out_dir = out
out_filename = out/MLP_nd9_nw-100-200-200-100-100-50-21_bias/outwithout5
out_infix = without5
print_step = 5
save_step = 10
seed = 82163377
tolerance = 1e-05

init_time = 0.000
Training...
MLP(
  (net): Sequential(
    (0): Linear(in_features=68, out_features=100, bias=True)
    (1): GELU()
    (2): Linear(in_features=100, out_features=200, bias=True)
    (3): GELU()
    (4): Linear(in_features=200, out_features=200, bias=True)
    (5): GELU()
    (6): Linear(in_features=200, out_features=100, bias=True)
    (7): GELU()
    (8): Linear(in_features=100, out_features=100, bias=True)
    (9): GELU()
    (10): Linear(in_features=100, out_features=50, bias=True)
    (11): GELU()
    (12): Linear(in_features=50, out_features=21, bias=True)
    (13): GELU()
    (14): Linear(in_features=21, out_features=1, bias=True)
  )
)

Total number of trainable parameters: 103643

Checkpoint found: 1000

batch_size = 300
bias = True
clear_checkpoint = False
clip_grad = 0
cuda = -1
device = cpu
dtype = float64
lr = 0.0005
max_step = 1000
n_in = 68
n_out = 1
net_depth = 9
net_width = (100, 200, 200, 100, 100, 50, 21)
no_stdout = False
optimizer = adam
out_dir = out
out_filename = out/MLP_nd9_nw-100-200-200-100-100-50-21_bias/outwithout5
out_infix = without5
print_step = 5
save_step = 10
seed = 30372309
tolerance = 1e-05

init_time = 0.000
Training...
MLP(
  (net): Sequential(
    (0): Linear(in_features=68, out_features=100, bias=True)
    (1): GELU()
    (2): Linear(in_features=100, out_features=200, bias=True)
    (3): GELU()
    (4): Linear(in_features=200, out_features=200, bias=True)
    (5): GELU()
    (6): Linear(in_features=200, out_features=100, bias=True)
    (7): GELU()
    (8): Linear(in_features=100, out_features=100, bias=True)
    (9): GELU()
    (10): Linear(in_features=100, out_features=50, bias=True)
    (11): GELU()
    (12): Linear(in_features=50, out_features=21, bias=True)
    (13): GELU()
    (14): Linear(in_features=21, out_features=1, bias=True)
  )
)

Total number of trainable parameters: 103643

Checkpoint found: 1000

batch_size = 300
bias = True
clear_checkpoint = False
clip_grad = 0
cuda = -1
device = cpu
dtype = float64
lr = 0.0005
max_step = 1000
n_in = 68
n_out = 1
net_depth = 9
net_width = (100, 200, 200, 100, 100, 50, 21)
no_stdout = False
optimizer = adam
out_dir = out
out_filename = out/MLP_nd9_nw-100-200-200-100-100-50-21_bias/outwithout5
out_infix = without5
print_step = 5
save_step = 10
seed = 91413710
tolerance = 1e-05

init_time = 0.000
Training...
MLP(
  (net): Sequential(
    (0): Linear(in_features=68, out_features=100, bias=True)
    (1): GELU()
    (2): Linear(in_features=100, out_features=200, bias=True)
    (3): GELU()
    (4): Linear(in_features=200, out_features=200, bias=True)
    (5): GELU()
    (6): Linear(in_features=200, out_features=100, bias=True)
    (7): GELU()
    (8): Linear(in_features=100, out_features=100, bias=True)
    (9): GELU()
    (10): Linear(in_features=100, out_features=50, bias=True)
    (11): GELU()
    (12): Linear(in_features=50, out_features=21, bias=True)
    (13): GELU()
    (14): Linear(in_features=21, out_features=1, bias=True)
  )
)

Total number of trainable parameters: 103643

Checkpoint found: 1000

batch_size = 300
bias = True
clear_checkpoint = False
clip_grad = 0
cuda = -1
device = cpu
dtype = float64
lr = 0.0005
max_step = 1000
n_in = 68
n_out = 1
net_depth = 9
net_width = (100, 200, 200, 100, 100, 50, 21)
no_stdout = False
optimizer = adam
out_dir = out
out_filename = out/MLP_nd9_nw-100-200-200-100-100-50-21_bias/outwithout5
out_infix = without5
print_step = 5
save_step = 10
seed = 67740684
tolerance = 1e-05

init_time = 0.000
Training...
MLP(
  (net): Sequential(
    (0): Linear(in_features=68, out_features=100, bias=True)
    (1): GELU()
    (2): Linear(in_features=100, out_features=200, bias=True)
    (3): GELU()
    (4): Linear(in_features=200, out_features=200, bias=True)
    (5): GELU()
    (6): Linear(in_features=200, out_features=100, bias=True)
    (7): GELU()
    (8): Linear(in_features=100, out_features=100, bias=True)
    (9): GELU()
    (10): Linear(in_features=100, out_features=50, bias=True)
    (11): GELU()
    (12): Linear(in_features=50, out_features=21, bias=True)
    (13): GELU()
    (14): Linear(in_features=21, out_features=1, bias=True)
  )
)

Total number of trainable parameters: 103643

Checkpoint found: 1000

batch_size = 300
bias = True
clear_checkpoint = False
clip_grad = 0
cuda = -1
device = cpu
dtype = float64
lr = 0.0005
max_step = 1000
n_in = 68
n_out = 1
net_depth = 9
net_width = (100, 200, 200, 100, 100, 50, 21)
no_stdout = False
optimizer = adam
out_dir = out
out_filename = out/MLP_nd9_nw-100-200-200-100-100-50-21_bias/outwithout5
out_infix = without5
print_step = 5
save_step = 10
seed = 55175596
tolerance = 1e-05

init_time = 0.000
Training...
MLP(
  (net): Sequential(
    (0): Linear(in_features=68, out_features=100, bias=True)
    (1): GELU()
    (2): Linear(in_features=100, out_features=200, bias=True)
    (3): GELU()
    (4): Linear(in_features=200, out_features=200, bias=True)
    (5): GELU()
    (6): Linear(in_features=200, out_features=100, bias=True)
    (7): GELU()
    (8): Linear(in_features=100, out_features=100, bias=True)
    (9): GELU()
    (10): Linear(in_features=100, out_features=50, bias=True)
    (11): GELU()
    (12): Linear(in_features=50, out_features=21, bias=True)
    (13): GELU()
    (14): Linear(in_features=21, out_features=1, bias=True)
  )
)

Total number of trainable parameters: 103643

Checkpoint found: 1000

batch_size = 300
bias = True
clear_checkpoint = False
clip_grad = 0
cuda = -1
device = cpu
dtype = float64
lr = 0.0005
max_step = 1000
n_in = 68
n_out = 1
net_depth = 9
net_width = (100, 200, 200, 100, 100, 50, 21)
no_stdout = False
optimizer = adam
out_dir = out
out_filename = out/MLP_nd9_nw-100-200-200-100-100-50-21_bias/outwithout5
out_infix = without5
print_step = 5
save_step = 10
seed = 7707092
tolerance = 1e-05

init_time = 0.000
Training...
MLP(
  (net): Sequential(
    (0): Linear(in_features=68, out_features=100, bias=True)
    (1): GELU()
    (2): Linear(in_features=100, out_features=200, bias=True)
    (3): GELU()
    (4): Linear(in_features=200, out_features=200, bias=True)
    (5): GELU()
    (6): Linear(in_features=200, out_features=100, bias=True)
    (7): GELU()
    (8): Linear(in_features=100, out_features=100, bias=True)
    (9): GELU()
    (10): Linear(in_features=100, out_features=50, bias=True)
    (11): GELU()
    (12): Linear(in_features=50, out_features=21, bias=True)
    (13): GELU()
    (14): Linear(in_features=21, out_features=1, bias=True)
  )
)

Total number of trainable parameters: 103643

Checkpoint found: 1000

batch_size = 300
bias = True
clear_checkpoint = False
clip_grad = 0
cuda = -1
device = cpu
dtype = float64
lr = 0.0005
max_step = 1000
n_in = 68
n_out = 1
net_depth = 9
net_width = (100, 200, 200, 100, 100, 50, 21)
no_stdout = False
optimizer = adam
out_dir = out
out_filename = out/MLP_nd9_nw-100-200-200-100-100-50-21_bias/outwithout5
out_infix = without5
print_step = 5
save_step = 10
seed = 59868335
tolerance = 1e-05

init_time = 0.000
Training...
MLP(
  (net): Sequential(
    (0): Linear(in_features=68, out_features=100, bias=True)
    (1): GELU()
    (2): Linear(in_features=100, out_features=200, bias=True)
    (3): GELU()
    (4): Linear(in_features=200, out_features=200, bias=True)
    (5): GELU()
    (6): Linear(in_features=200, out_features=100, bias=True)
    (7): GELU()
    (8): Linear(in_features=100, out_features=100, bias=True)
    (9): GELU()
    (10): Linear(in_features=100, out_features=50, bias=True)
    (11): GELU()
    (12): Linear(in_features=50, out_features=21, bias=True)
    (13): GELU()
    (14): Linear(in_features=21, out_features=1, bias=True)
  )
)

Total number of trainable parameters: 103643

Checkpoint found: 1000

batch_size = 300
bias = True
clear_checkpoint = False
clip_grad = 0
cuda = -1
device = cpu
dtype = float64
lr = 0.0005
max_step = 1000
n_in = 68
n_out = 1
net_depth = 9
net_width = (100, 200, 200, 100, 100, 50, 21)
no_stdout = False
optimizer = adam
out_dir = out
out_filename = out/MLP_nd9_nw-100-200-200-100-100-50-21_bias/outwithout5
out_infix = without5
print_step = 5
save_step = 10
seed = 35599520
tolerance = 1e-05

init_time = 0.000
Training...
MLP(
  (net): Sequential(
    (0): Linear(in_features=68, out_features=100, bias=True)
    (1): GELU()
    (2): Linear(in_features=100, out_features=200, bias=True)
    (3): GELU()
    (4): Linear(in_features=200, out_features=200, bias=True)
    (5): GELU()
    (6): Linear(in_features=200, out_features=100, bias=True)
    (7): GELU()
    (8): Linear(in_features=100, out_features=100, bias=True)
    (9): GELU()
    (10): Linear(in_features=100, out_features=50, bias=True)
    (11): GELU()
    (12): Linear(in_features=50, out_features=21, bias=True)
    (13): GELU()
    (14): Linear(in_features=21, out_features=1, bias=True)
  )
)

Total number of trainable parameters: 103643

Checkpoint found: 1000

batch_size = 300
bias = True
clear_checkpoint = False
clip_grad = 0
cuda = -1
device = cpu
dtype = float64
lr = 0.0005
max_step = 1000
n_in = 68
n_out = 1
net_depth = 9
net_width = (100, 200, 200, 100, 100, 50, 21)
no_stdout = False
optimizer = adam
out_dir = out
out_filename = out/MLP_nd9_nw-100-200-200-100-100-50-21_bias/outwithout5
out_infix = without5
print_step = 5
save_step = 10
seed = 77929365
tolerance = 1e-05

init_time = 0.000
Training...
MLP(
  (net): Sequential(
    (0): Linear(in_features=68, out_features=100, bias=True)
    (1): GELU()
    (2): Linear(in_features=100, out_features=200, bias=True)
    (3): GELU()
    (4): Linear(in_features=200, out_features=200, bias=True)
    (5): GELU()
    (6): Linear(in_features=200, out_features=100, bias=True)
    (7): GELU()
    (8): Linear(in_features=100, out_features=100, bias=True)
    (9): GELU()
    (10): Linear(in_features=100, out_features=50, bias=True)
    (11): GELU()
    (12): Linear(in_features=50, out_features=21, bias=True)
    (13): GELU()
    (14): Linear(in_features=21, out_features=1, bias=True)
  )
)

Total number of trainable parameters: 103643

Checkpoint found: 1000

batch_size = 300
bias = True
clear_checkpoint = False
clip_grad = 0
cuda = -1
device = cpu
dtype = float64
lr = 0.0005
max_step = 1000
n_in = 68
n_out = 1
net_depth = 9
net_width = (100, 200, 200, 100, 100, 50, 21)
no_stdout = False
optimizer = adam
out_dir = out
out_filename = out/MLP_nd9_nw-100-200-200-100-100-50-21_bias/outwithout5
out_infix = without5
print_step = 5
save_step = 10
seed = 99530646
tolerance = 1e-05

init_time = 0.000
Training...
MLP(
  (net): Sequential(
    (0): Linear(in_features=68, out_features=100, bias=True)
    (1): GELU()
    (2): Linear(in_features=100, out_features=200, bias=True)
    (3): GELU()
    (4): Linear(in_features=200, out_features=200, bias=True)
    (5): GELU()
    (6): Linear(in_features=200, out_features=100, bias=True)
    (7): GELU()
    (8): Linear(in_features=100, out_features=100, bias=True)
    (9): GELU()
    (10): Linear(in_features=100, out_features=50, bias=True)
    (11): GELU()
    (12): Linear(in_features=50, out_features=21, bias=True)
    (13): GELU()
    (14): Linear(in_features=21, out_features=1, bias=True)
  )
)

Total number of trainable parameters: 103643

Checkpoint found: 1000

batch_size = 300
bias = True
clear_checkpoint = False
clip_grad = 0
cuda = -1
device = cpu
dtype = float64
lr = 0.0005
max_step = 1000
n_in = 68
n_out = 1
net_depth = 9
net_width = (100, 200, 200, 100, 100, 50, 21)
no_stdout = False
optimizer = adam
out_dir = out
out_filename = out/MLP_nd9_nw-100-200-200-100-100-50-21_bias/outwithout5
out_infix = without5
print_step = 5
save_step = 10
seed = 98614169
tolerance = 1e-05

init_time = 0.000
Training...
MLP(
  (net): Sequential(
    (0): Linear(in_features=68, out_features=100, bias=True)
    (1): GELU()
    (2): Linear(in_features=100, out_features=200, bias=True)
    (3): GELU()
    (4): Linear(in_features=200, out_features=200, bias=True)
    (5): GELU()
    (6): Linear(in_features=200, out_features=100, bias=True)
    (7): GELU()
    (8): Linear(in_features=100, out_features=100, bias=True)
    (9): GELU()
    (10): Linear(in_features=100, out_features=50, bias=True)
    (11): GELU()
    (12): Linear(in_features=50, out_features=21, bias=True)
    (13): GELU()
    (14): Linear(in_features=21, out_features=1, bias=True)
  )
)

Total number of trainable parameters: 103643

Checkpoint found: 1000

batch_size = 300
bias = True
clear_checkpoint = False
clip_grad = 0
cuda = -1
device = cpu
dtype = float64
lr = 0.0005
max_step = 1000
n_in = 68
n_out = 1
net_depth = 9
net_width = (100, 200, 200, 100, 100, 50, 21)
no_stdout = False
optimizer = adam
out_dir = out
out_filename = out/MLP_nd9_nw-100-200-200-100-100-50-21_bias/outwithout5
out_infix = without5
print_step = 5
save_step = 10
seed = 60251907
tolerance = 1e-05

init_time = 0.000
Training...
MLP(
  (net): Sequential(
    (0): Linear(in_features=68, out_features=100, bias=True)
    (1): GELU()
    (2): Linear(in_features=100, out_features=200, bias=True)
    (3): GELU()
    (4): Linear(in_features=200, out_features=200, bias=True)
    (5): GELU()
    (6): Linear(in_features=200, out_features=100, bias=True)
    (7): GELU()
    (8): Linear(in_features=100, out_features=100, bias=True)
    (9): GELU()
    (10): Linear(in_features=100, out_features=50, bias=True)
    (11): GELU()
    (12): Linear(in_features=50, out_features=21, bias=True)
    (13): GELU()
    (14): Linear(in_features=21, out_features=1, bias=True)
  )
)

Total number of trainable parameters: 103643

Checkpoint found: 1000

batch_size = 300
bias = True
clear_checkpoint = False
clip_grad = 0
cuda = -1
device = cpu
dtype = float64
lr = 0.0005
max_step = 1000
n_in = 68
n_out = 1
net_depth = 9
net_width = (100, 200, 200, 100, 100, 50, 21)
no_stdout = False
optimizer = adam
out_dir = out
out_filename = out/MLP_nd9_nw-100-200-200-100-100-50-21_bias/outwithout5
out_infix = without5
print_step = 5
save_step = 10
seed = 20370638
tolerance = 1e-05

init_time = 0.000
Training...
MLP(
  (net): Sequential(
    (0): Linear(in_features=68, out_features=100, bias=True)
    (1): GELU()
    (2): Linear(in_features=100, out_features=200, bias=True)
    (3): GELU()
    (4): Linear(in_features=200, out_features=200, bias=True)
    (5): GELU()
    (6): Linear(in_features=200, out_features=100, bias=True)
    (7): GELU()
    (8): Linear(in_features=100, out_features=100, bias=True)
    (9): GELU()
    (10): Linear(in_features=100, out_features=50, bias=True)
    (11): GELU()
    (12): Linear(in_features=50, out_features=21, bias=True)
    (13): GELU()
    (14): Linear(in_features=21, out_features=1, bias=True)
  )
)

Total number of trainable parameters: 103643

Checkpoint found: 1000

batch_size = 300
bias = True
clear_checkpoint = False
clip_grad = 0
cuda = -1
device = cpu
dtype = float64
lr = 0.0005
max_step = 1000
n_in = 68
n_out = 1
net_depth = 9
net_width = (100, 200, 200, 100, 100, 50, 21)
no_stdout = False
optimizer = adam
out_dir = out
out_filename = out/MLP_nd9_nw-100-200-200-100-100-50-21_bias/outwithout5
out_infix = without5
print_step = 5
save_step = 10
seed = 12762363
tolerance = 1e-05

init_time = 0.000
Training...
MLP(
  (net): Sequential(
    (0): Linear(in_features=68, out_features=100, bias=True)
    (1): GELU()
    (2): Linear(in_features=100, out_features=200, bias=True)
    (3): GELU()
    (4): Linear(in_features=200, out_features=200, bias=True)
    (5): GELU()
    (6): Linear(in_features=200, out_features=100, bias=True)
    (7): GELU()
    (8): Linear(in_features=100, out_features=100, bias=True)
    (9): GELU()
    (10): Linear(in_features=100, out_features=50, bias=True)
    (11): GELU()
    (12): Linear(in_features=50, out_features=21, bias=True)
    (13): GELU()
    (14): Linear(in_features=21, out_features=1, bias=True)
  )
)

Total number of trainable parameters: 103643

Checkpoint found: 1000

batch_size = 300
bias = True
clear_checkpoint = False
clip_grad = 0
cuda = -1
device = cpu
dtype = float64
lr = 0.0005
max_step = 1000
n_in = 68
n_out = 1
net_depth = 9
net_width = (100, 200, 200, 100, 100, 50, 21)
no_stdout = False
optimizer = adam
out_dir = out
out_filename = out/MLP_nd9_nw-100-200-200-100-100-50-21_bias/outwithout5
out_infix = without5
print_step = 5
save_step = 10
seed = 99985496
tolerance = 1e-05

init_time = 0.000
Training...
MLP(
  (net): Sequential(
    (0): Linear(in_features=68, out_features=100, bias=True)
    (1): GELU()
    (2): Linear(in_features=100, out_features=200, bias=True)
    (3): GELU()
    (4): Linear(in_features=200, out_features=200, bias=True)
    (5): GELU()
    (6): Linear(in_features=200, out_features=100, bias=True)
    (7): GELU()
    (8): Linear(in_features=100, out_features=100, bias=True)
    (9): GELU()
    (10): Linear(in_features=100, out_features=50, bias=True)
    (11): GELU()
    (12): Linear(in_features=50, out_features=21, bias=True)
    (13): GELU()
    (14): Linear(in_features=21, out_features=1, bias=True)
  )
)

Total number of trainable parameters: 103643

Checkpoint found: 1000

batch_size = 300
bias = True
clear_checkpoint = False
clip_grad = 0
cuda = -1
device = cpu
dtype = float64
lr = 0.0005
max_step = 1000
n_in = 68
n_out = 1
net_depth = 9
net_width = (100, 200, 200, 100, 100, 50, 21)
no_stdout = False
optimizer = adam
out_dir = out
out_filename = out/MLP_nd9_nw-100-200-200-100-100-50-21_bias/outwithout5
out_infix = without5
print_step = 5
save_step = 10
seed = 40287296
tolerance = 1e-05

init_time = 0.000
Training...
MLP(
  (net): Sequential(
    (0): Linear(in_features=68, out_features=100, bias=True)
    (1): GELU()
    (2): Linear(in_features=100, out_features=200, bias=True)
    (3): GELU()
    (4): Linear(in_features=200, out_features=200, bias=True)
    (5): GELU()
    (6): Linear(in_features=200, out_features=100, bias=True)
    (7): GELU()
    (8): Linear(in_features=100, out_features=100, bias=True)
    (9): GELU()
    (10): Linear(in_features=100, out_features=50, bias=True)
    (11): GELU()
    (12): Linear(in_features=50, out_features=21, bias=True)
    (13): GELU()
    (14): Linear(in_features=21, out_features=1, bias=True)
  )
)

Total number of trainable parameters: 103643

Checkpoint found: 1000

batch_size = 300
bias = True
clear_checkpoint = False
clip_grad = 0
cuda = -1
device = cpu
dtype = float64
lr = 0.0005
max_step = 1000
n_in = 68
n_out = 1
net_depth = 9
net_width = (100, 200, 200, 100, 100, 50, 21)
no_stdout = False
optimizer = adam
out_dir = out
out_filename = out/MLP_nd9_nw-100-200-200-100-100-50-21_bias/outwithout5
out_infix = without5
print_step = 5
save_step = 10
seed = 73406790
tolerance = 1e-05

init_time = 0.000
Training...
MLP(
  (net): Sequential(
    (0): Linear(in_features=68, out_features=100, bias=True)
    (1): GELU()
    (2): Linear(in_features=100, out_features=200, bias=True)
    (3): GELU()
    (4): Linear(in_features=200, out_features=200, bias=True)
    (5): GELU()
    (6): Linear(in_features=200, out_features=100, bias=True)
    (7): GELU()
    (8): Linear(in_features=100, out_features=100, bias=True)
    (9): GELU()
    (10): Linear(in_features=100, out_features=50, bias=True)
    (11): GELU()
    (12): Linear(in_features=50, out_features=21, bias=True)
    (13): GELU()
    (14): Linear(in_features=21, out_features=1, bias=True)
  )
)

Total number of trainable parameters: 103643

Checkpoint found: 1000

MLP(
  (net): Sequential(
    (0): Linear(in_features=68, out_features=100, bias=True)
    (1): GELU()
    (2): Linear(in_features=100, out_features=200, bias=True)
    (3): GELU()
    (4): Linear(in_features=200, out_features=200, bias=True)
    (5): GELU()
    (6): Linear(in_features=200, out_features=100, bias=True)
    (7): GELU()
    (8): Linear(in_features=100, out_features=100, bias=True)
    (9): GELU()
    (10): Linear(in_features=100, out_features=50, bias=True)
    (11): GELU()
    (12): Linear(in_features=50, out_features=21, bias=True)
    (13): GELU()
    (14): Linear(in_features=21, out_features=1, bias=True)
  )
)

Total number of trainable parameters: 103643

Checkpoint found: 1000

MLP(
  (net): Sequential(
    (0): Linear(in_features=68, out_features=100, bias=True)
    (1): GELU()
    (2): Linear(in_features=100, out_features=200, bias=True)
    (3): GELU()
    (4): Linear(in_features=200, out_features=200, bias=True)
    (5): GELU()
    (6): Linear(in_features=200, out_features=100, bias=True)
    (7): GELU()
    (8): Linear(in_features=100, out_features=100, bias=True)
    (9): GELU()
    (10): Linear(in_features=100, out_features=50, bias=True)
    (11): GELU()
    (12): Linear(in_features=50, out_features=21, bias=True)
    (13): GELU()
    (14): Linear(in_features=21, out_features=1, bias=True)
  )
)

Total number of trainable parameters: 103643

Checkpoint found: 1000

MLP(
  (net): Sequential(
    (0): Linear(in_features=68, out_features=100, bias=True)
    (1): GELU()
    (2): Linear(in_features=100, out_features=200, bias=True)
    (3): GELU()
    (4): Linear(in_features=200, out_features=200, bias=True)
    (5): GELU()
    (6): Linear(in_features=200, out_features=100, bias=True)
    (7): GELU()
    (8): Linear(in_features=100, out_features=100, bias=True)
    (9): GELU()
    (10): Linear(in_features=100, out_features=50, bias=True)
    (11): GELU()
    (12): Linear(in_features=50, out_features=21, bias=True)
    (13): GELU()
    (14): Linear(in_features=21, out_features=1, bias=True)
  )
)

Total number of trainable parameters: 103643

Checkpoint found: 1000

MLP(
  (net): Sequential(
    (0): Linear(in_features=68, out_features=100, bias=True)
    (1): GELU()
    (2): Linear(in_features=100, out_features=200, bias=True)
    (3): GELU()
    (4): Linear(in_features=200, out_features=200, bias=True)
    (5): GELU()
    (6): Linear(in_features=200, out_features=100, bias=True)
    (7): GELU()
    (8): Linear(in_features=100, out_features=100, bias=True)
    (9): GELU()
    (10): Linear(in_features=100, out_features=50, bias=True)
    (11): GELU()
    (12): Linear(in_features=50, out_features=21, bias=True)
    (13): GELU()
    (14): Linear(in_features=21, out_features=1, bias=True)
  )
)

Total number of trainable parameters: 103643

Checkpoint found: 1000

MLP(
  (net): Sequential(
    (0): Linear(in_features=68, out_features=100, bias=True)
    (1): GELU()
    (2): Linear(in_features=100, out_features=200, bias=True)
    (3): GELU()
    (4): Linear(in_features=200, out_features=200, bias=True)
    (5): GELU()
    (6): Linear(in_features=200, out_features=100, bias=True)
    (7): GELU()
    (8): Linear(in_features=100, out_features=100, bias=True)
    (9): GELU()
    (10): Linear(in_features=100, out_features=50, bias=True)
    (11): GELU()
    (12): Linear(in_features=50, out_features=21, bias=True)
    (13): GELU()
    (14): Linear(in_features=21, out_features=1, bias=True)
  )
)

Total number of trainable parameters: 103643

Checkpoint found: 1000

MLP(
  (net): Sequential(
    (0): Linear(in_features=68, out_features=100, bias=True)
    (1): GELU()
    (2): Linear(in_features=100, out_features=200, bias=True)
    (3): GELU()
    (4): Linear(in_features=200, out_features=200, bias=True)
    (5): GELU()
    (6): Linear(in_features=200, out_features=100, bias=True)
    (7): GELU()
    (8): Linear(in_features=100, out_features=100, bias=True)
    (9): GELU()
    (10): Linear(in_features=100, out_features=50, bias=True)
    (11): GELU()
    (12): Linear(in_features=50, out_features=21, bias=True)
    (13): GELU()
    (14): Linear(in_features=21, out_features=1, bias=True)
  )
)

Total number of trainable parameters: 103643

Checkpoint found: 1000

MLP(
  (net): Sequential(
    (0): Linear(in_features=68, out_features=100, bias=True)
    (1): GELU()
    (2): Linear(in_features=100, out_features=200, bias=True)
    (3): GELU()
    (4): Linear(in_features=200, out_features=200, bias=True)
    (5): GELU()
    (6): Linear(in_features=200, out_features=100, bias=True)
    (7): GELU()
    (8): Linear(in_features=100, out_features=100, bias=True)
    (9): GELU()
    (10): Linear(in_features=100, out_features=50, bias=True)
    (11): GELU()
    (12): Linear(in_features=50, out_features=21, bias=True)
    (13): GELU()
    (14): Linear(in_features=21, out_features=1, bias=True)
  )
)

Total number of trainable parameters: 103643

Checkpoint found: 1000

MLP(
  (net): Sequential(
    (0): Linear(in_features=68, out_features=100, bias=True)
    (1): GELU()
    (2): Linear(in_features=100, out_features=200, bias=True)
    (3): GELU()
    (4): Linear(in_features=200, out_features=200, bias=True)
    (5): GELU()
    (6): Linear(in_features=200, out_features=100, bias=True)
    (7): GELU()
    (8): Linear(in_features=100, out_features=100, bias=True)
    (9): GELU()
    (10): Linear(in_features=100, out_features=50, bias=True)
    (11): GELU()
    (12): Linear(in_features=50, out_features=21, bias=True)
    (13): GELU()
    (14): Linear(in_features=21, out_features=1, bias=True)
  )
)

Total number of trainable parameters: 103643

Checkpoint found: 1000

MLP(
  (net): Sequential(
    (0): Linear(in_features=68, out_features=100, bias=True)
    (1): GELU()
    (2): Linear(in_features=100, out_features=200, bias=True)
    (3): GELU()
    (4): Linear(in_features=200, out_features=200, bias=True)
    (5): GELU()
    (6): Linear(in_features=200, out_features=100, bias=True)
    (7): GELU()
    (8): Linear(in_features=100, out_features=100, bias=True)
    (9): GELU()
    (10): Linear(in_features=100, out_features=50, bias=True)
    (11): GELU()
    (12): Linear(in_features=50, out_features=21, bias=True)
    (13): GELU()
    (14): Linear(in_features=21, out_features=1, bias=True)
  )
)

Total number of trainable parameters: 103643

Checkpoint found: 1000

MLP(
  (net): Sequential(
    (0): Linear(in_features=68, out_features=100, bias=True)
    (1): GELU()
    (2): Linear(in_features=100, out_features=200, bias=True)
    (3): GELU()
    (4): Linear(in_features=200, out_features=200, bias=True)
    (5): GELU()
    (6): Linear(in_features=200, out_features=100, bias=True)
    (7): GELU()
    (8): Linear(in_features=100, out_features=100, bias=True)
    (9): GELU()
    (10): Linear(in_features=100, out_features=50, bias=True)
    (11): GELU()
    (12): Linear(in_features=50, out_features=21, bias=True)
    (13): GELU()
    (14): Linear(in_features=21, out_features=1, bias=True)
  )
)

Total number of trainable parameters: 103643

Checkpoint found: 1000

MLP(
  (net): Sequential(
    (0): Linear(in_features=68, out_features=100, bias=True)
    (1): GELU()
    (2): Linear(in_features=100, out_features=200, bias=True)
    (3): GELU()
    (4): Linear(in_features=200, out_features=200, bias=True)
    (5): GELU()
    (6): Linear(in_features=200, out_features=100, bias=True)
    (7): GELU()
    (8): Linear(in_features=100, out_features=100, bias=True)
    (9): GELU()
    (10): Linear(in_features=100, out_features=50, bias=True)
    (11): GELU()
    (12): Linear(in_features=50, out_features=21, bias=True)
    (13): GELU()
    (14): Linear(in_features=21, out_features=1, bias=True)
  )
)

Total number of trainable parameters: 103643

Checkpoint found: 1000

MLP(
  (net): Sequential(
    (0): Linear(in_features=68, out_features=100, bias=True)
    (1): GELU()
    (2): Linear(in_features=100, out_features=200, bias=True)
    (3): GELU()
    (4): Linear(in_features=200, out_features=200, bias=True)
    (5): GELU()
    (6): Linear(in_features=200, out_features=100, bias=True)
    (7): GELU()
    (8): Linear(in_features=100, out_features=100, bias=True)
    (9): GELU()
    (10): Linear(in_features=100, out_features=50, bias=True)
    (11): GELU()
    (12): Linear(in_features=50, out_features=21, bias=True)
    (13): GELU()
    (14): Linear(in_features=21, out_features=1, bias=True)
  )
)

Total number of trainable parameters: 103643

Checkpoint found: 1000

MLP(
  (net): Sequential(
    (0): Linear(in_features=68, out_features=100, bias=True)
    (1): GELU()
    (2): Linear(in_features=100, out_features=200, bias=True)
    (3): GELU()
    (4): Linear(in_features=200, out_features=200, bias=True)
    (5): GELU()
    (6): Linear(in_features=200, out_features=100, bias=True)
    (7): GELU()
    (8): Linear(in_features=100, out_features=100, bias=True)
    (9): GELU()
    (10): Linear(in_features=100, out_features=50, bias=True)
    (11): GELU()
    (12): Linear(in_features=50, out_features=21, bias=True)
    (13): GELU()
    (14): Linear(in_features=21, out_features=1, bias=True)
  )
)

Total number of trainable parameters: 103643

Checkpoint found: 1000

MLP(
  (net): Sequential(
    (0): Linear(in_features=68, out_features=100, bias=True)
    (1): GELU()
    (2): Linear(in_features=100, out_features=200, bias=True)
    (3): GELU()
    (4): Linear(in_features=200, out_features=200, bias=True)
    (5): GELU()
    (6): Linear(in_features=200, out_features=100, bias=True)
    (7): GELU()
    (8): Linear(in_features=100, out_features=100, bias=True)
    (9): GELU()
    (10): Linear(in_features=100, out_features=50, bias=True)
    (11): GELU()
    (12): Linear(in_features=50, out_features=21, bias=True)
    (13): GELU()
    (14): Linear(in_features=21, out_features=1, bias=True)
  )
)

Total number of trainable parameters: 103643

Checkpoint found: 1000

MLP(
  (net): Sequential(
    (0): Linear(in_features=68, out_features=100, bias=True)
    (1): GELU()
    (2): Linear(in_features=100, out_features=200, bias=True)
    (3): GELU()
    (4): Linear(in_features=200, out_features=200, bias=True)
    (5): GELU()
    (6): Linear(in_features=200, out_features=100, bias=True)
    (7): GELU()
    (8): Linear(in_features=100, out_features=100, bias=True)
    (9): GELU()
    (10): Linear(in_features=100, out_features=50, bias=True)
    (11): GELU()
    (12): Linear(in_features=50, out_features=21, bias=True)
    (13): GELU()
    (14): Linear(in_features=21, out_features=1, bias=True)
  )
)

Total number of trainable parameters: 103643

Checkpoint found: 1000

MLP(
  (net): Sequential(
    (0): Linear(in_features=68, out_features=100, bias=True)
    (1): GELU()
    (2): Linear(in_features=100, out_features=200, bias=True)
    (3): GELU()
    (4): Linear(in_features=200, out_features=200, bias=True)
    (5): GELU()
    (6): Linear(in_features=200, out_features=100, bias=True)
    (7): GELU()
    (8): Linear(in_features=100, out_features=100, bias=True)
    (9): GELU()
    (10): Linear(in_features=100, out_features=50, bias=True)
    (11): GELU()
    (12): Linear(in_features=50, out_features=21, bias=True)
    (13): GELU()
    (14): Linear(in_features=21, out_features=1, bias=True)
  )
)

Total number of trainable parameters: 103643

Checkpoint found: 1000

MLP(
  (net): Sequential(
    (0): Linear(in_features=68, out_features=100, bias=True)
    (1): GELU()
    (2): Linear(in_features=100, out_features=200, bias=True)
    (3): GELU()
    (4): Linear(in_features=200, out_features=200, bias=True)
    (5): GELU()
    (6): Linear(in_features=200, out_features=100, bias=True)
    (7): GELU()
    (8): Linear(in_features=100, out_features=100, bias=True)
    (9): GELU()
    (10): Linear(in_features=100, out_features=50, bias=True)
    (11): GELU()
    (12): Linear(in_features=50, out_features=21, bias=True)
    (13): GELU()
    (14): Linear(in_features=21, out_features=1, bias=True)
  )
)

Total number of trainable parameters: 103643

Checkpoint found: 1000

MLP(
  (net): Sequential(
    (0): Linear(in_features=68, out_features=100, bias=True)
    (1): GELU()
    (2): Linear(in_features=100, out_features=200, bias=True)
    (3): GELU()
    (4): Linear(in_features=200, out_features=200, bias=True)
    (5): GELU()
    (6): Linear(in_features=200, out_features=100, bias=True)
    (7): GELU()
    (8): Linear(in_features=100, out_features=100, bias=True)
    (9): GELU()
    (10): Linear(in_features=100, out_features=50, bias=True)
    (11): GELU()
    (12): Linear(in_features=50, out_features=21, bias=True)
    (13): GELU()
    (14): Linear(in_features=21, out_features=1, bias=True)
  )
)

Total number of trainable parameters: 103643

Checkpoint found: 1000

MLP(
  (net): Sequential(
    (0): Linear(in_features=68, out_features=100, bias=True)
    (1): GELU()
    (2): Linear(in_features=100, out_features=200, bias=True)
    (3): GELU()
    (4): Linear(in_features=200, out_features=200, bias=True)
    (5): GELU()
    (6): Linear(in_features=200, out_features=100, bias=True)
    (7): GELU()
    (8): Linear(in_features=100, out_features=100, bias=True)
    (9): GELU()
    (10): Linear(in_features=100, out_features=50, bias=True)
    (11): GELU()
    (12): Linear(in_features=50, out_features=21, bias=True)
    (13): GELU()
    (14): Linear(in_features=21, out_features=1, bias=True)
  )
)

Total number of trainable parameters: 103643

Checkpoint found: 1000

MLP(
  (net): Sequential(
    (0): Linear(in_features=68, out_features=100, bias=True)
    (1): GELU()
    (2): Linear(in_features=100, out_features=200, bias=True)
    (3): GELU()
    (4): Linear(in_features=200, out_features=200, bias=True)
    (5): GELU()
    (6): Linear(in_features=200, out_features=100, bias=True)
    (7): GELU()
    (8): Linear(in_features=100, out_features=100, bias=True)
    (9): GELU()
    (10): Linear(in_features=100, out_features=50, bias=True)
    (11): GELU()
    (12): Linear(in_features=50, out_features=21, bias=True)
    (13): GELU()
    (14): Linear(in_features=21, out_features=1, bias=True)
  )
)

Total number of trainable parameters: 103643

Checkpoint found: 1000

MLP(
  (net): Sequential(
    (0): Linear(in_features=68, out_features=100, bias=True)
    (1): GELU()
    (2): Linear(in_features=100, out_features=200, bias=True)
    (3): GELU()
    (4): Linear(in_features=200, out_features=200, bias=True)
    (5): GELU()
    (6): Linear(in_features=200, out_features=100, bias=True)
    (7): GELU()
    (8): Linear(in_features=100, out_features=100, bias=True)
    (9): GELU()
    (10): Linear(in_features=100, out_features=50, bias=True)
    (11): GELU()
    (12): Linear(in_features=50, out_features=21, bias=True)
    (13): GELU()
    (14): Linear(in_features=21, out_features=1, bias=True)
  )
)

Total number of trainable parameters: 103643

Checkpoint found: 1000

MLP(
  (net): Sequential(
    (0): Linear(in_features=68, out_features=100, bias=True)
    (1): GELU()
    (2): Linear(in_features=100, out_features=200, bias=True)
    (3): GELU()
    (4): Linear(in_features=200, out_features=200, bias=True)
    (5): GELU()
    (6): Linear(in_features=200, out_features=100, bias=True)
    (7): GELU()
    (8): Linear(in_features=100, out_features=100, bias=True)
    (9): GELU()
    (10): Linear(in_features=100, out_features=50, bias=True)
    (11): GELU()
    (12): Linear(in_features=50, out_features=21, bias=True)
    (13): GELU()
    (14): Linear(in_features=21, out_features=1, bias=True)
  )
)

Total number of trainable parameters: 103643

Checkpoint found: 1000

MLP(
  (net): Sequential(
    (0): Linear(in_features=68, out_features=100, bias=True)
    (1): GELU()
    (2): Linear(in_features=100, out_features=200, bias=True)
    (3): GELU()
    (4): Linear(in_features=200, out_features=200, bias=True)
    (5): GELU()
    (6): Linear(in_features=200, out_features=100, bias=True)
    (7): GELU()
    (8): Linear(in_features=100, out_features=100, bias=True)
    (9): GELU()
    (10): Linear(in_features=100, out_features=50, bias=True)
    (11): GELU()
    (12): Linear(in_features=50, out_features=21, bias=True)
    (13): GELU()
    (14): Linear(in_features=21, out_features=1, bias=True)
  )
)

Total number of trainable parameters: 103643

Checkpoint found: 1000

MLP(
  (net): Sequential(
    (0): Linear(in_features=68, out_features=100, bias=True)
    (1): GELU()
    (2): Linear(in_features=100, out_features=200, bias=True)
    (3): GELU()
    (4): Linear(in_features=200, out_features=200, bias=True)
    (5): GELU()
    (6): Linear(in_features=200, out_features=100, bias=True)
    (7): GELU()
    (8): Linear(in_features=100, out_features=100, bias=True)
    (9): GELU()
    (10): Linear(in_features=100, out_features=50, bias=True)
    (11): GELU()
    (12): Linear(in_features=50, out_features=21, bias=True)
    (13): GELU()
    (14): Linear(in_features=21, out_features=1, bias=True)
  )
)

Total number of trainable parameters: 103643

Checkpoint found: 1000

MLP(
  (net): Sequential(
    (0): Linear(in_features=68, out_features=100, bias=True)
    (1): GELU()
    (2): Linear(in_features=100, out_features=200, bias=True)
    (3): GELU()
    (4): Linear(in_features=200, out_features=200, bias=True)
    (5): GELU()
    (6): Linear(in_features=200, out_features=100, bias=True)
    (7): GELU()
    (8): Linear(in_features=100, out_features=100, bias=True)
    (9): GELU()
    (10): Linear(in_features=100, out_features=50, bias=True)
    (11): GELU()
    (12): Linear(in_features=50, out_features=21, bias=True)
    (13): GELU()
    (14): Linear(in_features=21, out_features=1, bias=True)
  )
)

Total number of trainable parameters: 103643

Checkpoint found: 1000

MLP(
  (net): Sequential(
    (0): Linear(in_features=68, out_features=100, bias=True)
    (1): GELU()
    (2): Linear(in_features=100, out_features=200, bias=True)
    (3): GELU()
    (4): Linear(in_features=200, out_features=200, bias=True)
    (5): GELU()
    (6): Linear(in_features=200, out_features=100, bias=True)
    (7): GELU()
    (8): Linear(in_features=100, out_features=100, bias=True)
    (9): GELU()
    (10): Linear(in_features=100, out_features=50, bias=True)
    (11): GELU()
    (12): Linear(in_features=50, out_features=21, bias=True)
    (13): GELU()
    (14): Linear(in_features=21, out_features=1, bias=True)
  )
)

Total number of trainable parameters: 103643

Checkpoint found: 1000

MLP(
  (net): Sequential(
    (0): Linear(in_features=68, out_features=100, bias=True)
    (1): GELU()
    (2): Linear(in_features=100, out_features=200, bias=True)
    (3): GELU()
    (4): Linear(in_features=200, out_features=200, bias=True)
    (5): GELU()
    (6): Linear(in_features=200, out_features=100, bias=True)
    (7): GELU()
    (8): Linear(in_features=100, out_features=100, bias=True)
    (9): GELU()
    (10): Linear(in_features=100, out_features=50, bias=True)
    (11): GELU()
    (12): Linear(in_features=50, out_features=21, bias=True)
    (13): GELU()
    (14): Linear(in_features=21, out_features=1, bias=True)
  )
)

Total number of trainable parameters: 103643

Checkpoint found: 1000

MLP(
  (net): Sequential(
    (0): Linear(in_features=68, out_features=100, bias=True)
    (1): GELU()
    (2): Linear(in_features=100, out_features=200, bias=True)
    (3): GELU()
    (4): Linear(in_features=200, out_features=200, bias=True)
    (5): GELU()
    (6): Linear(in_features=200, out_features=100, bias=True)
    (7): GELU()
    (8): Linear(in_features=100, out_features=100, bias=True)
    (9): GELU()
    (10): Linear(in_features=100, out_features=50, bias=True)
    (11): GELU()
    (12): Linear(in_features=50, out_features=21, bias=True)
    (13): GELU()
    (14): Linear(in_features=21, out_features=1, bias=True)
  )
)

Total number of trainable parameters: 103643

Checkpoint found: 1000

