…
step = 980, loss = 0.20560353, r2_train = 0.030728254, r2_test = 0.031773685, train_time = 16.085, used_time = 14788.016
step = 985, loss = 0.20982895, r2_train = 0.036306739, r2_test = 0.036928754, train_time = 16.280, used_time = 14869.607
step = 990, loss = 0.203783, r2_train = 0.031582306, r2_test = 0.032194926, train_time = 16.440, used_time = 14951.969
step = 995, loss = 0.2076865, r2_train = 0.030294422, r2_test = 0.031303489, train_time = 17.195, used_time = 15038.127
step = 1000, loss = 0.20446598, r2_train = 0.047279075, r2_test = 0.048293619, train_time = 15.226, used_time = 15114.414
MLP(
  (net): Sequential(
    (0): Linear(in_features=68, out_features=100, bias=True)
    (1): GELU()
    (2): Linear(in_features=100, out_features=200, bias=True)
    (3): GELU()
    (4): Linear(in_features=200, out_features=200, bias=True)
    (5): GELU()
    (6): Linear(in_features=200, out_features=100, bias=True)
    (7): GELU()
    (8): Linear(in_features=100, out_features=100, bias=True)
    (9): GELU()
    (10): Linear(in_features=100, out_features=50, bias=True)
    (11): GELU()
    (12): Linear(in_features=50, out_features=21, bias=True)
    (13): GELU()
    (14): Linear(in_features=21, out_features=1, bias=True)
  )
)

Total number of trainable parameters: 103643

Checkpoint found: 1000

batch_size = 300
bias = True
clear_checkpoint = False
clip_grad = 0
cuda = -1
device = cpu
dtype = float64
lr = 0.0005
max_step = 1000
n_in = 68
n_out = 1
net_depth = 9
net_width = (100, 200, 200, 100, 100, 50, 21)
no_stdout = False
optimizer = adam
out_dir = out
out_filename = out/MLP_nd9_nw-100-200-200-100-100-50-21_bias/outwithout3
out_infix = without3
print_step = 5
save_step = 10
seed = 56495659
tolerance = 1e-05

init_time = 0.000
Training...
MLP(
  (net): Sequential(
    (0): Linear(in_features=68, out_features=100, bias=True)
    (1): GELU()
    (2): Linear(in_features=100, out_features=200, bias=True)
    (3): GELU()
    (4): Linear(in_features=200, out_features=200, bias=True)
    (5): GELU()
    (6): Linear(in_features=200, out_features=100, bias=True)
    (7): GELU()
    (8): Linear(in_features=100, out_features=100, bias=True)
    (9): GELU()
    (10): Linear(in_features=100, out_features=50, bias=True)
    (11): GELU()
    (12): Linear(in_features=50, out_features=21, bias=True)
    (13): GELU()
    (14): Linear(in_features=21, out_features=1, bias=True)
  )
)

Total number of trainable parameters: 103643

Checkpoint found: 1000

batch_size = 300
bias = True
clear_checkpoint = False
clip_grad = 0
cuda = -1
device = cpu
dtype = float64
lr = 0.0005
max_step = 1000
n_in = 68
n_out = 1
net_depth = 9
net_width = (100, 200, 200, 100, 100, 50, 21)
no_stdout = False
optimizer = adam
out_dir = out
out_filename = out/MLP_nd9_nw-100-200-200-100-100-50-21_bias/outwithout3
out_infix = without3
print_step = 5
save_step = 10
seed = 90362865
tolerance = 1e-05

init_time = 0.000
Training...
MLP(
  (net): Sequential(
    (0): Linear(in_features=68, out_features=100, bias=True)
    (1): GELU()
    (2): Linear(in_features=100, out_features=200, bias=True)
    (3): GELU()
    (4): Linear(in_features=200, out_features=200, bias=True)
    (5): GELU()
    (6): Linear(in_features=200, out_features=100, bias=True)
    (7): GELU()
    (8): Linear(in_features=100, out_features=100, bias=True)
    (9): GELU()
    (10): Linear(in_features=100, out_features=50, bias=True)
    (11): GELU()
    (12): Linear(in_features=50, out_features=21, bias=True)
    (13): GELU()
    (14): Linear(in_features=21, out_features=1, bias=True)
  )
)

Total number of trainable parameters: 103643

Checkpoint found: 1000

batch_size = 300
bias = True
clear_checkpoint = False
clip_grad = 0
cuda = -1
device = cpu
dtype = float64
lr = 0.0005
max_step = 1000
n_in = 68
n_out = 1
net_depth = 9
net_width = (100, 200, 200, 100, 100, 50, 21)
no_stdout = False
optimizer = adam
out_dir = out
out_filename = out/MLP_nd9_nw-100-200-200-100-100-50-21_bias/outwithout3
out_infix = without3
print_step = 5
save_step = 10
seed = 43233374
tolerance = 1e-05

init_time = 0.000
Training...
MLP(
  (net): Sequential(
    (0): Linear(in_features=68, out_features=100, bias=True)
    (1): GELU()
    (2): Linear(in_features=100, out_features=200, bias=True)
    (3): GELU()
    (4): Linear(in_features=200, out_features=200, bias=True)
    (5): GELU()
    (6): Linear(in_features=200, out_features=100, bias=True)
    (7): GELU()
    (8): Linear(in_features=100, out_features=100, bias=True)
    (9): GELU()
    (10): Linear(in_features=100, out_features=50, bias=True)
    (11): GELU()
    (12): Linear(in_features=50, out_features=21, bias=True)
    (13): GELU()
    (14): Linear(in_features=21, out_features=1, bias=True)
  )
)

Total number of trainable parameters: 103643

Checkpoint found: 1000

batch_size = 300
bias = True
clear_checkpoint = False
clip_grad = 0
cuda = -1
device = cpu
dtype = float64
lr = 0.0005
max_step = 1000
n_in = 68
n_out = 1
net_depth = 9
net_width = (100, 200, 200, 100, 100, 50, 21)
no_stdout = False
optimizer = adam
out_dir = out
out_filename = out/MLP_nd9_nw-100-200-200-100-100-50-21_bias/outwithout3
out_infix = without3
print_step = 5
save_step = 10
seed = 51626628
tolerance = 1e-05

init_time = 0.000
Training...
MLP(
  (net): Sequential(
    (0): Linear(in_features=68, out_features=100, bias=True)
    (1): GELU()
    (2): Linear(in_features=100, out_features=200, bias=True)
    (3): GELU()
    (4): Linear(in_features=200, out_features=200, bias=True)
    (5): GELU()
    (6): Linear(in_features=200, out_features=100, bias=True)
    (7): GELU()
    (8): Linear(in_features=100, out_features=100, bias=True)
    (9): GELU()
    (10): Linear(in_features=100, out_features=50, bias=True)
    (11): GELU()
    (12): Linear(in_features=50, out_features=21, bias=True)
    (13): GELU()
    (14): Linear(in_features=21, out_features=1, bias=True)
  )
)

Total number of trainable parameters: 103643

Checkpoint found: 1000

batch_size = 300
bias = True
clear_checkpoint = False
clip_grad = 0
cuda = -1
device = cpu
dtype = float64
lr = 0.0005
max_step = 2000
n_in = 68
n_out = 1
net_depth = 9
net_width = (100, 200, 200, 100, 100, 50, 21)
no_stdout = False
optimizer = adam
out_dir = out
out_filename = out/MLP_nd9_nw-100-200-200-100-100-50-21_bias/outwithout3
…
